coil/vae/c3_v8_vae.pt (torch, 5447 bytes, 10 tensors)

fc1.weight f4 [16, 8]
0	0xbf47c4ee	-0.78034866
1	0x3e530558	0.20607507
2	0x3e1658f6	0.14682373
3	0xbe839eff	-0.25707242
4	0xbef144db	-0.47122845
5	0xbf190f35	-0.5978883
6	0xbedba136	-0.42896432
7	0xbeb2327b	-0.3480414
8	0x3e68a274	0.22718221
9	0xbf18dd6a	-0.5971285
10	0x3eea7444	0.4579183
11	0x3cd2b157	0.025719328
12	0x3d42e81c	0.047584638
13	0xbd08090d	-0.033211756
14	0x3c2d20d5	0.01056691
15	0xbd6ef4df	-0.058338996
16	0xbdc534b9	-0.09629197
17	0xbe941beb	-0.2892755
18	0xbe618c46	-0.22026166
19	0xbe8caf85	-0.2747766
20	0xbe27d5a0	-0.16390085
21	0xbe9de8b9	-0.30841616
22	0x3eb3e541	0.35135844
23	0xbdb8d6af	-0.09025323
24	0xbebf70b0	-0.3739066
25	0xbf002880	-0.500618
26	0xbeb0bda9	-0.345197
27	0xbe4351cd	-0.19074173
28	0x3dd80026	0.10546903
29	0xbcdea8e9	-0.027180152
30	0xbf283a10	-0.65713596
31	0xbe5855b8	-0.21126449
32	0x3c4ef073	0.01263057
33	0x3de87e0e	0.11352168
34	0xbd9e2c40	-0.07723284
35	0xbcebde22	-0.028792445
36	0x3ec67455	0.3876063
37	0x3f38d919	0.72206265
38	0x3e6138f6	0.21994385
39	0xbec887dc	-0.39166152
40	0xbdb9dce9	-0.090753384
41	0x3e934043	0.28759965
42	0x3ea881d5	0.32911554
43	0xbe8d0c41	-0.2754841
44	0x3d4fa548	0.050694734
45	0x3e05be42	0.13060859
46	0x3d220908	0.039559394
47	0x3e96d4a7	0.29459116
48	0x3f02e518	0.5113082
49	0x3e3aada6	0.18230304
50	0xbde5a2a8	-0.11212665
51	0x3ecdb12d	0.40174237
52	0xbe87bc96	-0.26511067
53	0x3da63fef	0.08117663
54	0x3da9c302	0.08289148
55	0xbdbd5a63	-0.092457555
56	0xbe02a914	-0.1275981
57	0xbed989fd	-0.4248809
58	0xbe1b0401	-0.15138246
59	0x3e7ca205	0.2467118
60	0x3c4db513	0.0125553785
61	0xbed44c51	-0.41464475
62	0x3e1d32a4	0.15351349
63	0xbd9c0c42	-0.076195255
64	0x3e41ebf9	0.18937673
65	0xbc1022c5	-0.008797352
66	0xbe63c9ce	-0.22244951
67	0xbf04eb4b	-0.5192153
68	0x3eca3598	0.39494014
69	0xbe4f1934	-0.20224458
70	0xbdb2a9e1	-0.08723808
71	0xbd482d4d	-0.048871327
72	0x3f0c7512	0.54866135
73	0x3d68f4b5	0.056873996
74	0xbdb580ff	-0.08862495
75	0xbe27116a	-0.16315237
76	0xbe6f8901	-0.23392107
77	0xbebb0986	-0.36530703
78	0xbf6f488f	-0.9347009
79	0x3e03b9a0	0.12863779
80	0x3e57bfa2	0.21069196
81	0x3c09ef6c	0.008418899
82	0x3baab945	0.005210074
83	0xbd48094c	-0.04883699
84	0xbd0deaf1	-0.034647886
85	0xbe7634ac	-0.2404353
86	0x3eb50c84	0.3536111
87	0xbf45c51c	-0.7725389
88	0xbbceaec8	-0.0063074566
89	0xbd835921	-0.06413484
90	0x3f4a9c0b	0.7914435
91	0x3e3dd163	0.18536906
92	0x3d49e3d9	0.049289558
93	0xbb9bdedd	-0.004756792
94	0x3ca84b3a	0.020543683
95	0xbc7cf0a7	-0.015438235
96	0xbe702775	-0.23452552
97	0xbed7c67b	-0.42143616
98	0xbeaf5c2e	-0.34250015
99	0x3d6887ed	0.056770254
100	0xbeba9d0c	-0.36447942
101	0xbecfa149	-0.40552738
102	0xbc972de5	-0.018454501
103	0xbdc0c4c1	-0.09412528
104	0xbe5ca10b	-0.21545808
105	0x3df65532	0.120279685
106	0xbe029eed	-0.12755938
107	0x3f35b746	0.7098278
108	0x3f21aa33	0.6315033
109	0xbda8c47b	-0.08240601
110	0xbe19803a	-0.14990321
111	0x3c5f49c7	0.01362843
112	0xbe584f87	-0.21124087
113	0xbe0c46f1	-0.13698937
114	0xbe37daec	-0.17954606
115	0xbd2e39ea	-0.0425357
116	0xbebc2036	-0.36743325
117	0x3f47cb6c	0.7804477
118	0xbe8ff7c7	-0.28118727
119	0xbdee1444	-0.11624959
120	0x38e10c42	0.00010731119
121	0x3cef8277	0.029237015
122	0x3acc8c68	0.0015605809
123	0x3cc8bdbd	0.024504537
124	0x3d0a946b	0.03383295
125	0x3bb3423a	0.0054705413
126	0x3fac3ffc	1.3457026
127	0x3e1339df	0.14377545

fc1.bias f4 [16]
0	0x3f5d3928	0.8641534
1	0x3f53ca92	0.8273097
2	0x3f37231a	0.71537936
3	0x3f3f4e84	0.7472918
4	0x3f5992ff	0.84989923
5	0x3f841bee	1.0321023
6	0x3f82f068	1.0229616
7	0x3f187a87	0.5956196
8	0x3f80af0d	1.0053421
9	0x3f702b38	0.93815947
10	0x3f5c1054	0.85962415
11	0x3f28f56f	0.659995
12	0x3f4aa243	0.7915384
13	0x3f8c0d28	1.0941515
14	0x3f6de844	0.92932534
15	0x3ee111a0	0.4395876

fc21.weight f4 [8, 16]
0	0xbed2cc85	-0.4117166
1	0xbe43f8b6	-0.19137844
2	0x3eb770e1	0.35828307
3	0xbed3e1a2	-0.41383082
4	0x3c9ddb88	0.01926972
5	0x3f146c6d	0.57977945
6	0xbd70e71b	-0.05881415
7	0x3e496846	0.19668683
8	0x3d9bfe93	0.076169156
9	0xbe39b096	-0.18133768
10	0xbededc45	-0.43527427
11	0x3e0ed6df	0.13949154
12	0x3ef56daa	0.4793523
13	0x3a1e40b4	0.0006036863
14	0x3c412e90	0.0117908865
15	0x3f5d829a	0.8652741
16	0xbe8c50bc	-0.27405345
17	0xbe45c11d	-0.19311948
18	0xbe203052	-0.15643433
19	0x3d98352b	0.07432016
20	0xbd25f158	-0.040513366
21	0xbe9e2ada	-0.30892068
22	0x3f138d34	0.57637334
23	0x3ead8208	0.33888268
24	0xbed61ef1	-0.4182048
25	0xbe0469dd	-0.12931009
26	0xbdfaea59	-0.122517295
27	0x3eda9cc2	0.42697722
28	0x3d32a313	0.04361255
29	0x3f61266b	0.87949246
30	0x3e8611a1	0.26185325
31	0x3cb181cb	0.021668335
32	0x3f1963e9	0.59918076
33	0xbe303dc3	-0.1721106
34	0xbe03a204	-0.12854773
35	0x3ed6cc81	0.419529
36	0xbe25a421	-0.16175891
37	0xbd5aa3f1	-0.053379003
38	0xbf21e1cc	-0.63235164
39	0x3e81c84f	0.25348136
40	0xbe301499	-0.17195357
41	0xbf2db2a9	-0.6785074
42	0xbec69da5	-0.38792148
43	0x3d04d20b	0.032426875
44	0x3e2a77f1	0.16647317
45	0x3e56fc90	0.20994782
46	0x3e31c55e	0.17360446
47	0x3d9b6529	0.07587654
48	0xbe69c6da	-0.22829762
49	0x3e817687	0.25285742
50	0xbef7cd16	-0.48398656
51	0x3f12b0f4	0.5730126
52	0xbe22a519	-0.15883292
53	0x3dc74490	0.09729874
54	0xbe814321	-0.25246528
55	0xbe34fc41	-0.17674352
56	0xbd9ecde9	-0.07754118
57	0x3ef4a409	0.477814
58	0xbf31f8ca	-0.69520247
59	0xbdffa300	-0.12482262
60	0xbeb3c27c	-0.35109317
61	0x3d5ba537	0.053624358
62	0x3f238ad3	0.63883704
63	0x3e5682e6	0.20948371
64	0xbeca43f3	-0.39504966
65	0x3e910576	0.2832448
66	0x3d6f0fb5	0.05836459
67	0x3ee408ce	0.44537967
68	0x3f1cf4d9	0.6131111
69	0x3e059bb6	0.1304768
70	0xbe995ba8	-0.2995274
71	0xbce983ae	-0.028505173
72	0x3ee91a44	0.45527852
73	0xbefa4550	-0.48881006
74	0x3e6a35b1	0.22872044
75	0x3e15701b	0.14593546
76	0xbf19a7a3	-0.6002142
77	0x3ed4e1ce	0.41578525
78	0xbe8990f4	-0.26868403
79	0x3db8e232	0.09027518
80	0xbebfff9a	-0.37499696
81	0x3ea5b5e1	0.32365325
82	0x3e829478	0.25503898
83	0x3b586a5a	0.0033022375
84	0x3efb92bb	0.49135384
85	0x3d8cca64	0.068745404
86	0x3d9bfc75	0.07616512
87	0xbd4ba2a8	-0.049715668
88	0xbf0143f3	-0.5049431
89	0xbf18f28a	-0.59745085
90	0x3eb21ae2	0.34786135
91	0xbde79802	-0.1130829
92	0x3e891df4	0.26780665
93	0xbf1a3a7f	-0.6024551
94	0x3f41d76f	0.7571935
95	0x3e3382a7	0.17530309
96	0x3e984dd1	0.2974687
97	0x3f3fc900	0.74916077
98	0xbec5f334	-0.38662112
99	0xbee25b2d	-0.44210187
100	0xbe005cf0	-0.12535453
101	0x3ebb4b73	0.36581
102	0xbe5c3c78	-0.21507442
103	0x3e5d3a3a	0.21604243
104	0xbeb5c942	-0.3550511
105	0x3d8bdf43	0.06829693
106	0x3df5ec54	0.12007967
107	0x3f38349e	0.7195529
108	0xbe1d9f04	-0.15392691
109	0x3d3219fd	0.043481816
110	0xbbed4264	-0.0072405804
111	0xbe05621f	-0.13025711
112	0x3f114972	0.56752694
113	0xbed7affa	-0.42126447
114	0xbf0b562d	-0.5442837
115	0xbef01226	-0.46888846
116	0x3e96191b	0.2931603
117	0x3efc21a1	0.49244407
118	0x3ef1219b	0.4709595
119	0xbeb20f63	-0.34777364
120	0xbc7272cc	-0.0147978775
121	0xbe2cc16b	-0.16870658
122	0x3e757f3c	0.23974317
123	0xbe0c8249	-0.13721575
124	0xbf1e3443	-0.61798495
125	0x3dd7ae9d	0.10531352
126	0x3ebd70ba	0.37000066
127	0x3eb3953e	0.350748

fc21.bias f4 [8]
0	0x3e2ce4c7	0.16884147
1	0xbe9d34f5	-0.30704466
2	0xbe851f45	-0.2600042
3	0x3e74543c	0.23860258
4	0xbdb43603	-0.087993644
5	0xbe04250f	-0.12904762
6	0xbe1b66be	-0.15175912
7	0x3e35a806	0.17739877

fc22.weight f4 [8, 16]
0	0xbb6f9af8	-0.0036560874
1	0xbca4ba11	-0.020108255
2	0xbe995896	-0.29950398
3	0x3e7d6abc	0.24747747
4	0xbe6b1fc7	-0.22961341
5	0xbea6d518	-0.32584453
6	0xbeb93687	-0.36174414
7	0xbe87710a	-0.2645343
8	0xbe0e4c48	-0.13896286
9	0x3f1fc137	0.624042
10	0xbf13411c	-0.57521224
11	0x3d3440fe	0.044007294
12	0xbe69ae64	-0.22820431
13	0x3e02f0c3	0.12787156
14	0x3dbca8c0	0.09211874
15	0xbfc19f5b	-1.5126756
16	0x3d63faf4	0.05565925
17	0xbc369d96	-0.01114597
18	0x3e46650d	0.19374485
19	0x3e175aa1	0.14780666
20	0x3d034da8	0.03205648
21	0xbdaaf5a6	-0.08347635
22	0xbf819f3b	-1.0126718
23	0xbeac21fc	-0.33619678
24	0x3f05f189	0.5232168
25	0xbccad752	-0.024760876
26	0xbcad8eec	-0.021186315
27	0xbec755ad	-0.38932553
28	0xbef15b8e	-0.47140163
29	0xbf9cf09e	-1.226093
30	0xbeaf95d0	-0.34293985
31	0xbcdacf36	-0.026710134
32	0x3f0bd178	0.546165
33	0xbf09c0c3	-0.53809756
34	0x3dd01c60	0.10161662
35	0x3e52a748	0.20571625
36	0xbcad007d	-0.021118397
37	0xbe398d88	-0.18120396
38	0xbf91c74a	-1.1388943
39	0x3e5e02c8	0.21680748
40	0xbf1419bb	-0.5785176
41	0xbf56ba6d	-0.83878213
42	0xbefffe41	-0.49998668
43	0x3d079232	0.033098407
44	0x3e1d894c	0.15384406
45	0x3e0cd5b6	0.13753399
46	0x3dd47240	0.10373354
47	0xbe48f186	-0.19623384
48	0xbe80268c	-0.2502941
49	0xbe9937f4	-0.299255
50	0x3ea7cfca	0.32775718
51	0xbe999d51	-0.30002835
52	0xbd44f1a5	-0.048082013
53	0xbee12587	-0.43973944
54	0xbdefae89	-0.11703212
55	0x3e46e3a1	0.19422771
56	0xbe340e7b	-0.17583649
57	0xbf21b3f9	-0.6316524
58	0xbd9f5cc4	-0.077813655
59	0xbba11ec3	-0.004916997
60	0xbde977bc	-0.11399791
61	0xbefabc86	-0.48971957
62	0xbefb3f50	-0.4907174
63	0xbe2757c5	-0.16342075
64	0x3d811bdb	0.06304141
65	0xbeb406ce	-0.35161442
66	0xbd5e02c5	-0.05420186
67	0xbda29719	-0.07938976
68	0xbea74efc	-0.32677448
69	0xbed138bf	-0.40863606
70	0x3e4013f2	0.18757609
71	0x3e1d3fb9	0.1535634
72	0xbf453c62	-0.7704526
73	0xbd3966a5	-0.045263905
74	0xbdaa885c	-0.0832679
75	0x3a751c51	0.0009350228
76	0xbd91c920	-0.0711844
77	0xbf5cb999	-0.862207
78	0x3e9daa7b	0.3079413
79	0xbe8a49e3	-0.27009496
80	0xbd73c318	-0.059512228
81	0x3e270d6b	0.16313712
82	0xbd76e114	-0.060273245
83	0xbca8a811	-0.020587953
84	0xbe9d8c59	-0.3077114
85	0xbeee71d7	-0.46571228
86	0xbec2c99a	-0.38044435
87	0x3ea62474	0.32449687
88	0xbe62babb	-0.22141545
89	0xbe810289	-0.25197247
90	0x3e16dae6	0.1473194
91	0xbe8ad0f1	-0.27112535
92	0xbd701915	-0.05861767
93	0xbec679cc	-0.387648
94	0xbf17394c	-0.59071803
95	0xbe204df6	-0.1565474
96	0xbeb38bff	-0.35067746
97	0xbf394a2f	-0.7237882
98	0xbd51ad9a	-0.05119095
99	0x3e284335	0.16431887
100	0xbe5e8fe5	-0.21734579
101	0xbf5c8daf	-0.8615369
102	0xbe37daaf	-0.17954515
103	0x3e3cf394	0.18452293
104	0x3cdbdd5d	0.026838953
105	0xbd8c5d92	-0.068537846
106	0xbced14a9	-0.028940516
107	0xbfaa9a83	-1.3328403
108	0xbbe1ff50	-0.0068968907
109	0xbe0264eb	-0.1273381
110	0x3d914979	0.07094092
111	0x3d6646ca	0.056219853
112	0xbf161937	-0.58632225
113	0x3ee251c8	0.4420302
114	0x3ec27151	0.3797708
115	0x3e482a60	0.19547415
116	0xbd99651f	-0.074899904
117	0xbf556a8e	-0.83365715
118	0xbf237ee1	-0.63865477
119	0x3eca35ee	0.3949427
120	0xbe579be3	-0.2105556
121	0xbe3dcf0a	-0.1853601
122	0xbeab92f5	-0.33510557
123	0x3e49e67c	0.19716829
124	0x3e219552	0.15779617
125	0xbefa008b	-0.4882854
126	0xbe648296	-0.2231544
127	0xbef1e6ee	-0.47246498

fc22.bias f4 [8]
0	0xbe9de56e	-0.30839103
1	0xbea7843a	-0.32718068
2	0xbeaa8964	-0.33307946
3	0xbe85527e	-0.260395
4	0xbe58552d	-0.21126242
5	0xbee8ce9d	-0.45470133
6	0xbd2d082b	-0.042244118
7	0xbebd653c	-0.36991298

fc3.weight f4 [16, 8]
0	0xbcec80b9	-0.028869973
1	0x3d19d9cd	0.037561227
2	0xbc426b87	-0.011866457
3	0x3f33ecf2	0.70283425
4	0xbd3bbafc	-0.04583262
5	0xbc0d4d40	-0.008624375
6	0xbcae824c	-0.021302365
7	0x3dcecf62	0.10098149
8	0x3f369ac2	0.7132989
9	0xbbcdf60d	-0.006285435
10	0xbc8bbc1b	-0.01705747
11	0xbee6fcbb	-0.45114693
12	0x3dcde131	0.100527175
13	0x3ebf2617	0.37333748
14	0xbd8ee530	-0.06977308
15	0x3dac40e0	0.084108114
16	0xbd221674	-0.039572194
17	0x3c89dc7c	0.016828768
18	0x3c5fe769	0.013666012
19	0x3f0b0d74	0.543174
20	0xbdfdf959	-0.12401075
21	0xbe95a10f	-0.2922444
22	0x3d6710f3	0.05641265
23	0xbd16645c	-0.036716804
24	0xbd1d6363	-0.03842486
25	0x3ce7b0a8	0.028282478
26	0xbc8dd755	-0.017314592
27	0xbeae0e2e	-0.33995193
28	0xbdc9b56c	-0.098490566
29	0x3e08e5b8	0.13368881
30	0xbd0e64bc	-0.034764037
31	0x3de1a1c9	0.11017186
32	0x3cbf7bbc	0.02337443
33	0xbd38cd6d	-0.045117784
34	0x3c7183aa	0.014740864
35	0xbe7907b6	-0.24319348
36	0x3e0bb55b	0.136434
37	0xbdd9d36f	-0.10636031
38	0x3c36773b	0.011136825
39	0xbdc90fbe	-0.09817456
40	0xbd690540	-0.056889772
41	0xbd136dd8	-0.035993427
42	0xbba6e3ee	-0.0050930893
43	0x3c25731b	0.010098244
44	0xbeb89476	-0.36050767
45	0x3e2e1212	0.16999081
46	0x3e01f29c	0.12690204
47	0xbbdb255c	-0.006687803
48	0xbcfbe02d	-0.030746544
49	0xbda67f65	-0.08129767
50	0x3b0905f5	0.0020908092
51	0xbe549cdd	-0.20762964
52	0xbe053bab	-0.13011043
53	0xbf00fa3c	-0.5038183
54	0x3d9458f1	0.07243527
55	0x3f95ccb9	1.1703101
56	0xbc10b604	-0.008832458
57	0x3dba20d4	0.09088293
58	0xbd2b90f8	-0.0418863
59	0x3ecfc527	0.40580103
60	0x3e6011e0	0.21881819
61	0x3f513819	0.81726223
62	0xbdbcec10	-0.09224713
63	0x3ecd97d5	0.401549
64	0xbc2c894c	-0.010530781
65	0x3fcccddd	1.6000324
66	0x3caf2d05	0.021383772
67	0xbe2660e4	-0.16247898
68	0x3cacdc3e	0.021101113
69	0xbe4dd068	-0.20099032
70	0x3d1dc5e0	0.038518786
71	0xbd28554f	-0.04109698
72	0xbd47fa73	-0.04882283
73	0x3c57acb7	0.013163737
74	0xbc5103a4	-0.012757216
75	0x3d93813a	0.072023824
76	0xbf024c94	-0.508981
77	0x3ebf4e96	0.37364644
78	0x3d8446b3	0.06458797
79	0x3db8bb99	0.090201564
80	0xbddc795d	-0.10765336
81	0xbc2c7939	-0.010526949
82	0xbbbe2ce3	-0.0058036908
83	0xbf22bdc1	-0.6357079
84	0x3e22984b	0.15878408
85	0x3ea96577	0.33085224
86	0xbd0c48a6	-0.03424897
87	0x3d22fc34	0.0397913
88	0x3d133f2c	0.035948917
89	0x3d255b99	0.040370557
90	0x3c66452f	0.014054581
91	0x3e5375d9	0.20650424
92	0x3fa1dc20	1.2645302
93	0xbed5dc8b	-0.41769823
94	0xbe20a6fa	-0.15688697
95	0xbca791cf	-0.02045527
96	0xbc5c28ba	-0.013437444
97	0x3d28ac3c	0.04117988
98	0xbb9bf53d	-0.0047594593
99	0x3d06598d	0.032800246
100	0x3e0ffd6c	0.14061517
101	0x3c542e6a	0.012950519
102	0x3fc43fb4	1.5331941
103	0x3d4ba810	0.049720824
104	0xbc60579c	-0.013692763
105	0x3d5d3854	0.054008797
106	0x3b8364a1	0.0040097986
107	0x3dd12fbc	0.10214183
108	0x3e2188a2	0.15774778
109	0xbe8bdcdd	-0.27316943
110	0xbd4fdc51	-0.05074722
111	0x3d23d040	0.039993525
112	0xbcbd6e55	-0.0231239
113	0xbbda0faf	-0.0066547017
114	0xbf9c501c	-1.2211947
115	0xbcda99eb	-0.026684722
116	0xbd3011a2	-0.042985566
117	0xbe20103b	-0.15631191
118	0xbc82cfbc	-0.015968196
119	0x3c37d108	0.0112192705
120	0x3f30cec1	0.6906548
121	0xbd1d1451	-0.038349453
122	0x3c38f553	0.011288959
123	0xbf08d8d1	-0.53455836
124	0x3d415ceb	0.047207754
125	0x3e0452f1	0.12922265
126	0xbd0a13c3	-0.033710252
127	0xbd51b1fe	-0.051195137

fc3.bias f4 [16]
0	0x3f437dc3	0.7636377
1	0xbedc4af1	-0.43025926
2	0x3f088143	0.5332224
3	0x3f8b80f6	1.0898731
4	0x3f775ebd	0.96628934
5	0x3f84b456	1.0367534
6	0x3da20607	0.07911306
7	0x3db1a477	0.08673947
8	0xbe63e39c	-0.22254795
9	0x3f2a44ef	0.66511434
10	0x3ec722cc	0.38893735
11	0xbd73fdd5	-0.059568245
12	0xbe39073e	-0.18069169
13	0x3f623288	0.88358355
14	0xbf23e384	-0.64019036
15	0xbeceab54	-0.40365088

fc4.weight f4 [8, 16]
0	0x3ca50380	0.02014327
1	0x3b09a16e	0.002100076
2	0xbd13c818	-0.036079496
3	0xbdda8765	-0.10670356
4	0xbc295be9	-0.0103368545
5	0xbd9edf16	-0.07757394
6	0xbef625c2	-0.48075682
7	0xbd2a945c	-0.041645393
8	0xbc4c976c	-0.012487274
9	0x3c71f373	0.0147675155
10	0x3bce89c6	0.006303045
11	0x3bb9911d	0.005663051
12	0x3d694271	0.05694813
13	0xbe273958	-0.16330469
14	0x3f9eb3a6	1.2398574
15	0xbc2c2223	-0.010506186
16	0xbe46c135	-0.1940964
17	0xbd88adc9	-0.06673772
18	0x3d94f369	0.07272989
19	0xbdb7e99d	-0.08980105
20	0xbe7177a9	-0.23580803
21	0xbeaba0aa	-0.33521014
22	0x3f7bf5f2	0.9842216
23	0x3c846611	0.01616195
24	0x3d1b739e	0.037952058
25	0x3e3b2ec9	0.18279566
26	0x3cfbb9e2	0.030728284
27	0xbdb251d6	-0.08707015
28	0xbec221c7	-0.37916395
29	0x3df6373d	0.120222546
30	0x3c2dcf62	0.010608526
31	0x3d4b3c02	0.049617775
32	0x3cce5771	0.02518818
33	0x3be36d37	0.0069405097
34	0x3c314470	0.010819539
35	0xbd4157c3	-0.047202837
36	0x3d77980a	0.06044773
37	0xbe2dd797	-0.16976772
38	0x3d47bb94	0.048762873
39	0xbd7119fd	-0.058862675
40	0xbed0c3e7	-0.40774462
41	0x3cd1be79	0.02560352
42	0xbd089b83	-0.033351433
43	0x3d895e46	0.06707434
44	0x3f78e4fd	0.9722441
45	0xbea1db4b	-0.3161262
46	0x3aa33cff	0.0012454091
47	0xbccb59da	-0.024823118
48	0xbda63d06	-0.08117108
49	0xbd18e117	-0.037324037
50	0x3dc9387d	0.098252274
51	0x3e2ac5cf	0.1667702
52	0xbf053fa2	-0.5205022
53	0xbe629406	-0.22126779
54	0xbc444e7e	-0.011981605
55	0xbb6e4cbf	-0.0036361662
56	0x3f6fe166	0.93703306
57	0xbdbe4da7	-0.09292155
58	0xbcb860a3	-0.022507017
59	0xbed55ef9	-0.4167402
60	0x3d1e5bbf	0.038661715
61	0xbe88ba4e	-0.2670464
62	0xbae51988	-0.0017478922
63	0x3b75cb2a	0.0037505128
64	0xbd9f755e	-0.07786058
65	0x3d83b7c8	0.06431538
66	0x3bf44257	0.0074541974
67	0x3e5688a8	0.20950568
68	0xbedc2dc3	-0.43003663
69	0x3efdb217	0.49549934
70	0x3c2f0683	0.010682705
71	0xbeab034b	-0.3340095
72	0x3d39ec3d	0.04539131
73	0xbf43526f	-0.7629766
74	0xbcc937df	-0.024562774
75	0x3f78127c	0.96903205
76	0xbd1c4d3d	-0.038159598
77	0xbec8d0b2	-0.39221722
78	0xbc2ef8ce	-0.010679437
79	0x3c6fe0bf	0.014640986
80	0x3e764927	0.24051343
81	0x3eb8fbbc	0.36129558
82	0xbe002ce0	-0.12517118
83	0xbeea4a9c	-0.45760047
84	0xbda560c0	-0.08075094
85	0x3cf9203c	0.030410878
86	0x3d8a0049	0.06738336
87	0x3f09cfe4	0.5383284
88	0x3ce2db65	0.027692506
89	0x3e05eb8f	0.1307814
90	0x3d1a6b5d	0.037700046
91	0x3d590e6e	0.052992277
92	0xbc87414b	-0.016510626
93	0xbdee6f83	-0.11642363
94	0x3c219ea8	0.009864487
95	0xbf39faaf	-0.7264814
96	0xbece907f	-0.40344617
97	0x3e58d4c1	0.21174909
98	0xbf226bbf	-0.6344566
99	0x3c76cf04	0.015064005
100	0xbe2dc4f1	-0.16969658
101	0x3ebfd604	0.37467968
102	0xbcf52f59	-0.029929804
103	0x3e24389f	0.16037224
104	0xbc94e49c	-0.018175416
105	0xbdd02e3d	-0.10165069
106	0xbe285240	-0.16437626
107	0x3d408e92	0.047010966
108	0xbc059861	-0.008154006
109	0x3ebd5caf	0.36984774
110	0xbbb16386	-0.0054134754
111	0x3eeadc6f	0.45871302
112	0x3eb9965a	0.36247522
113	0x3f17922e	0.5920743
114	0x3e472d51	0.1945088
115	0xbf07f12d	-0.5310238
116	0xbe87a82f	-0.264955
117	0xbddde5ac	-0.10834822
118	0x3d15e94c	0.036599442
119	0xbe586963	-0.21133952
120	0x3c0b5078	0.008503072
121	0x3d56f8a9	0.052483235
122	0xbeb83aff	-0.3598251
123	0xbdcf41f7	-0.10120004
124	0x3baab638	0.0052097104
125	0x3e0430d5	0.12909253
126	0x3ae8271b	0.001771185
127	0x3f26af92	0.6511165

fc4.bias f4 [8]
0	0xbee11955	-0.4396464
1	0xbe5432b5	-0.20722468
2	0xbec75926	-0.38935202
3	0x3dbd9fdb	0.09259006
4	0xbe4b7c5f	-0.19871663
5	0xbe126dc4	-0.14299685
6	0xbe9182a2	-0.28419977
7	0xbe99810e	-0.29981273
