coil/vae/c3_v3_vae.pt (torch, 3527 bytes, 10 tensors)

fc1.weight f4 [6, 3]
0	0x3f838ce1	1.0277368
1	0xbea40339	-0.3203371
2	0xbf1ff5e2	-0.6248456
3	0xbf99f652	-1.2028296
4	0x3f67f883	0.90613574
5	0x3e916453	0.28396854
6	0xbf0e7a91	-0.5565577
7	0xbf806b06	-1.0032661
8	0x3d0fed96	0.03513869
9	0x3f6cbfe4	0.924803
10	0xbed5edaa	-0.41782886
11	0xbdd830a5	-0.10556153
12	0x3f9b4234	1.2129579
13	0xbda399f5	-0.07988349
14	0x3eb17b4d	0.34664384
15	0x3efebee8	0.49755025
16	0xbf53e434	-0.82770085
17	0x3d8f73dc	0.0700452

fc1.bias f4 [6]
0	0x3ead2ad9	0.33821753
1	0x3f4ea6a5	0.8072303
2	0x3f06aa0f	0.5260324
3	0xbec1aabb	-0.3782557
4	0xbe0d9564	-0.13826519
5	0x3f8a6534	1.0812135

fc21.weight f4 [3, 6]
0	0x3d87030b	0.06592377
1	0x3d5fe539	0.054661963
2	0x3d0c3ff5	0.03424068
3	0xbe0137a2	-0.12618878
4	0x3d451715	0.048117716
5	0x3d113cf1	0.03545851
6	0xbf85fc69	-1.0467654
7	0xbf8c572c	-1.0964103
8	0x3e51dd84	0.20494658
9	0xbb01fad9	-0.0019833355
10	0x3f4039cd	0.75088197
11	0x3f0e62d0	0.55619526
12	0x3f19f670	0.6014166
13	0x3e64718e	0.22308943
14	0xbf388e53	-0.7209217
15	0x3f7d3b8c	0.98918986
16	0x3f5fed22	0.8747121
17	0x3df21876	0.11821072

fc21.bias f4 [3]
0	0xbe1203e5	-0.14259298
1	0x3e9c4d7c	0.30527866
2	0xbe89ccb2	-0.26913983

fc22.weight f4 [3, 6]
0	0x3a7bc5cb	0.00096043636
1	0x3d41f61d	0.047353853
2	0x3d9cb5dc	0.076518744
3	0x3e52367a	0.20528594
4	0xbd5f4ed0	-0.05451852
5	0x3c0ae891	0.0084783
6	0xbf81c938	-1.0139532
7	0xbf9d0ea7	-1.2270097
8	0xbf283bf8	-0.65716505
9	0xbe794a04	-0.24344641
10	0x3fcd2c23	1.6029094
11	0xbf98ae26	-1.1928146
12	0xbe53322a	-0.20624605
13	0xbb2a3ce6	-0.002597624
14	0x3f0c523b	0.54812974
15	0x3e5c7bc0	0.21531582
16	0xbf6e0f58	-0.9299216
17	0xbf730014	-0.94921994

fc22.bias f4 [3]
0	0xbe0b7917	-0.13620411
1	0xbf8f6703	-1.1203312
2	0xbf3f547f	-0.74738306

fc3.weight f4 [6, 3]
0	0x3ab565ac	0.0013839505
1	0xbf4f30bd	-0.80933744
2	0xbf2fb79a	-0.6863953
3	0x3ac81784	0.0015265797
4	0xbf93a4fc	-1.1534724
5	0xbac46ea9	-0.0014986593
6	0xba8d630a	-0.0010786962
7	0xbd5a39cd	-0.05327778
8	0xbee3ca6e	-0.4449038
9	0xbb08ccf2	-0.002087411
10	0x3f21df43	0.63231295
11	0x3f8393d0	1.0279484
12	0xba34d4bc	-0.0006898155
13	0xbed3bb5d	-0.41353884
14	0xbf2eb6b6	-0.68247545
15	0xbbdb4b53	-0.006692329
16	0x3f8fb0ce	1.1225832
17	0xbcff81ae	-0.031189766

fc3.bias f4 [6]
0	0x3f86f86d	1.0544564
1	0xbf978584	-1.1837621
2	0x3f27a87f	0.6549148
3	0xbedf8a5f	-0.43660256
4	0x3ee4e41e	0.4470529
5	0x3f8d6336	1.1045902

fc4.weight f4 [3, 6]
0	0xbfd07332	-1.6285155
1	0x3e47809d	0.19482656
2	0x3f3c0b9f	0.7345523
3	0x3f1b51b1	0.60671526
4	0x3f968024	1.1757855
5	0xbecef290	-0.40419436
6	0x3c47e9fc	0.012201782
7	0x3f0384df	0.5137462
8	0xbe06143f	-0.13093661
9	0x3d8cbc66	0.06871872
10	0x3dba2fdb	0.09091159
11	0xbefef0e8	-0.49793172
12	0xbe44de84	-0.19225508
13	0x3f7c40c0	0.985363
14	0x3d355180	0.044267178
15	0xbe50e561	-0.20400001
16	0x3e10eef6	0.14153656
17	0x3f5aaf6f	0.8542394

fc4.bias f4 [3]
0	0x3f342ac4	0.70377755
1	0x3db20465	0.086922444
2	0xbfba4cae	-1.4554651
