coil/vae/c3_v6_vae.pt (torch, 4487 bytes, 10 tensors)

fc1.weight f4 [12, 6]
000000 fe 18 4f be 4c 23 42 3f 70 1d bc be 29 44 91 be
       -0.20224378 0.7583511 -0.3674121 -0.28372315
000010 40 1d a3 3e cd 5c 53 3c c9 29 1d 3f a4 f1 09 3f
       0.31858253 0.012900543 0.61391884 0.5388434
000020 13 52 98 be 63 a9 92 3c 3b 7b 8f 3d 20 d4 2b be
       -0.29750118 0.017903036 0.07005926 -0.16780138
000030 68 f1 a5 3c dd 5f 53 ba 17 0e 47 bc e7 93 c3 3d
       0.020256713 -0.0008063296 -0.012149355 0.095496945
000040 a3 22 5b 3f a5 87 26 3f 03 9c 9c be 90 32 60 be
       0.85599726 0.6505073 -0.30587777 -0.21894288
000050 51 56 a1 be 92 a1 92 bc 21 89 1c bf ea 9d 1c 3e
       -0.31511167 -0.017899308 -0.6114674 0.15294614
000060 22 93 b5 be 75 5c df be 53 95 ac be 81 d9 24 bf
       -0.35463816 -0.43625227 -0.33707675 -0.64394385
000070 cc 77 03 bd 92 ec 66 3d 06 4a e3 3e f6 17 84 b9
       -0.03209667 0.056377955 0.44392413 -0.00025194854
000080 8c 8f dd 3d 12 7e f4 be 60 1b 01 bf 20 f7 b9 3d
       0.10818395 -0.47752434 -0.50432396 0.090803385
000090 d2 f9 a3 3d 3b 22 fb be f5 1b d7 3e 2e 71 e2 3e
       0.08006634 -0.49049553 0.42013517 0.44226974
0000a0 d8 1f 4a 3d 13 c7 13 3d 1f 23 71 bd 82 2d 48 bd
       0.049346775 0.036078524 -0.058871385 -0.048871525
0000b0 ae 16 f5 be 72 04 14 be d0 93 fc be 59 0c 98 bb
       -0.47868866 -0.14454821 -0.49331522 -0.004640144
0000c0 10 5d 16 bd 93 ec 51 3e 61 9a 09 3f ca 39 f9 3d
       -0.036709845 0.20500402 0.5375119 0.121692255
0000d0 f2 be 1b bf 9f 98 85 3e f8 52 c9 3d 18 8d 81 bc
       -0.60838234 0.26093003 0.09830278 -0.015814349
0000e0 55 89 c2 bd 18 cc 73 3f fa 77 3e 3e 66 d8 a1 be
       -0.0949885 0.952333 0.18600455 -0.3161041
0000f0 c3 27 94 be 03 74 2f 3d a5 91 b2 3e b4 ce 0f bf
       -0.28936586 0.042835247 0.34876743 -0.5617478
000100 2a eb 5c 3e c5 0b 86 be 9d f7 47 bf ac ca 80 3e
       0.21574083 -0.26180854 -0.781122 0.25154626
000110 94 9d cb 3d cd f7 19 3d 38 9f 51 3d 23 b9 00 bc
       0.09942165 0.037589837 0.051177233 -0.00785664

fc1.bias f4 [12]
000000 17 bb f6 3e 75 f4 96 3f 72 cd 05 3f db 5a f2 3e
       0.48189613 1.1793352 0.5226661 0.47334942
000010 81 75 49 3f 43 86 59 3f 97 b9 7c 3f 56 5b 14 3f
       0.7869492 0.8497049 0.9872069 0.5795187
000020 c8 2b 5d 3f f3 7a 51 3f e8 10 5e 3f c1 f8 3d 3f
       0.8639493 0.8182823 0.86744547 0.74207693

fc21.weight f4 [6, 12]
000000 47 a7 c3 3d 03 f6 e0 be 1e 2f 98 bd 0e 5f 91 be
       0.0955339 -0.43937692 -0.07430862 -0.28392833
000010 17 4f e8 be 88 af 6c 3e fc 23 35 3f 5a 41 0a bf
       -0.4537284 0.23113835 0.7075803 -0.5400597
000020 51 97 03 3f 43 ea 02 3d a2 9d 0f 3f ed 7c 8a bc
       0.51402766 0.03196169 0.56099904 -0.016905272
000030 ac f6 a6 3e 85 76 22 3f 5b 2b 0d 3e e2 b7 38 be
       0.3261007 0.63462096 0.1378607 -0.18038896
000040 6f a9 23 bf bf ca bb be fe 05 fd be 1c 4c 9f 3c
       -0.6393041 -0.3667812 -0.49418634 0.019445471
000050 26 c2 0e 3f c1 5c 84 be f4 ea 56 3e fc 68 f1 3e
       0.55764997 -0.25852016 0.20988065 0.4715041
000060 00 00 e5 3d 2f 6a b2 3d 47 ec f7 3e 70 b9 ac 3d
       0.111816406 0.08711659 0.48422453 0.08433807
000070 19 5c 6e be 41 3f 2e bf 3c d0 dc 3e 63 97 08 be
       -0.2327732 -0.6806527 0.4312762 -0.13339
000080 62 11 6a 3d 5a 76 74 3f 04 01 f2 be 8e 9d 27 3e
       0.057145484 0.9549309 -0.472664 0.16368696
000090 61 c2 6c 3d 27 97 8d bf fc 0f 5a be 9e 1a 09 3f
       0.05780256 -1.1061753 -0.2129516 0.5355624
0000a0 d6 30 5f 3e 4b 62 c7 be 6a e0 cd be 05 a0 02 3e
       0.21795973 -0.3894218 -0.40210277 0.12756355
0000b0 98 90 f9 bd fe b7 23 3e 43 05 33 3e 23 b3 30 3f
       -0.12185782 0.15988156 0.17482476 0.6902334
0000c0 bd 19 60 bc 6f 7e 5d be ee 7b 73 bf a1 5d a3 3e
       -0.0136780115 -0.21630262 -0.95110977 0.3190737
0000d0 cd d8 ba be ac 6f a8 3e 58 6a 16 3e 7f e0 34 3f
       -0.3649353 0.328977 0.14689004 0.70655054
0000e0 19 ba 13 3f 10 22 d4 be a4 66 24 bf 89 fd 34 3e
       0.5770584 -0.41432238 -0.6421912 0.17674841
0000f0 0c 5c 3e be 1d a0 a6 3e e6 2e c4 3c fd e5 23 3e
       -0.185898 0.32544032 0.023948144 0.16005702
000100 7e e1 96 3d 04 5a 15 be 8f c5 3f 3d 0f 00 2e be
       0.07367228 -0.1458512 0.046819266 -0.1699221
000110 a4 e7 75 3d 04 94 a8 bd 0a 1d d7 3c 67 f9 ce 3d
       0.060035363 -0.08231357 0.026258964 0.101061635

fc21.bias f4 [6]
000000 64 1a f2 bd 45 7c a1 bd 87 da e0 bc 56 1b 0d be
       -0.1182144 -0.07885031 -0.027447952 -0.13779959
000010 d7 b9 41 bd 65 7a 9d be
       -0.04729637 -0.30757442

fc22.weight f4 [6, 12]
000000 f3 ca 83 3e e9 c1 3e be 35 f2 ee bd 21 20 08 3f
       0.25740775 -0.18628658 -0.11667291 0.53174025
000010 6a aa 12 3d b3 f6 e3 be ca a6 81 bf fa 57 0f 3f
       0.03580705 -0.44524154 -1.0129025 0.55993617
000020 57 0e 55 bf ff 5d bf bc cd c0 58 bf 1e 1e 00 bf
       -0.83225006 -0.02336025 -0.8466919 -0.50045955
000030 d5 ac 3a bf d8 fd 9e bf 3f 28 5c be ad d0 39 be
       -0.7291997 -1.2421217 -0.21499728 -0.1814601
000040 e0 12 97 3e 9a b7 ef bc 6b c3 18 3d 08 7f 89 be
       0.29506588 -0.029262353 0.03729574 -0.2685473
000050 30 51 93 be 11 b8 a4 3d b8 0a 83 bc bd a3 4a bf
       -0.2877288 0.080429204 -0.015996322 -0.79156095
000060 8b b1 b6 bc 8a ed 1e be 0b b2 29 be bf d7 24 bf
       -0.022301456 -0.15520301 -0.16571824 -0.643917
000070 2f 05 80 3e 76 18 80 be 75 2f a6 be ca d2 93 be
       0.25003955 -0.25018662 -0.32458082 -0.28871757
000080 6b 35 ff be 28 9b 1e bf 72 05 2f 3e e0 27 84 be
       -0.49845442 -0.619555 0.17091921 -0.25811672
000090 73 28 9b 3e 88 25 84 bf dd 37 b3 be 4d 68 f8 3e
       0.30304298 -1.0323954 -0.35003558 0.48517075
0000a0 d4 d1 61 3c 6b c2 7c bf 4b ea e5 be e9 55 93 be
       0.013782937 -0.9873416 -0.44905314 -0.28776482
0000b0 bd 4d 2a bd 80 e3 87 be 00 a7 e7 bd 04 ef 41 3f
       -0.041578043 -0.26540756 -0.113111496 0.75755334
0000c0 4c 32 0f be 6d 3d 0b bf 05 40 65 bf 5d 9d ab be
       -0.1398403 -0.54390603 -0.8955081 -0.33518496
0000d0 94 cc 6a be b4 7f 3e bf e3 8e 35 bf 38 f7 e9 be
       -0.22929603 -0.7441361 -0.7092115 -0.45696425
0000e0 0b f3 3f be eb f9 b0 bd 8f 93 61 be 80 ae 07 bf
       -0.18745057 -0.08641418 -0.22028945 -0.5300064
0000f0 8f 32 22 3e ab aa 1a be 35 c5 68 3d 92 6a 48 3e
       0.15839599 -0.15104167 0.056828696 0.19571903
000100 c1 1c 4c 3c 0c e3 05 3a 13 c8 0f be bb 5e 4f bd
       0.012458027 0.000510738 -0.14041166 -0.05062745
000110 78 c8 aa 3d 66 44 66 3e a5 7e 5d 3e da 9f 99 be
       0.08339018 0.2248703 0.21630342 -0.3000477

fc22.bias f4 [6]
000000 fa 8b 92 be d5 9f 27 be 4c 52 b8 bd f7 ce a6 be
       -0.2862242 -0.16369565 -0.09000072 -0.32579777
000010 af 7d 40 bf 48 7e 0f be
       -0.7519178 -0.14013016

fc3.weight f4 [12, 6]
000000 fc c3 9b 3f 24 8f be bc a7 47 2a 3c a3 36 9a 3b
       1.2169185 -0.023261614 0.01039306 0.0047062202
000010 22 1c fe 3c db df 0d bc 66 06 88 bc 56 d5 9d 3b
       0.031019274 -0.008659328 -0.016604614 0.0048166914
000020 5a 3b f8 3e e5 4f a0 bc 08 9e 44 bd 53 8f d6 3b
       0.48482782 -0.019569347 -0.048002273 0.0065478473
000030 e5 2b 0b 3f 22 59 07 3e 83 1e 74 3d fd 2d 05 bc
       0.5436385 0.13217595 0.05959941 -0.00812864
000040 61 8b a3 3d de fb c9 3b 2a 78 d5 bd fa f7 a8 3f
       0.07985569 0.006164058 -0.1042331 1.3200676
000050 50 f9 be bc 70 85 03 bd 8a 51 cf 3d 43 c4 0d bb
       -0.02331224 -0.032109678 0.10122974 -0.0021631874
000060 6c 58 5a 3a 8d d5 a6 3b 88 ea e9 bc ce fd e6 3a
       0.0008329216 0.005091375 -0.028554216 0.0017623247
000070 9b 17 a9 3f 00 cd 20 3a 01 5d 84 3b ad 05 9c 3c
       1.3210329 0.0006134063 0.0040394072 0.019045675
000080 f7 23 b6 bf ef 98 10 3d c6 f3 f0 be 2a fb 04 bc
       -1.4229726 0.0353021 -0.47060984 -0.008116523
000090 84 d2 f6 bc 5f 99 9b ba b7 0d ed 3c 86 36 ac 3b
       -0.030129679 -0.001187127 0.028937204 0.005255523
0000a0 86 37 b3 bf 44 07 2f bb 5d 5d fa b8 68 d2 4f 3c
       -1.400132 -0.0026707212 -0.00011938319 0.012684442
0000b0 35 eb 7a bf 9b 17 b1 3c 7c 79 46 bf c1 73 c3 bb
       -0.9801515 0.021617701 -0.7752912 -0.0059647267
0000c0 9e b6 10 bd 13 62 c4 bc 99 02 16 be 53 a8 6a bc
       -0.035330407 -0.023972547 -0.14649428 -0.014322358
0000d0 07 35 8d 3e 64 c3 da 38 5c ed 8a 3e cc f8 57 3f
       0.2757952 0.000104314444 0.27134216 0.8436401
0000e0 b2 70 42 3a f4 a2 82 bc 80 b8 0f 3e 87 2f 9d 3c
       0.00074173056 -0.015946843 0.14035225 0.019187702
0000f0 04 04 97 bd e4 d4 08 bc e4 df 8f bd 9f a4 98 bf
       -0.07373813 -0.008351538 -0.070251256 -1.1925238
000100 d8 1e 27 3e 5b ba a3 3b 57 7a d6 3c c8 8c 07 3c
       0.1632036 0.0049965805 0.026181383 0.008273311
000110 a2 e7 29 3e 49 cd c3 3c 23 8e 62 3e dc 60 3a 3a
       0.16592267 0.023901599 0.22124533 0.000710977

fc3.bias f4 [12]
000000 3d 57 51 be 14 db 89 3f 89 2e df 3d 87 ac 5c 3c
       -0.20443435 1.0769982 0.10897548 0.013468868
000010 17 54 00 3f aa 12 ce 3e 0d 28 14 bf 22 7a 84 3f
       0.5012831 0.40248615 -0.5787361 1.0349772
000020 71 b2 8c 3f 44 f5 8d bf 91 ce 37 bf f5 65 3f 3f
       1.0991956 -1.1090474 -0.7179957 0.7476495

fc4.weight f4 [6, 12]
000000 44 6f b9 3c 4e 75 fe bd c1 c4 9c 3d b6 20 11 bf
       0.022636063 -0.12424718 0.07654715 -0.5669054
000010 cd 81 f8 3d 9c 4e 5f bd d0 df 00 be 54 10 32 3d
       0.121341325 -0.054518327 -0.12585378 0.043472603
000020 b1 30 fa be 75 d6 d9 be 86 81 97 3f ca 8f 1f be
       -0.48865274 -0.4254643 1.1836402 -0.15582195
000030 ea f4 67 bf 91 be 8b be b7 bd a7 3e 51 56 7c 3f
       -0.90608084 -0.27293828 0.32761928 0.9856921
000040 3b 75 a0 bc c4 94 b4 3d e9 f3 85 3c a8 6f 1d be
       -0.01958715 0.08817437 0.016351657 -0.15374625
000050 1d e3 d7 be 6b 1e e4 3f 69 bd 46 3d 67 a8 c1 3e
       -0.4216546 1.7821783 0.04852048 0.37823793
000060 bf 57 92 3f 1b 59 25 bf 27 ea 24 3e f9 73 4c 3c
       1.1433028 -0.6458909 0.16104947 0.012478822
000070 2a 43 e0 bd 72 a6 e5 be 77 90 50 3d b1 6c 95 3e
       -0.109503105 -0.4485355 0.050919022 0.29184487
000080 1a 7d e2 3d a2 3d 04 3f ff d1 77 bc 52 9c 95 be
       0.110590175 0.51656544 -0.015125751 -0.29220825
000090 60 87 3d 3c 65 01 b1 3e 07 42 97 bc 4f fd 11 bc
       0.01156792 0.34571376 -0.018464101 -0.008910491
0000a0 28 8f 3a be e7 89 96 3f c0 fd d5 3d e3 18 c5 bf
       -0.18218672 1.1760834 0.104487896 -1.539822
0000b0 61 b5 aa bb 5c 62 70 3c 97 e6 13 3b f5 c9 9d bc
       -0.0052096103 0.014671888 0.0022567862 -0.01926134
0000c0 40 01 e1 3b 5f 60 5b 3e 56 21 e2 bc 6e 9a a9 bb
       0.006866604 0.21423481 -0.027603786 -0.00517588
0000d0 70 99 af be 9d d7 6f bc 2a 41 95 3e e5 f7 23 3e
       -0.3429675 -0.014638809 0.2915128 0.16012533
0000e0 37 0c ac be fb 9e 1c 3c 24 56 78 bb d8 8f 2b be
       -0.3360307 0.009559388 -0.003789314 -0.16754091
0000f0 e7 8c 96 3c 7b 3b 56 be 6c c6 15 bd e2 d6 1d bc
       0.018377734 -0.20921127 -0.036566183 -0.009633752
000100 fe 3b 65 3f dd 2e d5 3c 86 32 5d 3f b5 44 14 be
       0.89544666 0.026023323 0.8640522 -0.14479335
000110 94 1a e0 be b7 eb 23 3c 85 1b aa bb 86 a7 b4 be
       -0.43770278 0.010004929 -0.005191269 -0.3528406

fc4.bias f4 [6]
000000 d0 c7 86 bd ce fb 2f be 62 81 eb bc ff e4 48 3e
       -0.0658108 -0.171859 -0.028748218 0.19618605
000010 4e 66 a3 bc 1f 39 16 bf
       -0.019946244 -0.5868091
