coil/vae/c3_v2_vae.pt (torch, 3207 bytes, 10 tensors)

fc1.weight f4 [4, 2]
00000000: f0ea 98be 3616 6c3f 4bfd e03f dfe1 183f
00000010: b1ae 8ebf 3d4c 0bbf 0497 d4be f4b6 a8be
-0.29866743 0.9222139 1.7577299 0.5971965 -1.1147062 -0.54413205 -0.41521466 -0.32952082

fc1.bias f4 [4]
00000000: daea b63e ee52 0d3f ce29 893f 8c50 15bf
0.35726053 0.55204666 1.0715883 -0.5832603

fc21.weight f4 [2, 4]
00000000: 1288 883f d8a2 a4bf 9b84 f63c dc81 dc3e
00000010: c82b 5e3c ba8f cabd 586c 1bbe c407 aabe
1.0666525 -1.2862196 0.030092528 0.43067825 0.013560243 -0.09890695 -0.15178049 -0.3320905

fc21.bias f4 [2]
00000000: 689f 7f3d f75e 753e
0.06240788 0.23962007

fc22.weight f4 [2, 4]
00000000: a682 1e3f c05f 413f 9ec6 ddbf f0f2 4fbd
00000010: c596 643a 8912 03bc b75d 83bc e6d6 80be
0.61918104 0.7553673 -1.7326238 -0.050768793 0.0008719976 -0.008000025 -0.016035898 -0.25163954

fc22.bias f4 [2]
00000000: 1020 18c0 7b45 ae3c
-2.376957 0.021273365

fc3.weight f4 [4, 2]
00000000: 1cac d63d d1ad c43a eaab b33f 3002 74b9
00000010: d904 6b3f 59a8 2a3b 5f62 8cbf 527e 3abb
0.10482046 0.0015005415 1.4036839 -0.00023270468 0.9180427 0.0026040284 -1.096752 -0.002845664

fc3.bias f4 [4]
00000000: ec9b 1d3f 30e1 b13d 77b5 97bf b248 a1bd
0.6156604 0.08685529 -1.1852254 -0.07875194

fc4.weight f4 [2, 4]
00000000: b18a cebe d19f efbe e63a c8bf 0117 0e3f
00000010: fedd cfbe 06eb 2b3f c53a b23f 52d5 90bf
-0.40340188 -0.46801618 -1.5642974 0.5550385 -0.40599054 0.6715549 1.3924185 -1.13151

fc4.bias f4 [2]
00000000: d78c 553e 15ae c6be
0.20854507 -0.3880469
