coil/vae/c3_v9_vae.pt (torch, 6535 bytes, 10 tensors)

fc1.weight f4 [18, 9]
0	0x3e2f9949	0.17148317
1	0xbe39783a	-0.18112269
2	0xbe0457b9	-0.12924089
3	0xbcd2b38d	-0.025720382
4	0xbd882113	-0.066469334
5	0xbe309673	-0.17244892
6	0xbe686244	-0.22693735
7	0xbf961829	-1.1726123
8	0xbc57b74a	-0.013166258
9	0x3f070211	0.5273753
10	0x3e45cfcd	0.19317551
11	0xbe091942	-0.13388541
12	0xbe8a821e	-0.27052397
13	0x3d88aac9	0.066732
14	0x3ce6fbe7	0.028196288
15	0x3e2cbc2c	0.16868657
16	0x3d8d4884	0.06898597
17	0xbe361935	-0.17783053
18	0x3d7bd817	0.061485376
19	0x3d8dbb67	0.0692051
20	0xbda3691d	-0.07979033
21	0x3e2232bd	0.15839668
22	0xbec61e21	-0.38694862
23	0x3f0e57c8	0.55602694
24	0x3ebcfe50	0.36912775
25	0x3e47b410	0.19502282
26	0xbe85c1bd	-0.26124373
27	0xbaac2eb1	-0.0013136474
28	0x3c26a9ba	0.010172302
29	0xbd9d3afe	-0.076772675
30	0x3f93c49a	1.1544373
31	0x3d5762a9	0.052584324
32	0x3927233b	0.00015939485
33	0xbd6bac27	-0.057537224
34	0x3d44f0db	0.04808126
35	0xbc5754e0	-0.013142794
36	0xbe9ba7b9	-0.304014
37	0xbf028571	-0.50984865
38	0x3e9bb0fd	0.3040847
39	0x3e04c3d6	0.1296533
40	0x3d925d33	0.071466826
41	0xbdf817d4	-0.1211392
42	0xbeeb258a	-0.45927078
43	0xbc999e38	-0.018752202
44	0xbe88afa8	-0.26696515
45	0xbd38640a	-0.04501728
46	0x3ed24099	0.4106491
47	0x3f70952f	0.93977636
48	0xbdad01af	-0.08447587
49	0xbcc421b9	-0.023941861
50	0xbd2f1459	-0.042744014
51	0xbd3b08aa	-0.04566256
52	0xbd3982e4	-0.045290843
53	0xbd8a0429	-0.06739075
54	0xbebb8316	-0.36623448
55	0xbea345ca	-0.31889182
56	0x3dff31b4	0.12460652
57	0xbe82e3f5	-0.25564542
58	0xbecfcb66	-0.40584868
59	0x3dc85d91	0.097834714
60	0x39f927f9	0.00047522763
61	0xbd81e600	-0.06342697
62	0xbe8ce061	-0.27514938
63	0x3ec7c186	0.39014834
64	0xbe74e220	-0.23914385
65	0x3d8e45c4	0.069469005
66	0xbe445c6e	-0.19175884
67	0xbe1c036c	-0.1523568
68	0xbebbd3c3	-0.36685
69	0xbf7b0b7a	-0.98064387
70	0x3daf25e4	0.08552149
71	0xbeff8264	-0.49904168
72	0x3d91a88a	0.071122244
73	0xbd0245ff	-0.031805035
74	0xbed29972	-0.41132694
75	0xbe247211	-0.16059138
76	0xbde0d21b	-0.109775744
77	0x3e3275dc	0.17427772
78	0xbe98ed06	-0.29868335
79	0x3d5be0dd	0.053681243
80	0x3e1ef262	0.15522149
81	0xbdc9d4e5	-0.098550595
82	0xbbd93eed	-0.006629816
83	0xbd3f8252	-0.046755143
84	0x3d1400c1	0.03613353
85	0x3f46769a	0.7752472
86	0xbcdfde81	-0.027327778
87	0x3d24410b	0.040101092
88	0x3e7f197e	0.24912068
89	0xbda3919b	-0.079867564
90	0xbd851001	-0.06497193
91	0x3da9b7e2	0.08287026
92	0xbdbcf214	-0.0922586
93	0xbdcf713e	-0.10129021
94	0xbe5fd601	-0.2185898
95	0xbf1699e9	-0.588286
96	0x3e3b5d4c	0.18297309
97	0xbebe1821	-0.37127784
98	0xbe3860d5	-0.18005688
99	0xbf07b5f9	-0.53012043
100	0xbe936991	-0.28791478
101	0xbec74622	-0.38920695
102	0xbeb38f49	-0.35070255
103	0x3e3f8d0c	0.18706149
104	0xbe2d74c6	-0.16939077
105	0xbe72bb43	-0.23704247
106	0xbf4f9f46	-0.81102407
107	0xbe223733	-0.1584137
108	0x3dbcc0d1	0.09216464
109	0x3d37f051	0.044906918
110	0x3c99170f	0.018687753
111	0xbf259998	-0.6468749
112	0x3e9adbe6	0.30245894
113	0x3d2552ce	0.04036217
114	0x3c52d25a	0.0128675345
115	0x3e188619	0.14894904
116	0x3d2a756a	0.04161588
117	0xbde48728	-0.111585915
118	0xbf44b80b	-0.7684333
119	0x3daad17b	0.083407365
120	0xbe1e50cd	-0.1546051
121	0x3c77db4c	0.015127968
122	0x3e1fd698	0.15609205
123	0x3d59880e	0.053108267
124	0xbde33d6e	-0.11095701
125	0xbd9f0ca0	-0.0776608
126	0xbe3c14ad	-0.18367262
127	0xbc178ec2	-0.009250345
128	0xbec83884	-0.39105618
129	0xbbda182a	-0.0066557126
130	0xbeb9ed15	-0.36313692
131	0xbeb46e6e	-0.352405
132	0xbf1c5f5d	-0.6108301
133	0x3df78898	0.120866
134	0x3e6c3d63	0.23070292
135	0xbe379532	-0.17928007
136	0x3cf81ac3	0.030286198
137	0x3eebe651	0.46074155
138	0x3df66c40	0.12032366
139	0xbb57a429	-0.0032904244
140	0x3dbd6d89	0.09249408
141	0xbdbb557f	-0.091471665
142	0xbea299a6	-0.3175785
143	0x3ee4c7e2	0.44683748
144	0xbe5c406b	-0.21508949
145	0xbe736e4a	-0.2377254
146	0xbd283de8	-0.041074663
147	0xbe7153c9	-0.23567118
148	0xbe5fae6d	-0.21843882
149	0xbf114961	-0.5675259
150	0x3f046eb6	0.5173143
151	0x3ea49412	0.3214422
152	0xbd1a14d6	-0.037617527
153	0xbf44b263	-0.76834697
154	0x3e154981	0.14578821
155	0xbea51290	-0.32240725
156	0xbea080e8	-0.31348348
157	0xbea35199	-0.31898192
158	0xbad9bc42	-0.0016611891
159	0xbefe4d03	-0.4966813
160	0xbeb84c5d	-0.3599576
161	0xbf0de0a4	-0.554209

fc1.bias f4 [18]
0	0x3f64953f	0.8929023
1	0x3f66b529	0.9012018
2	0x3f941975	1.1570269
3	0x3ee44b13	0.44588527
4	0x3f60e863	0.87854594
5	0x3ec1e912	0.3787313
6	0x3f43c77b	0.7647626
7	0x3f8273db	1.0191606
8	0x3f4bd870	0.7962713
9	0x3f75be5d	0.95993596
10	0x3f275190	0.6535883
11	0x3f303ee8	0.6884599
12	0x3f56f00c	0.8396003
13	0x3f3f3227	0.746859
14	0x3f78e84b	0.9722945
15	0x3f713a63	0.94229716
16	0x3f5dd482	0.86652386
17	0x3f50f20c	0.81619334

fc21.weight f4 [9, 18]
0	0xbf3b3a65	-0.7313598
1	0x3d32dc1e	0.04366695
2	0x3e487bf1	0.1957853
3	0x3da61568	0.08109552
4	0x3e00209a	0.12512437
5	0x3d5602f0	0.052248895
6	0x3e96866b	0.29399428
7	0x3eda7121	0.42664436
8	0x3eb497cb	0.3527206
9	0x3f05c1ac	0.52248645
10	0xbe520de8	-0.20513117
11	0xbf066e5d	-0.5251215
12	0xbe108f70	-0.14117217
13	0xbc2e0cdb	-0.010623182
14	0xbe4a101b	-0.19732706
15	0xbf02efc8	-0.5114713
16	0xbde26278	-0.11053938
17	0x3ec54e1b	0.38536152
18	0xbddb787f	-0.10716342
19	0x3ceb5373	0.028726315
20	0x3d0b6c6b	0.034038942
21	0x3dffdea1	0.12493635
22	0xbf03a56b	-0.5142428
23	0xbf059d06	-0.52192724
24	0xbe61bc55	-0.22044499
25	0xbe77bb02	-0.24192432
26	0x3ea97787	0.33099005
27	0xbe18abb9	-0.14909257
28	0x3e325f80	0.17419243
29	0x3f054cdd	0.5207041
30	0x3e6d8780	0.2319622
31	0x3e53d675	0.20687278
32	0x3f1446f9	0.57920796
33	0xbf4f7d9c	-0.8105104
34	0xbe6e22c0	-0.23255444
35	0x3d043e55	0.032286007
36	0x3d835a88	0.06413752
37	0xbef9b860	-0.4877348
38	0x3ef0304a	0.46911842
39	0xbeb895a1	-0.36051658
40	0xbe94b29b	-0.29042515
41	0x3d548d3b	0.0518925
42	0x3e9bf5dd	0.30461016
43	0x3e7c02e6	0.2461048
44	0xbe765ba1	-0.24058391
45	0xbf322da3	-0.69600886
46	0x3eb34776	0.35015458
47	0xbea43dd4	-0.3207842
48	0xbee0213b	-0.43775353
49	0xbd98040b	-0.07422646
50	0x3f098734	0.5372193
51	0xbe0205b5	-0.1269749
52	0x3ea46027	0.32104608
53	0xbe25a703	-0.16176991
54	0xbf102fb3	-0.56322783
55	0x3ebe8ec5	0.372183
56	0xbed32c77	-0.4124486
57	0xbf20b90b	-0.62782353
58	0xbeedbcdb	-0.46433148
59	0xbc1e438b	-0.009659658
60	0x3eb04530	0.34427786
61	0x3e6a73dd	0.22895761
62	0x3e61b939	0.22043313
63	0xbf1405ae	-0.57821167
64	0x3d1c2cf8	0.038128823
65	0x3e38807b	0.18017761
66	0x3ef1f165	0.47254482
67	0x3e7cda5d	0.24692674
68	0xbed93cf3	-0.42429313
69	0x3e3c1766	0.18368301
70	0x3e7bee0a	0.24602523
71	0x3e3275a7	0.17427693
72	0xbf01ba26	-0.50674665
73	0x3f0d45ea	0.55184805
74	0x3f1f2755	0.6216939
75	0x3ef79979	0.48359278
76	0xbe49d471	-0.19709946
77	0xbcd6edf7	-0.026236517
78	0x3dfee5c8	0.12446171
79	0xbf0945a9	-0.5362192
80	0xbe80b396	-0.25137013
81	0x3e5321a0	0.20618296
82	0x3e88d9ad	0.26728573
83	0x3e46fcb7	0.1943234
84	0x3d82127e	0.06351183
85	0x3e1c10dc	0.15240806
86	0xbed1ceb3	-0.4097801
87	0xbe65af1a	-0.22430077
88	0x3f4c02e9	0.7969194
89	0xbea6d1b0	-0.32581854
90	0x3f2c6812	0.673463
91	0x3e46f575	0.19429572
92	0x3dc73a16	0.09727876
93	0xbdab2eb9	-0.08358521
94	0x3e75ffbe	0.24023339
95	0xbbdd7126	-0.006757873
96	0xbcfdb0e8	-0.030968145
97	0x3e3ac45d	0.18238969
98	0xbe9d7c60	-0.30758953
99	0xbd8bca86	-0.06825738
100	0x3eb65b04	0.35616314
101	0x3defb8b3	0.117051505
102	0xbef5affd	-0.4798583
103	0xbd1c9925	-0.038231988
104	0xbf842a49	-1.0325404
105	0xbf17c88f	-0.59290403
106	0xbed57577	-0.4169118
107	0x3f202e2e	0.62570465
108	0x3c45b5d2	0.012067275
109	0xbf009678	-0.502296
110	0xbdb63d04	-0.088983566
111	0x3d099c4c	0.033596322
112	0x3ede557c	0.43424594
113	0xbf4122aa	-0.7544352
114	0x3e795506	0.2434884
115	0x3edeb534	0.43497622
116	0x3e8634d7	0.2621219
117	0xbe8f8ccb	-0.28037104
118	0xbe61ba56	-0.22043738
119	0x3e837905	0.25678268
120	0xbde0d09c	-0.10977289
121	0x3f25a37b	0.64702576
122	0xbebbc541	-0.3667393
123	0xbe6c2603	-0.23061375
124	0x3ebbbd1e	0.36667722
125	0xbf3a126c	-0.7268436
126	0xbe49074f	-0.19631694
127	0x3c996282	0.01872373
128	0xbf08a29e	-0.53373134
129	0x3ccac6ab	0.024752935
130	0x3ce7b09b	0.028282454
131	0x3dedac48	0.11605126
132	0xbe531aad	-0.20615645
133	0x3f0ef318	0.5583968
134	0xbf0ad69b	-0.5423371
135	0x3eb3ad5d	0.35093203
136	0x3eb3b18c	0.35096395
137	0x3cf5ee0e	0.03002074
138	0xbe9e05bc	-0.3086375
139	0xbecdda41	-0.40205577
140	0x3eadd975	0.3395497
141	0xbe93b04d	-0.28845444
142	0x3f22bea8	0.6357217
143	0xbcf459dd	-0.029828006
144	0x3f10445c	0.5635431
145	0x3ef84322	0.48488718
146	0x3e6b4de3	0.2297893
147	0x3e53048c	0.20607203
148	0xbee8b0d7	-0.45447418
149	0x3e08ca89	0.13358511
150	0xbeb3ae8d	-0.3509411
151	0x3f201bdf	0.6254253
152	0x3e5e3d1d	0.21703
153	0xbe56f736	-0.20992741
154	0x3df9496d	0.12172208
155	0xbee8c347	-0.45461485
156	0x3ed19b57	0.40938827
157	0xbe148033	-0.14502029
158	0xbe774aa2	-0.24149564
159	0xbda48711	-0.080335744
160	0xbe04f256	-0.12983069
161	0xbed3458f	-0.41264006

fc21.bias f4 [9]
0	0x3e01a917	0.12662159
1	0xbdc38333	-0.09546509
2	0x3cbe8bd3	0.023260033
3	0x3d826234	0.06366387
4	0x3de8f9fd	0.113758065
5	0xbea62184	-0.32447445
6	0xbd8dd057	-0.06924503
7	0xbeb16e51	-0.34654477
8	0x3e811498	0.25211024

fc22.weight f4 [9, 18]
0	0xbef3f527	-0.47647974
1	0xbecec383	-0.4038354
2	0xbecb7778	-0.39739585
3	0xbe8da96c	-0.2766832
4	0xbd0ba082	-0.03408862
5	0x3c313c61	0.010817618
6	0xbe8f6272	-0.28004795
7	0xbdae21cf	-0.08502542
8	0x3ccbdbf2	0.024885152
9	0xbe9b2821	-0.30304053
10	0xbea91298	-0.33021998
11	0xbe1e1750	-0.1543858
12	0xbe8c9da1	-0.2746401
13	0x3d29c117	0.04144391
14	0xbe5f61cd	-0.21814652
15	0xbf2a4529	-0.6651178
16	0x3e748365	0.23878248
17	0xbce68bb5	-0.02814279
18	0xbe09fc46	-0.13475141
19	0x3d2bd144	0.041947618
20	0xbe7f6835	-0.24942096
21	0xbe021bbb	-0.12705891
22	0xbe9de127	-0.3083584
23	0xbfba5e97	-1.4560117
24	0xbe8651e0	-0.2623434
25	0xbe7b99d1	-0.24570395
26	0x3e8b7271	0.2723575
27	0xbdb65c06	-0.08904271
28	0x3df28ca8	0.11843234
29	0x3e48d248	0.19611466
30	0xbed2a240	-0.41139412
31	0xbe6075b3	-0.21919899
32	0x3dd59eba	0.10430665
33	0xbf49574b	-0.78648823
34	0xbe751eb7	-0.23937498
35	0x3e526499	0.20546187
36	0xbd2e7500	-0.04259205
37	0xbeb02abc	-0.34407604
38	0x3df105e4	0.11768702
39	0xbef483f6	-0.47756928
40	0x3dae1ae7	0.08501225
41	0xbc8f9d29	-0.017530994
42	0x3d9aeebc	0.07565066
43	0xba82472c	-0.0009939424
44	0x3dac9620	0.084270716
45	0xbfc0e82e	-1.5070856
46	0x3d9a3bff	0.075309746
47	0xbeb0f5f2	-0.3456264
48	0xbf047cbb	-0.51752824
49	0xbddd5b62	-0.108084455
50	0x3deb9ea3	0.11504867
51	0xbea8a7a9	-0.32940415
52	0x3d8e0621	0.06934763
53	0x3d958883	0.07301428
54	0xbd9c47b8	-0.07630867
55	0xbd4334eb	-0.04765789
56	0xbf32949e	-0.6975802
57	0xbfcdca78	-1.6077414
58	0xbe5ff5f6	-0.2187117
59	0x3d14485b	0.036201816
60	0x3d8dd053	0.069245
61	0x3c9c8df6	0.019110661
62	0x3e122cae	0.14274856
63	0xbe74068a	-0.2383062
64	0xbe334568	-0.17506945
65	0xbd729fa1	-0.059234265
66	0x3e396817	0.18106113
67	0x3dcd157d	0.10013864
68	0xbe83aa8a	-0.25716048
69	0xbea6a3ca	-0.32546836
70	0xbd948e19	-0.072536655
71	0x3e718259	0.2358488
72	0xbe59c255	-0.21265538
73	0xbe69fe94	-0.2285102
74	0xbf16f445	-0.58966476
75	0xbeb424b7	-0.3518426
76	0x3eb33446	0.3500082
77	0x3e36e3b0	0.17860293
78	0xbdf6fba6	-0.12059717
79	0x3ee93971	0.45551637
80	0x3db545b1	0.08851183
81	0xbe931ea0	-0.28734303
82	0xbf3907b7	-0.72277397
83	0x3d82cefb	0.06387135
84	0xbe9b8268	-0.3037293
85	0xbe947ef0	-0.29003096
86	0x3e421896	0.18954691
87	0xbf14de93	-0.5815212
88	0xbee83bf7	-0.4535825
89	0x3e4a7445	0.19770916
90	0x3f66158a	0.89876616
91	0x3e37c15d	0.17944856
92	0xbedc1cf4	-0.4299084
93	0xbe7e3abd	-0.24827094
94	0xbd7eb4ca	-0.062184133
95	0x3c6f525d	0.014607039
96	0xbdbd1ebc	-0.09234378
97	0xbe8a846f	-0.27054164
98	0xbec52958	-0.38508105
99	0xbf02f306	-0.51152074
100	0x3e8c7cfd	0.27439108
101	0x3f13a104	0.57667565
102	0xbf24006b	-0.6406314
103	0xbcf13f6c	-0.029449187
104	0xbf45dcc3	-0.7728998
105	0xbe030343	-0.12794213
106	0xbf17b55d	-0.59261113
107	0x3e11862a	0.14211336
108	0xbd6cdb12	-0.05782611
109	0xbeb25bd1	-0.34835675
110	0xbefe55c9	-0.49674824
111	0xbed3af12	-0.41344506
112	0x3ea6a355	0.32546487
113	0xbf48d5bc	-0.7845113
114	0x3e83bb6f	0.25728938
115	0x3e8a73b1	0.2704139
116	0xbf203477	-0.62580055
117	0xbea5a85e	-0.32355016
118	0xbe80e4ed	-0.25174657
119	0xbe2bf923	-0.16794257
120	0xbe3c99ad	-0.18417998
121	0x3e36b81d	0.17843671
122	0xbf1d9a69	-0.61563736
123	0x3e4996b1	0.1968639
124	0xbca7b7ab	-0.020473322
125	0xbe0ab822	-0.13546804
126	0x3daf6947	0.08565002
127	0xbebf9196	-0.3741576
128	0xbf8687a1	-1.0510141
129	0xbe08fb8a	-0.13377205
130	0xbe10f206	-0.14154825
131	0xbd4b13b2	-0.04957933
132	0xbe574364	-0.21021801
133	0x3e8a541e	0.270173
134	0xbf012e44	-0.5046122
135	0xbe47eddb	-0.19524328
136	0x3ef59e8d	0.47972527
137	0x3ce4ee37	0.027945621
138	0xbed1b5a3	-0.4095889
139	0xbe8e6890	-0.2781415
140	0x3caf2e27	0.021384312
141	0xbf046062	-0.5170957
142	0x3f1a048c	0.6016319
143	0xbe21031b	-0.15723841
144	0xbf1d1b65	-0.61369926
145	0xbf8590dc	-1.0434833
146	0xbe9ce28a	-0.30641586
147	0xbeb362cc	-0.35036314
148	0x3e1f4dff	0.15557097
149	0xbd8aeb05	-0.06783108
150	0x3e21c290	0.15796876
151	0xbf29cb41	-0.66325766
152	0xbef8ebe9	-0.48617485
153	0x3e3e3a13	0.18576841
154	0xbddc2c1a	-0.10750599
155	0x3ecbbed0	0.39794016
156	0xbeb3136c	-0.34975755
157	0xbe14bf55	-0.14526112
158	0x3e2c20d6	0.16809401
159	0xbd77d91e	-0.060509793
160	0xbd0d207f	-0.03445482
161	0x3f3514c4	0.7073481

fc22.bias f4 [9]
0	0xbddbee41	-0.10738803
1	0xbe3b7b33	-0.18308716
2	0xbed4a909	-0.41535214
3	0xbed275df	-0.41105554
4	0xbebf2dcf	-0.37339637
5	0xbe4801ae	-0.19531891
6	0xbe0d61fe	-0.13806912
7	0xbf0aee90	-0.5427027
8	0xbf1ff757	-0.62486786

fc3.weight f4 [18, 9]
0	0xbd0633fa	-0.032764412
1	0xbe108e56	-0.14116797
2	0x3acb1a2f	0.0015495474
3	0x3d096862	0.033546813
4	0x3a4a8d53	0.00077267474
5	0xbc8d7b9d	-0.017270857
6	0x3eba655f	0.36405465
7	0xbcc6d858	-0.024273083
8	0xbbb8e512	-0.0056425417
9	0xbe4cce3c	-0.20000547
10	0xbcf1b025	-0.029502938
11	0x3dc31213	0.09524932
12	0x3df38c2b	0.11891969
13	0x3f7e4d68	0.9933686
14	0x3cd22e69	0.025656896
15	0xbbe83629	-0.0070865345
16	0x3c3a8387	0.011383898
17	0xbd108208	-0.035280257
18	0x3f4ba9f5	0.7955621
19	0x3ca45238	0.020058736
20	0x3d6fcc02	0.058544166
21	0x3d76c46c	0.060245916
22	0x3d844207	0.06457906
23	0xbf69dd93	-0.9135372
24	0x3d8f6899	0.07002372
25	0x3e168e72	0.14702776
26	0xbd1de47f	-0.03854799
27	0x3db71e6b	0.08941349
28	0x3c1913e9	0.009343126
29	0x3f0d5888	0.5521321
30	0xbcad3a26	-0.021145891
31	0xbdab93c0	-0.083777905
32	0x3cac3d86	0.02102543
33	0xbcf371cc	-0.029717349
34	0xbe644552	-0.22292069
35	0x3aac0974	0.0013125376
36	0x3d8a0b8b	0.06740483
37	0xbddd509a	-0.10806389
38	0x3cf4fbb6	0.029905181
39	0xbc8e6d8d	-0.017386222
40	0xbce1ebbf	-0.027578233
41	0x3c6e3d1d	0.014540938
42	0xbf9991f8	-1.1997671
43	0x3da581ed	0.08081422
44	0x3d7d5b62	0.061854728
45	0xbd836807	-0.06416326
46	0xbfa7e7a7	-1.311757
47	0x3b7a5eb3	0.0038203418
48	0xbd10fda7	-0.03539815
49	0xbd265d3e	-0.040616266
50	0xbca299c3	-0.01984871
51	0x3d5d66bc	0.054053053
52	0x3a5040e1	0.0007944238
53	0xbc3ad890	-0.011404172
54	0x3ec1cddd	0.37852374
55	0x3d2d2c20	0.04227841
56	0xbd20cbcf	-0.039256867
57	0xbd87092e	-0.06593548
58	0x3d609df9	0.054838154
59	0xbdbef3af	-0.09323823
60	0x3c48d385	0.012257461
61	0xbd9b9c48	-0.07598168
62	0x3c891c7d	0.016737217
63	0xbf2f5d07	-0.68501323
64	0x39db4ab8	0.00041826605
65	0xbd00635c	-0.031344756
66	0xbd3bbe1c	-0.0458356
67	0xbdb29e63	-0.08721616
68	0x395f14a1	0.00021274622
69	0xbd3d9eb2	-0.04629392
70	0xbe2f5b05	-0.17124565
71	0x3cf4ef8d	0.029899383
72	0x3edca75d	0.43096438
73	0xbc4f1510	-0.012639299
74	0xbda4984f	-0.08036863
75	0x3bc86d76	0.0061165644
76	0x3de4b179	0.11166663
77	0x3d2a2e8c	0.041548297
78	0xbd9c9882	-0.07646276
79	0xbfa04294	-1.2520318
80	0x3c3e388c	0.0116101615
81	0x3ef64148	0.4809668
82	0xbc538f15	-0.012912531
83	0x3ca0108c	0.01953914
84	0x3d77b0c0	0.060471296
85	0x3d601c60	0.05471456
86	0x3d4795f9	0.04872701
87	0x3cd240bd	0.025665635
88	0x3e09612c	0.13415974
89	0xbcf4d187	-0.029885067
90	0xbd49842e	-0.049198322
91	0xbde32017	-0.11090105
92	0xbc759cbd	-0.014990983
93	0x3ce98a9c	0.028508477
94	0x3ac0be53	0.0014705159
95	0xbcd9ca37	-0.026585681
96	0x3ec2355d	0.37931338
97	0xbc992cb2	-0.01869807
98	0xbc85df97	-0.016341968
99	0xbea2196d	-0.31660023
100	0xbd19cd38	-0.037549227
101	0xbe894448	-0.26809907
102	0x3d9ee58c	0.07758626
103	0xbbe8be79	-0.0071027842
104	0x3dbcb832	0.0921482
105	0x3cfa85f6	0.030581456
106	0x3e6c597d	0.23081012
107	0xbd1247d4	-0.035713032
108	0x3b7c3a29	0.0038486815
109	0xbc8243f9	-0.015901553
110	0x3b2d6805	0.0026459706
111	0x3cd27f79	0.02569555
112	0x3cb6bccc	0.022306822
113	0x3b977987	0.0046226415
114	0x3d272615	0.040807802
115	0x3c81641d	0.015794808
116	0x3fa12e13	1.2592186
117	0x3c672015	0.01410677
118	0x3ac6a756	0.0015156071
119	0xbfafabe9	-1.3724338
120	0xbbf91d30	-0.0076023564
121	0x3dd6d965	0.104906835
122	0xbc081b20	-0.008307248
123	0x3cc9f8a7	0.0246547
124	0x3d8fbf1b	0.07018872
125	0xbc2315a0	-0.009953886
126	0x3f02daab	0.5111491
127	0x3cc41694	0.023936547
128	0xbcf59283	-0.029977089
129	0xbd36c10d	-0.0446177
130	0xbf10b17e	-0.5652083
131	0xbdfd8f77	-0.12380879
132	0x3d0efb8d	0.034907866
133	0x3df215ae	0.11820541
134	0x3a888d31	0.0010418055
135	0xbd8ea7a2	-0.06965567
136	0xbd9825d4	-0.0742909
137	0xbd5bc5f7	-0.05365559
138	0x3e1fa8d8	0.15591753
139	0x3ec5bc71	0.38620332
140	0x3e7a67cd	0.2445366
141	0xbd8bc3ba	-0.06824441
142	0x3db11fc8	0.0864864
143	0xbcfc758e	-0.030817773
144	0x3dcec55c	0.10096237
145	0xbd6a713d	-0.0572369
146	0xbc89a3cd	-0.01680174
147	0xbf950642	-1.1642535
148	0x3e229770	0.15878081
149	0x3c70c691	0.014695779
150	0x3d145269	0.036211405
151	0x3cfb8f9d	0.030708129
152	0xbb52aedd	-0.0032147684
153	0x3d8387e1	0.06422401
154	0xbc88b5b4	-0.016688205
155	0x3ea8f877	0.33002064
156	0x3db54309	0.088506766
157	0xbd9c6d16	-0.07637994
158	0x3e00db1a	0.1258358
159	0x3c5089c4	0.012728158
160	0x3d7996d5	0.06093486
161	0xbd20679f	-0.03916132

fc3.bias f4 [18]
0	0x3efd2852	0.49444824
1	0xbe1f1620	-0.15535784
2	0xbf2ca538	-0.67439604
3	0x3f3013cb	0.687802
4	0xbd02c553	-0.031926464
5	0xbe928c4a	-0.28622657
6	0x3f6f8467	0.93561405
7	0x3f12dd2c	0.5736873
8	0xbe0f3ca6	-0.1398798
9	0x3f44c1c2	0.7685815
10	0x3ef8a69c	0.48564613
11	0x3f8a886a	1.082288
12	0xbf14f6f4	-0.5818932
13	0xbeb61f31	-0.35570672
14	0x3f47217a	0.77785456
15	0x3f5241fa	0.8213192
16	0xbe591cd1	-0.21202399
17	0x3f496c66	0.7868103

fc4.weight f4 [9, 18]
0	0xbd98810c	-0.07446489
1	0xbba170cb	-0.004926776
2	0xbb2ce39d	-0.0026380785
3	0xbccc89ba	-0.024968017
4	0xbf1b03f8	-0.6055293
5	0x3d94076c	0.07227978
6	0xbedb6c83	-0.42856225
7	0xbcd90b42	-0.026494626
8	0xbb31431b	-0.0027048055
9	0x3e218137	0.15771948
10	0x3d6d5233	0.05793972
11	0xbe7b0ee9	-0.24517407
12	0x3f96cd67	1.1781434
13	0x3c16a39a	0.009194279
14	0x3d1284c0	0.03577113
15	0x3d138caf	0.03602284
16	0xbcde990d	-0.02717259
17	0xbe602ff6	-0.21893296
18	0xbeaee7f5	-0.34161344
19	0xbbe4b3f4	-0.00697946
20	0x3c0f413b	0.0087435795
21	0xbe466166	-0.19373092
22	0x3f4c2bd2	0.79754364
23	0xbe92f3e4	-0.287017
24	0xbcaf3777	-0.021388752
25	0xbda53b4a	-0.08067949
26	0xbcc3bc95	-0.023893634
27	0xbe1b96eb	-0.1519429
28	0xbeab960d	-0.33512917
29	0xbe393971	-0.18088318
30	0x3d3f24fa	0.046666123
31	0xbba3dd51	-0.005000748
32	0xbd8076bb	-0.06272646
33	0xbd59bfe6	-0.053161524
34	0x3cfc6141	0.030808093
35	0x3e158f74	0.14605504
36	0xbd62dd2d	-0.05538671
37	0xbcf1a2fc	-0.029496662
38	0x3c52a315	0.012856265
39	0xbe5ac2e1	-0.21363403
40	0x3cb5d92f	0.022198288
41	0x3f916a64	1.1360593
42	0xbd9c20c1	-0.07623435
43	0xbcc70ff4	-0.0242996
44	0xbd065ac5	-0.03280141
45	0xbe07399f	-0.13205574
46	0x3df01365	0.11722449
47	0xbe84eac4	-0.25960362
48	0xbbd221e8	-0.0064127333
49	0x3da94b01	0.08266259
50	0x3cc049b8	0.023472652
51	0x3db467e7	0.0880888
52	0xbf0b9565	-0.5452483
53	0x3df3d883	0.11906531
54	0xbe5fb1b4	-0.21845132
55	0x3ccb55d1	0.024821194
56	0xbc3c8f70	-0.011508808
57	0xbcd8e209	-0.02647497
58	0xbd2f68e0	-0.042824626
59	0x3d5268b4	0.051369384
60	0xbe1777d0	-0.14791799
61	0xbac97880	-0.0015370995
62	0x3d8ab2b9	0.0677237
63	0x3d813cb4	0.06310406
64	0x3dd2ded4	0.10296407
65	0xbdcb5b47	-0.09929519
66	0x3b8dd605	0.0043284916
67	0xbef2a141	-0.47388652
68	0x3c95bb6a	0.018277843
69	0xbd877e5b	-0.06615897
70	0x3f9b20b3	1.2119354
71	0xbcee2fcf	-0.029075531
72	0x3e5c8d2a	0.21538225
73	0x3dd0bbf8	0.10192102
74	0xbc1c293d	-0.009531316
75	0xbf2999d2	-0.66250336
76	0x3c82fb90	0.015989095
77	0xbc902f45	-0.017600665
78	0xbda6b6fa	-0.08140369
79	0x3d3b1e34	0.0456831
80	0xbeeac36d	-0.45852223
81	0xbe7240df	-0.23657559
82	0xbe2ea452	-0.1705487
83	0xbf071250	-0.5276232
84	0x3bc476c7	0.0059956047
85	0x3f94979d	1.1608769
86	0xbd0861ee	-0.033296518
87	0xbd86be12	-0.06579222
88	0x3d141aaf	0.03615826
89	0x3f15efa5	0.58568794
90	0x3d3a08c6	0.045418523
91	0xbec13609	-0.37736538
92	0x3d36d9d6	0.04464134
93	0xbd92e428	-0.071724236
94	0x3b1e8c79	0.0024192615
95	0xbbcf9c46	-0.006335768
96	0xbe589c06	-0.21153268
97	0xbe46f128	-0.19427931
98	0x3f81f592	1.0153067
99	0xbd3992b9	-0.04530594
100	0xbcb970da	-0.02263682
101	0xbe6a1fc0	-0.22863674
102	0x3b287e4d	0.0025710047
103	0x3dbaadcd	0.09115181
104	0x3d0863bb	0.033298235
105	0xbc7b6460	-0.0153437555
106	0x3bdc6bf0	0.0067267343
107	0x3d4653f5	0.04841991
108	0x3d554e81	0.05207682
109	0x3f384887	0.7198567
110	0xbe3a265d	-0.18178697
111	0xbde02a52	-0.10945572
112	0x3c7451a2	0.014912041
113	0x3bdca87b	0.0067339516
114	0xbdbbec39	-0.09175915
115	0xbc472921	-0.012155802
116	0x3d881555	0.06644694
117	0xbd581c9b	-0.052761655
118	0xbdce9f53	-0.100889824
119	0x3df51a02	0.11967851
120	0xbae831ff	-0.0017715095
121	0xbc13fbc2	-0.009032192
122	0xbecdf630	-0.4022689
123	0xbeb2e461	-0.34939864
124	0xbc2c5050	-0.010517195
125	0x3e019a46	0.12656507
126	0xbd892bc3	-0.066978
127	0x3d7e0236	0.062013827
128	0x3eb9c19e	0.3628053
129	0xba57856c	-0.00082214805
130	0xbcf5270e	-0.02992585
131	0x3a56f0fa	0.00081993605
132	0x3e0bf0e5	0.13666113
133	0xbf04adb5	-0.51827556
134	0xbde82024	-0.11334255
135	0xbe652ffe	-0.22381589
136	0x3de6f0cf	0.11276399
137	0xbe902845	-0.28155723
138	0xbc95b5f5	-0.01827524
139	0xbcf78075	-0.03021262
140	0x3eac27c5	0.33624092
141	0x3ed2f06a	0.41199046
142	0xbcc93cb3	-0.024565076
143	0xbe1f4599	-0.15553893
144	0xbdf25f19	-0.11834545
145	0xbd9bde86	-0.07610802
146	0x3f7020f6	0.93800294
147	0x3dae94a3	0.08524444
148	0x3cbc0f42	0.022956494
149	0xbc914d7c	-0.017737143
150	0xbf08cd40	-0.53438187
151	0x3e0e1245	0.13874157
152	0x3e243dfd	0.16039272
153	0xbf18bdea	-0.59664786
154	0x3d83e599	0.06440277
155	0x3e8c53d4	0.27407706
156	0x3c80977f	0.015697239
157	0x3c87f905	0.016598234
158	0xbe813c72	-0.2524143
159	0xbe9e50b1	-0.30920938
160	0x3d4ae2ac	0.049532577
161	0xbd0fd24d	-0.035112668

fc4.bias f4 [9]
0	0xbd886ac5	-0.0666099
1	0x3e12d963	0.14340739
2	0xbebcb64b	-0.36857828
3	0xbef143d2	-0.47122055
4	0x3d7fcf68	0.062453657
5	0xbe788d0e	-0.24272558
6	0x3d9398d6	0.072068855
7	0xbe889916	-0.26679295
8	0xbc8a16ef	-0.016856639
