coil/vae/c3_v4_vae.pt (torch, 3527 bytes, 10 tensors)

fc1.weight f4 [8, 4]
-0.31497195 -0.29587266 0.9040237 0.7855796 -0.18385422 -0.27380082 -0.9851735 0.6013135
-0.025990587 -0.6691724 -0.002415048 -0.6459946 0.017655274 -0.01238076 0.0869943 0.1939211
-0.6519603 1.0013859 0.5991114 -0.0055348678 0.6831579 0.70652336 -0.058325432 -0.2734577
-0.063792646 0.23578387 0.034338236 0.25807655 -0.71672994 0.48332864 0.788113 -0.17530182
00000000: 0144 a1be 9f7c 97be 196e 673f bf1b 493f
00000010: 4844 3cbe 9f2f 8cbe 5534 7cbf aeef 193f
00000020: 36ea d4bc e24e 2bbf c845 1ebb e75f 25bf
00000030: cba1 903c acd8 4abc 112a b23d 4193 463e
00000040: dfe6 26bf 6a2d 803f 5d5f 193f d65d b5bb
00000050: 70e3 2e3f b7de 343f a6e6 6ebd a602 8cbe
00000060: b8a5 82bd 5471 713e 40a6 0c3d 9c22 843e
00000070: 9d7b 37bf da76 f73e c6c1 493f 5282 33be

fc1.bias f4 [8]
0.97573566 0.89244187 0.42144987 -0.28732875 0.08261887 1.3367394 -0.18807292 0.20518354
00000000: d0c9 793f 1277 643f 47c8 d73e c11c 93be
00000010: 1534 a93d 471a ab3f 3096 40be a21b 523e

fc21.weight f4 [4, 8]
-0.00356 -0.16018747 0.4548259 -0.21197934 1.1406195 -0.9521482 -0.28312993 0.7329551
0.0030069489 0.019710176 0.042934213 -0.14520726 0.014903571 0.035473756 -0.17140394 0.01429245
1.1047523 -0.17236795 -0.69731975 -0.17209399 0.057003256 0.09113924 -0.030190557 -0.3095786
-0.74333155 1.2142831 -0.44630873 0.05296666 0.80649984 -0.4835938 -0.25807485 0.3726834
00000000: e44e 69bb 2f08 24be f1de e83e 1d11 59be
00000010: d2ff 913f fcbf 73bf 68f6 90be f2a2 3b3f
00000020: 3b10 453b 3c77 a13c c9db 2f3d 36b1 14be
00000030: 1c2e 743c ee4c 113d 8484 2fbe e12a 6a3c
00000040: 8668 8d3f 3981 30be 8c83 32bf 6839 30be
00000050: 3f7c 693d 36a7 ba3d 3052 f7bc 1681 9ebe
00000060: fa4a 3ebf a16d 9b3f 9482 e4be 92f3 583d
00000070: c676 4e3f 9b99 f7be 6322 84be 5cd0 be3e

fc21.bias f4 [4]
0.1325369 -0.10115599 0.13199006 -0.24091502
00000000: c1b7 073e df2a cfbd 6728 073e 6db2 76be

fc22.weight f4 [4, 8]
-0.27116635 -0.6939861 -0.13846193 -0.27646092 -0.48234987 -1.5444704 0.048214853 0.3092758
-0.046334904 -0.06632377 -0.0801885 -0.1557822 -0.031381175 -0.056943327 -0.25304246 -0.017057195
-1.5550578 0.832837 -0.19390295 0.18921718 0.8327239 -0.41349512 -0.30873695 -0.44565234
-0.08687681 -1.4206774 -1.1628928 -0.27610463 0.2668246 -0.49483788 0.17265859 -0.93776155
00000000: 51d6 8abe 13a9 31bf f7c8 0dbe 498c 8dbe
00000010: 90f6 f6be 35b1 c5bf f07c 453d 6659 9e3e
00000020: abc9 3dbd c2d4 87bd de39 a4bd 5e85 1fbe
00000030: 8c89 00bd 683d 69bd c88e 81be 88bb 8bbc
00000040: 220c c7bf ce34 553f 7f8e 46be 26c2 413e
00000050: 652d 553f a2b5 d3be c512 9ebe 8b2c e4be
00000060: 78ec b1bd c2d8 b5bf acd9 94bf 965d 8dbe
00000070: 3c9d 883e 645b fdbe 6acd 303e 2411 70bf

fc22.bias f4 [4]
-0.98907703 0.24220052 -0.62759477 -0.60854
00000000: 2734 7dbf 6a03 783e 0daa 20bf 47c9 1bbf

fc3.weight f4 [8, 4]
-1.3313903 0.0047337627 -0.021073954 -0.49848884 0.1312494 -0.0066727735 0.54565424 -0.30519393
1.0979542 0.0010593779 -0.010608838 0.75501287 -0.0454174 -0.01064768 0.4143494 -0.38121876
0.42260483 -0.0004346901 0.016311938 0.46353808 0.43010762 0.00029858563 -0.0013065059 -0.5822972
-0.6000582 0.0035722095 -0.0105232885 -0.28966385 0.52656204 -0.014443332 0.9777666 -1.1992522
00000000: ff6a aabf ae1d 9b3b 49a3 acbc ee39 ffbe
00000010: 3e66 063e 48a7 dabb ffaf 0b3f 6142 9cbe
00000020: c389 8c3f d3da 8a3a b1d0 2dbc 8648 413f
00000030: 9807 3abd 9b73 2ebc 9b25 d43e 1b2f c3be
00000040: a95f d83e 1ee7 e3b9 9da0 853c dd54 ed3e
00000050: 1137 dc3e 7c8b 9c39 103f abba 6e11 15bf
00000060: 6a9d 19bf bb1b 6a3b df69 2cbc d24e 94be
00000070: c5cc 063f baa3 6cbc e94e 7a3f 1981 99bf

fc3.bias f4 [8]
-0.74787134 -0.81245315 -0.40246317 -0.70888287 0.99129164 1.3381301 -0.7078698 -0.84325355
00000000: 7f74 3fbf eefc 4fbf a70f cebe 5979 35bf
00000010: 4ac5 7d3f d947 ab3f f536 35bf 77df 57bf

fc4.weight f4 [4, 8]
2.0089982 0.40739465 -0.51216155 -0.47753853 -0.23594347 0.10553876 -3.5053868 0.005631544
0.030480102 -0.35405445 0.74298656 -0.005840003 0.37692308 -0.30507427 1.3929461 -0.14461096
-0.30283937 0.5932319 0.36609465 0.11995067 -0.43281272 0.5633139 0.55479014 0.09969006
0.07938689 -0.28012136 -0.4157455 -0.058120236 0.31566226 -1.0111338 -0.18431143 0.93060774
00000000: 6d93 0040 0896 d03e 051d 03bf ee7f f4be
00000010: 2a9b 71be b524 d83d 4258 60c0 d188 b83b
00000020: 68b1 f93c a046 b5be 5e34 3e3f 7f5d bfbb
00000030: 10fc c03e b232 9cbe 0f4c b23f e514 14be
00000040: c30d 9bbe 0cde 173f c270 bb3e b2a8 f53d
00000050: a199 ddbe 5735 103f ba06 0e3f 4d2a cc3d
00000060: 9895 a23d 116c 8fbe 98dc d4be 7c0f 6ebd
00000070: 7c9e a13e d56c 81bf 23bc 3cbe 4f3c 6e3f

fc4.bias f4 [4]
-0.7267743 -0.4659409 -0.7935622 0.06016055
00000000: e10d 3abf ce8f eebe e426 4bbf e96a 763d
