coil/vae/c3_v5_vae.pt (torch, 4167 bytes, 10 tensors)

fc1.weight f4 [10, 5]
0	0x3dad1c91	0.08452714
1	0xbcb287a2	-0.02179319
2	0x3e642837	0.22280966
3	0xbf8300a6	-1.0234573
4	0x3f3af4dc	0.73029876
5	0xbd72132a	-0.059100308
6	0x3ea75203	0.32679757
7	0xbe09e16e	-0.13464901
8	0x3f41f8bd	0.7577017
9	0x3e73a8ad	0.23794813
10	0xbedc34fb	-0.4300917
11	0xbe7528be	-0.23941323
12	0xbdc0caae	-0.09413658
13	0xbe8be4e0	-0.27323055
14	0xbee7694f	-0.45197532
15	0xbe34c2a9	-0.17652382
16	0x3f3a5ba8	0.72796106
17	0xbe9b75bc	-0.30363262
18	0x3db10cbe	0.086450085
19	0xbe535a51	-0.20639922
20	0xbed7c1ce	-0.4214005
21	0x3d424d73	0.047437143
22	0xbe038389	-0.12843145
23	0x3f456ccc	0.77119136
24	0x3ed0fb11	0.40816548
25	0xbdbce152	-0.09222664
26	0xbed7230a	-0.4201892
27	0xbf0585c7	-0.52157253
28	0x3ee27be6	0.44235152
29	0x3e8fbe5b	0.28074917
30	0xbf18ee7b	-0.5973889
31	0x3f7c1d18	0.98481894
32	0x3f77cb4c	0.9679458
33	0x3f038c45	0.5138591
34	0xbe17d796	-0.14828333
35	0x3f59d693	0.8509304
36	0xbe2d78da	-0.16940632
37	0xbec76333	-0.3894287
38	0xbe324fd1	-0.1741326
39	0xbf1334b0	-0.5750227
40	0x3f1b3c36	0.6063875
41	0xbf84fbfe	-1.0389402
42	0x3f52ebfe	0.82391346
43	0x3efbf783	0.49212274
44	0x3d5f8be9	0.054576788
45	0xbefe93c1	-0.49722102
46	0x3edad50f	0.42740676
47	0x3c2f217b	0.010689135
48	0xbf14de0b	-0.5815131
49	0xbd08a7ff	-0.03336334

fc1.bias f4 [10]
0	0x3f0fc7ef	0.5616445
1	0x3f02ed46	0.511433
2	0x3f1c4e33	0.6105682
3	0x3f3a769e	0.72837245
4	0x3f37d206	0.71804845
5	0x3f1eff18	0.6210799
6	0xbf07090b	-0.52748173
7	0x3f8142a5	1.0098463
8	0x3ed1cddc	0.4097737
9	0x3f0165a3	0.5054571

fc21.weight f4 [5, 10]
0	0x3f245ff4	0.6420891
1	0xbf36662d	-0.7124966
2	0x3e4fa27f	0.20276831
3	0xbea45e03	-0.32102975
4	0xbe882fca	-0.2659896
5	0xbc8c0805	-0.017093668
6	0xbe0e9261	-0.13923027
7	0x3d945675	0.07243053
8	0x3efa04ce	0.4883179
9	0xbe55bb89	-0.2087232
10	0x3f252473	0.6450874
11	0xbe14661e	-0.1449208
12	0x3ea321b3	0.31861648
13	0x3e21e395	0.15809472
14	0xbf1a296a	-0.6021944
15	0xbe75e0ae	-0.2401149
16	0x3ebefdad	0.37302914
17	0xbecf86a5	-0.40532413
18	0xbe98f437	-0.2987382
19	0x3ee1067d	0.43950263
20	0x3cf90155	0.030396143
21	0x3ec54e84	0.38536465
22	0x3e0719e4	0.1319347
23	0x3dcdf27e	0.10056017
24	0xbef1240e	-0.4709782
25	0x3dff348a	0.12461193
26	0xbc7a8851	-0.015291289
27	0xbe1ded58	-0.1542257
28	0x3c47b3a5	0.012188827
29	0xbe18224b	-0.14856832
30	0x3cce3e2f	0.025176136
31	0x3a835794	0.0010020607
32	0x3d38833e	0.045047037
33	0x3da129d5	0.07869307
34	0xbd40a628	-0.04703346
35	0x3da2da64	0.07951811
36	0x3c88a73b	0.016681304
37	0xbbfefd70	-0.007781677
38	0x3d4baecd	0.04972725
39	0xbc4d6c64	-0.012538049
40	0x3f0cbeeb	0.5497882
41	0x3e1699f8	0.14707172
42	0xbf6bb5a5	-0.9207404
43	0x3e93ab7d	0.28841773
44	0xbef33aa7	-0.47505686
45	0x3de7908c	0.11306867
46	0xbfb43c3f	-1.4080886
47	0x3f584958	0.84486914
48	0xbf2097b8	-0.62731504
49	0x3f194cfb	0.5988309

fc21.bias f4 [5]
0	0x3c9637e1	0.018337192
1	0xbdb166f4	-0.08662215
2	0x3ddb3ba2	0.107047334
3	0xbe2174c4	-0.15767199
4	0xbe3a609a	-0.18200913

fc22.weight f4 [5, 10]
0	0xbf3f8e14	-0.7482617
1	0xbf8bfa54	-1.0935769
2	0xbf410aea	-0.7540728
3	0xbf1f8b35	-0.6232179
4	0xbe68e554	-0.22743732
5	0xbd585d04	-0.05282308
6	0x3fb6bea8	1.4276934
7	0xbf2a2154	-0.66457105
8	0xbf0a30bb	-0.53980607
9	0xbf18b27e	-0.5964736
10	0xbf29e1eb	-0.6636035
11	0xbd83586e	-0.06413351
12	0xbe966923	-0.29377088
13	0xbf81ec2f	-1.0150203
14	0xbf38d520	-0.722002
15	0xbf45c18e	-0.77248466
16	0x3f015184	0.5051501
17	0xbf4695bd	-0.7757223
18	0xbf338241	-0.70120627
19	0xbec0008c	-0.37500417
20	0x3d1470c5	0.036240358
21	0x3e8979cc	0.26850736
22	0x3e17cdd1	0.14824606
23	0xbe3fde79	-0.1873721
24	0x3dff78ea	0.124742344
25	0xbe84c188	-0.25928903
26	0x3c775500	0.015095949
27	0x3ddfd363	0.10928991
28	0xbdc5bb60	-0.096548796
29	0x3c008407	0.007843978
30	0x38dfbcfa	0.00010668668
31	0xbbb0a703	-0.005391003
32	0xbbcdc957	-0.006280105
33	0x3d842239	0.0645184
34	0xbdd91e96	-0.10601537
35	0x3dabf16e	0.083956584
36	0xbb93b6a4	-0.0045078564
37	0xbd4b1d72	-0.049588628
38	0x3cbfddcc	0.02342119
39	0xbcea8f3f	-0.028632758
40	0xbf88220a	-1.0635388
41	0xbedee019	-0.43530348
42	0xbefff9f6	-0.49995393
43	0x3e5d8199	0.21631469
44	0x3ddb924b	0.107212625
45	0xbdcc3d1e	-0.09972595
46	0xbf3de93b	-0.74184006
47	0xbf403c23	-0.7509176
48	0xbf1d1f69	-0.61376053
49	0xbe4f4a6f	-0.20243238

fc22.bias f4 [5]
0	0xbf0993b1	-0.53740984
1	0xbea889fd	-0.32917777
2	0xbde9c7ba	-0.11415048
3	0x3d01d16b	0.031693857
4	0xbf3ebc66	-0.74506223

fc3.weight f4 [10, 5]
0	0x3f3176a1	0.6932164
1	0xbf5e2023	-0.86767787
2	0x3ba69936	0.005084182
3	0xbb559a41	-0.0032593163
4	0x3f2c3dfe	0.6728209
5	0xbef5babb	-0.47994027
6	0xbf0231a7	-0.50857013
7	0xbac073ed	-0.0014682986
8	0x3b5b8775	0.0033497487
9	0x3edf8903	0.4365922
10	0x3ec0ef5e	0.37682623
11	0x3f18ddec	0.59713626
12	0xbbb8a74e	-0.0056351786
13	0xbc2eea48	-0.010675974
14	0x3ed6271f	0.41826722
15	0xbf516af5	-0.8180383
16	0xbfaabc57	-1.3338727
17	0x3c147ace	0.009062482
18	0x3b393960	0.0028262958
19	0xbed909fa	-0.42390424
20	0xbe695a95	-0.2278846
21	0x3de228a0	0.11042905
22	0xbc49f5bc	-0.012326654
23	0xbc1c1e1c	-0.009528663
24	0x3f7af45e	0.98029125
25	0xbef01b2f	-0.4689574
26	0x3e493953	0.19650774
27	0xbab72918	-0.0013974039
28	0xba60d38f	-0.00085764466
29	0xbe99d23d	-0.30043212
30	0x3f27ca74	0.65543294
31	0xbe5cae53	-0.21550874
32	0x3bc258f3	0.0059310137
33	0x3c295aaa	0.010336557
34	0xbf196e18	-0.59933615
35	0x3e9d33c1	0.30703548
36	0x3e1b4f5b	0.1516699
37	0x390735f5	0.00012894704
38	0x3b3b9d7e	0.0028627808
39	0xbf6898f5	-0.90858394
40	0xbf83e203	-1.0303348
41	0x3f81dc6e	1.0145395
42	0x3bcd018f	0.0062562893
43	0x3b07a00d	0.0020694763
44	0xbe01defd	-0.1268272
45	0x3e6c273e	0.23061845
46	0xbef3915c	-0.47571838
47	0xba8c38b3	-0.001069805
48	0x3b1d2079	0.0023975654
49	0xbf1a0774	-0.6016762

fc3.bias f4 [10]
0	0xbf03ff21	-0.5156117
1	0x3f599c34	0.8500397
2	0x3ea1e3f7	0.31619236
3	0xbf3b5597	-0.73177475
4	0xbf5d77fa	-0.86511195
5	0x3f7fa9f1	0.99868685
6	0xbebca3db	-0.36843762
7	0x3ea01ef2	0.3127361
8	0xbe3c1977	-0.18369089
9	0x3ed18868	0.40924382

fc4.weight f4 [5, 10]
0	0x3f88883c	1.0666575
1	0xbd47ba0d	-0.048761416
2	0xbe311ace	-0.17295381
3	0x3dcf79e2	0.10130669
4	0x3f75c5ab	0.9600474
5	0xbeae2766	-0.34014434
6	0xbd39a881	-0.045326713
7	0x3e2c9755	0.16854604
8	0xbf3a1f5b	-0.72704095
9	0xbe16ebc4	-0.14738375
10	0x3c408861	0.011751265
11	0x3e1bffb9	0.15234269
12	0xbdb939bb	-0.09044214
13	0x3c3cfa68	0.011534311
14	0x3f8726c8	1.055871
15	0x3dac3cf8	0.08410066
16	0xbf2d6bb1	-0.6774245
17	0x3d67a3d5	0.056552727
18	0x3fa178cd	1.261499
19	0xbdcab686	-0.09898095
20	0x3de20f62	0.1103809
21	0xbebc66e1	-0.3679724
22	0x3cfdc04d	0.030975485
23	0xbe036ca6	-0.12834415
24	0x3e696c8e	0.22795317
25	0xbe42e977	-0.19034372
26	0x3f276acf	0.6539735
27	0x3ee47cfe	0.4462661
28	0x3e407faf	0.18798707
29	0xbe254d51	-0.16142775
30	0xbd8b9a00	-0.068164825
31	0x3f04daae	0.5189618
32	0xbe9fcc8d	-0.31210747
33	0x3e2dc172	0.16968325
34	0xbe2beba8	-0.16789114
35	0x3db87221	0.09006143
36	0x3dd2030e	0.10254489
37	0x3e191538	0.149495
38	0xbb8f8976	-0.0043804003
39	0x3e2fdff2	0.17175272
40	0xbe0eb191	-0.13934924
41	0xbf056229	-0.52102906
42	0x3eebe0ab	0.46069846
43	0x3f94d33d	1.1626965
44	0x3d8249a4	0.06361702
45	0xbf1e90e1	-0.6193982
46	0x3e282d85	0.16423614
47	0xbc902b85	-0.017598877
48	0x3e40a865	0.18814237
49	0xbf251690	-0.6448755

fc4.bias f4 [5]
0	0xbeb6f099	-0.35730436
1	0xbf694d4b	-0.91133565
2	0xbe333177	-0.17499338
3	0xbf64556b	-0.8919284
4	0xbdf7e938	-0.1210503
