coil/vae/c3_v7_vae.pt (torch, 5127 bytes, 10 tensors)

fc1.weight f4 [14, 7]
0	0xbdc3d696	-0.095624134
1	0xbe8ae332	-0.2712646
2	0x3d00c4ea	0.031437792
3	0xbd4edc87	-0.05050328
4	0x3eed6b6e	0.46371025
5	0xbefd72bd	-0.495016
6	0x3d6882a9	0.056765232
7	0xbe8f7765	-0.28020778
8	0x3f4793aa	0.7795969
9	0x3cd342b7	0.025788648
10	0xbd8fee52	-0.07027878
11	0xbe5bdd5d	-0.21471162
12	0xbefd1276	-0.49428147
13	0xbc748b92	-0.014925854
14	0x3d1fe26c	0.039034292
15	0x3e49a750	0.19692731
16	0x3ea51329	0.3224118
17	0xbe2a5cb4	-0.16636926
18	0xbf0392e9	-0.5139604
19	0x3db29d7c	0.08721444
20	0xbe273a5c	-0.16330856
21	0x3fae2981	1.3606416
22	0x3dba52bc	0.090978116
23	0x3d988254	0.07446733
24	0x3be90330	0.0071109757
25	0x3d81922a	0.06326707
26	0x3e8c50ee	0.27405494
27	0x3d17e277	0.037081208
28	0xbd045483	-0.03230716
29	0xbe583179	-0.21112622
30	0xbe0557a9	-0.13021721
31	0xbed76bbb	-0.4207438
32	0xbf29130f	-0.66044706
33	0xbe874a6d	-0.2642397
34	0xbe999478	-0.29996085
35	0xbe4b73e5	-0.19868429
36	0x3dea43ae	0.1143869
37	0x3ddb46ca	0.10706861
38	0xbe944267	-0.2895691
39	0x3e4d6ddd	0.20061441
40	0x3ed2a4b6	0.4114129
41	0x3e052058	0.1300062
42	0x3d87a258	0.066227615
43	0xbb5e7574	-0.003394452
44	0xbce8df4e	-0.028426792
45	0xbf5fd313	-0.8743145
46	0x3e9e3e42	0.30906874
47	0x3d067538	0.032826632
48	0x3cf2da78	0.02964519
49	0xbe1f0a59	-0.15531291
50	0xbecd634a	-0.40114814
51	0x3f29133c	0.66044974
52	0x3e069797	0.13143764
53	0xbe8278cd	-0.2548279
54	0xbdfe7199	-0.12424011
55	0xbe2e3870	-0.17013717
56	0xbf2bf1ca	-0.67165816
57	0xbe902f4b	-0.28161082
58	0xbed4982e	-0.41522354
59	0xbe9c8232	-0.3056808
60	0xbef1c33d	-0.47219267
61	0xbea320f6	-0.31861085
62	0xbed4d144	-0.41565907
63	0xbec5f799	-0.38665465
64	0x3ea19f19	0.31566694
65	0x3e68e9db	0.22745459
66	0x3efde0f8	0.495857
67	0x3f1ebdb5	0.6200822
68	0x3f0a8b09	0.541184
69	0x3be66c0d	0.0070319236
70	0xbeaa393a	-0.33246785
71	0xbec630e7	-0.38709185
72	0xbecb86a6	-0.39751166
73	0xbddb9bac	-0.107230514
74	0xbe96619a	-0.2937134
75	0x3ec825fe	0.39091486
76	0x3e89b658	0.2689693
77	0x3ec37f98	0.38183284
78	0xbd572fb7	-0.05253574
79	0xbf0c6554	-0.54842114
80	0x3de37c24	0.11107662
81	0xbe056d40	-0.13029957
82	0xbe236a3d	-0.15958495
83	0xbe979681	-0.29607013
84	0xbe46fe17	-0.19432865
85	0xbe721f1e	-0.23644683
86	0xbdb4208e	-0.08795272
87	0xbf0a75da	-0.5408608
88	0x3f369291	0.7131739
89	0x3e0f22b2	0.13978079
90	0xbe473270	-0.19452834
91	0x3d616179	0.055024598
92	0x3d0ccddb	0.034376007
93	0x3c3d2f41	0.011546911
94	0x3d00521e	0.031328313
95	0xbb08af42	-0.0020856415
96	0xbf8397d0	-1.0280704
97	0x3f2d9003	0.6779787

fc1.bias f4 [14]
0	0x3f7f1e71	0.99655825
1	0x3f5354e3	0.825514
2	0x3f3b40e4	0.7314589
3	0x3e8c755d	0.2743329
4	0x3f16d9a7	0.5892586
5	0x3f1d6f3d	0.6149786
6	0x3f0510cc	0.51978755
7	0x3f639f9f	0.8891544
8	0x3f2e7588	0.6814809
9	0x3f987076	1.190932
10	0x3f843d05	1.0331122
11	0x3f751ef3	0.9575035
12	0x3f568fa7	0.83812946
13	0x3eb16ee8	0.34654927

fc21.weight f4 [7, 14]
0	0x3f305507	0.6887974
1	0x3e8a72e2	0.27040774
2	0xbdcd0220	-0.10010171
3	0xbefe5db0	-0.49680853
4	0x3da6ba7b	0.08141037
5	0xbf185cfb	-0.59516877
6	0xbb80190b	-0.0039092354
7	0x3dd65f60	0.1046741
8	0xbd0bb29e	-0.03410589
9	0xbeeedc5e	-0.46652502
10	0xbf300b3b	-0.68767136
11	0x3e9f06a0	0.31059742
12	0x3e433a85	0.19065292
13	0x3f5605ce	0.8360261
14	0xbe6eb2a6	-0.23310336
15	0x3e1f3606	0.15547952
16	0xbecf8d49	-0.4053748
17	0xbe994616	-0.29936284
18	0xbd9d1417	-0.076698475
19	0xbdb6a5c3	-0.08918335
20	0x3e243721	0.16036655
21	0xbf614b61	-0.88005644
22	0x3e7f8da4	0.24956375
23	0xbeb28376	-0.34865922
24	0x3e9e657b	0.30936798
25	0x3f2db2f3	0.6785118
26	0x3de9faf4	0.11424819
27	0x3d67a2d8	0.056551784
28	0xbe507667	-0.20357667
29	0x3f30df01	0.69090277
30	0x3ee09e01	0.43870547
31	0x3e8737af	0.2640967
32	0xbe5eb942	-0.21750358
33	0x3e84ab54	0.25911963
34	0x3deaea18	0.11470431
35	0xbefb1eed	-0.49047032
36	0x3ed62801	0.41827396
37	0x3ecb20f2	0.39673573
38	0xbf248aa8	-0.6427407
39	0xbe25596b	-0.16147391
40	0xbe4551b6	-0.19269451
41	0x3e9adc6f	0.30246302
42	0x3ea1d60a	0.3160861
43	0x397c1e27	0.00024043825
44	0xbe631e28	-0.22179472
45	0xbfaf6d77	-1.3705281
46	0xbd63d220	-0.055620313
47	0x3b799db6	0.0038088388
48	0xbe18ca96	-0.1492103
49	0xbd5dfb76	-0.05419489
50	0x3f056f7a	0.52123225
51	0xbce47242	-0.027886514
52	0x3dec382d	0.11534152
53	0xbf0c99bd	-0.54922086
54	0xbd44a473	-0.048008393
55	0x3cf31af3	0.029675936
56	0x3ef41734	0.47673953
57	0xbe9582ad	-0.2920126
58	0xbeb25c79	-0.34836176
59	0x3f14def3	0.58152694
60	0xbe942fbb	-0.28942665
61	0x3eeed0ff	0.46643826
62	0xbe9a88af	-0.30182406
63	0xbefd9eea	-0.49535304
64	0xbdd9757b	-0.10618111
65	0x3f14297a	0.5787579
66	0xbde5400c	-0.111938566
67	0xbeddbbb3	-0.43307266
68	0x3f6a3710	0.9149027
69	0xbe9f5f58	-0.3112743
70	0x3e0b6821	0.13613941
71	0xbc9dc074	-0.019256808
72	0xbea6561e	-0.32487577
73	0x3e8a09a2	0.26960474
74	0xbf1151ab	-0.5676524
75	0xbd88cdae	-0.06679855
76	0xbf8cf34d	-1.101175
77	0x3e9c2bb7	0.30502102
78	0x3eae749f	0.3407335
79	0x3f0ce313	0.5503399
80	0xbd70fcf8	-0.058835
81	0x3f013690	0.5047388
82	0xbe1a5783	-0.15072446
83	0x3e2accb3	0.16679649
84	0xbef693b7	-0.48159572
85	0xbedfd114	-0.437142
86	0x3db1bf26	0.08679037
87	0x3e78cefe	0.24297711
88	0x3cce5508	0.02518703
89	0x3e6186af	0.22024034
90	0xbdb85ca2	-0.09002043
91	0x3c965537	0.01835118
92	0x3f3bff5f	0.7343654
93	0x3e951808	0.29119897
94	0xbf1c13f7	-0.60967964
95	0x3dca568a	0.09879787
96	0x3e0252cb	0.12726896
97	0x3f0c205b	0.5473687

fc21.bias f4 [7]
0	0xbe9968ae	-0.29962677
1	0xbce06214	-0.027390517
2	0xbe8afea7	-0.2714741
3	0xbd170b8a	-0.03687624
4	0x3e8e20ce	0.27759403
5	0xbe2d566a	-0.16927496
6	0xbed11be6	-0.40841597

fc22.weight f4 [7, 14]
0	0xbe7cc57e	-0.24684712
1	0xbe1a1a9a	-0.1504921
2	0xbe8d42e6	-0.27590102
3	0xbedc775a	-0.43059808
4	0xbebf411d	-0.37354365
5	0xbf1a74bc	-0.6033437
6	0x3db58b30	0.088644385
7	0xbeccc7cb	-0.3999618
8	0x3e015dcb	0.12633435
9	0xbf2468bc	-0.6422231
10	0xbf24a4ed	-0.64314157
11	0xbf199613	-0.5999462
12	0xbe29e2e6	-0.16590461
13	0xbf468d3d	-0.7755926
14	0xbedc8f05	-0.43077865
15	0xbe3e208c	-0.18567103
16	0xbf58b220	-0.846468
17	0xbe8d2034	-0.27563632
18	0xbe1e235c	-0.15443176
19	0xbe9a887b	-0.3018225
20	0xbe5776cb	-0.2104141
21	0xbfc737e2	-1.5563929
22	0x3f1a4fd8	0.6027808
23	0xbec49725	-0.38396564
24	0x3e470f1c	0.19439358
25	0x3eb04e26	0.34434623
26	0xbda9c1d8	-0.08288926
27	0xbe1b2212	-0.15149716
28	0x3e93b7c4	0.2885114
29	0xbf8237ce	-1.017328
30	0xbecdfded	-0.40232792
31	0xbddaab94	-0.10677257
32	0xbe8b3757	-0.27190658
33	0xbe9c781b	-0.30560383
34	0xbe61c8b7	-0.22049223
35	0x3e8b5d5f	0.27219674
36	0x3ef41214	0.47670043
37	0xbf431497	-0.7620329
38	0xbe8a86f3	-0.27056083
39	0xbf375209	-0.7160955
40	0xbd2bce35	-0.0419447
41	0xbe813287	-0.25233862
42	0xbe78ce91	-0.24297549
43	0x3dd8403e	0.10559128
44	0xbe7d9464	-0.24763638
45	0xbfabe435	-1.3429018
46	0xbec48df9	-0.38389567
47	0x3eae382f	0.3402724
48	0xbee32435	-0.4436356
49	0xbeba6de4	-0.36411965
50	0x3f4aef90	0.79271793
51	0x3d692edb	0.05692945
52	0xbd4f8d22	-0.050671704
53	0xbf8bcbd5	-1.092158
54	0x3dccb6f7	0.09995835
55	0xbe72293f	-0.23648547
56	0xbf91c151	-1.138712
57	0xbcd4087d	-0.025882954
58	0x3dde363c	0.10850188
59	0xbe849b0a	-0.25899535
60	0x3ee22c34	0.4417435
61	0xbe287c23	-0.16453604
62	0xbeec84ac	-0.4619497
63	0x3dc5d768	0.09660226
64	0x3e941195	0.28919664
65	0xbf2a6c95	-0.66571933
66	0xbe03fed1	-0.12890173
67	0xbeb0ddc1	-0.34544185
68	0xbefa1fe3	-0.48852453
69	0xbe9ad209	-0.3023837
70	0xbe214930	-0.15750575
71	0xbeacd5df	-0.3375692
72	0x3c9fd3fd	0.019510264
73	0x3c983f1e	0.018584784
74	0xbd879855	-0.06620852
75	0x3e44eebe	0.19231698
76	0x3f114416	0.56744516
77	0xbf243aea	-0.64152396
78	0x3ea5ee05	0.32408157
79	0xbf22edee	-0.636443
80	0xbf195712	-0.59898484
81	0xbf5147a6	-0.8174995
82	0x3ebbc177	0.3667104
83	0xbcad4047	-0.021148814
84	0x3e238c35	0.15971453
85	0xbd8777e5	-0.06614665
86	0x3c379695	0.011205335
87	0x3ee824ad	0.4534048
88	0xbe66bc12	-0.2253268
89	0xbe1bed2b	-0.15227191
90	0xbe77a4f9	-0.24184026
91	0xbdabd6cc	-0.08390579
92	0x3f330356	0.69926965
93	0xbdd1df11	-0.10247625
94	0xbeeb6210	-0.45973253
95	0xbe973881	-0.29535297
96	0x3daa2643	0.08308079
97	0xbe21d698	-0.15804517

fc22.bias f4 [7]
0	0xbecffa17	-0.4062049
1	0xbe8422c2	-0.25807768
2	0xbe818d9b	-0.2530335
3	0xbe208e52	-0.15679291
4	0xbd4dd163	-0.050248515
5	0xbf0342cd	-0.51273805
6	0x3e384f40	0.17998981

fc3.weight f4 [14, 7]
0	0x3e050d4f	0.12993358
1	0x3c9026b3	0.017596578
2	0xbca49bc3	-0.020093804
3	0x3be3db44	0.0069536287
4	0x3f7dc32a	0.9912592
5	0xbbdffd1b	-0.0068355924
6	0x3b9763d2	0.004620054
7	0x3d8b360f	0.0679742
8	0x3c0702bd	0.008240399
9	0xbc29f989	-0.010374435
10	0xbe0efd97	-0.13963924
11	0x3bb0d8f8	0.0053969584
12	0x3c23a388	0.009987719
13	0xbb8cc272	-0.0042956406
14	0x3dcd6df8	0.100307405
15	0xbfa43025	-1.2827193
16	0x3d9dcc80	0.07705021
17	0x3c1f3f8b	0.00971974
18	0xbb9a932a	-0.0047172504
19	0x3d3022c6	0.043001913
20	0xba325a50	-0.0006803619
21	0x3e65a704	0.22426993
22	0xbc64e2ad	-0.013970059
23	0xbd131588	-0.035909206
24	0x3e4c2225	0.199349
25	0x3ce5fc14	0.028074302
26	0x3d4ca152	0.049958535
27	0xbb9675e8	-0.0045916922
28	0xbd1a144f	-0.037617024
29	0xbd6dd181	-0.058061127
30	0xbd50327b	-0.050829392
31	0xbb1fddc5	-0.002439366
32	0x3d8e9507	0.069620185
33	0x3fb830ee	1.4389932
34	0xbbcb578b	-0.0062055043
35	0xbe61ab6d	-0.2203805
36	0x3cb11948	0.0216185
37	0x3f96a8d7	1.1770276
38	0xbd8610a0	-0.0654614
39	0x3c3e7f7b	0.011627073
40	0xbcc4537f	-0.023965595
41	0x3b6f47be	0.0036511268
42	0xbeaf71a8	-0.342664
43	0x3ca798b6	0.02045856
44	0x3de10a88	0.10988337
45	0x3e96ea1a	0.2947548
46	0xbd066329	-0.03280941
47	0x3d9c64fc	0.07636449
48	0xb9049510	-0.00012644031
49	0xbe1b8410	-0.15187097
50	0xbcf09b45	-0.029370913
51	0x3e0020cd	0.12512513
52	0x3ec94ec2	0.393179
53	0xbba2f14e	-0.0049726134
54	0x3cf7f8cd	0.030270005
55	0xbb9c808a	-0.0047760652
56	0xbfb892b1	-1.4419767
57	0xbbf72afb	-0.0075429655
58	0xbe349651	-0.17635466
59	0x3bb15220	0.0054114014
60	0x3db72c9d	0.08944056
61	0xbdc3d72b	-0.095625244
62	0xbc7de9de	-0.015497653
63	0x3f8e2327	1.1104478
64	0x3cb02062	0.021499816
65	0x3dc02a2d	0.093830444
66	0x3d7e949a	0.062153436
67	0xbdfa2630	-0.12214315
68	0x3d1bb49b	0.038014036
69	0xba5537ed	-0.0008133639
70	0x3e1ac03e	0.15112397
71	0xbf62aa79	-0.8854137
72	0xbead6d1f	-0.33872315
73	0x3d363ec0	0.044493437
74	0xbb36f19c	-0.0027915007
75	0xbe2be617	-0.16786991
76	0x3cb728f4	0.022358395
77	0xbf122642	-0.57089627
78	0xbb05009b	-0.002029455
79	0xbd904698	-0.07044715
80	0xbdbbdd59	-0.09173078
81	0xbd1ab501	-0.037770275
82	0x3c8bced4	0.017066397
83	0x3a0748cb	0.00051606883
84	0x3e886805	0.2664186
85	0x3d5b56eb	0.05354969
86	0xbc41e57c	-0.0118344985
87	0xbf831833	-1.024176
88	0xbd924a54	-0.07143083
89	0xbcd4eed7	-0.025992794
90	0x3a26f690	0.0006369138
91	0x3e034609	0.12819685
92	0x3b8dbfe2	0.0043258527
93	0x3c3b8789	0.011445888
94	0x3c653ce8	0.013991572
95	0x3dffa891	0.12483323
96	0xbed3739f	-0.4129915
97	0x3a77e710	0.0009456733

fc3.bias f4 [14]
0	0xbdceb402	-0.100929275
1	0x3f84292d	1.0325066
2	0xbe85ac8f	-0.26108214
3	0x3f6e4476	0.93073213
4	0xbd9ad29c	-0.07559702
5	0x3cd66ac1	0.026173951
6	0x3f7a2c0f	0.9772348
7	0x3ea98879	0.33111933
8	0xbf3d770d	-0.7400978
9	0x3f02cd5b	0.510946
10	0xbf184372	-0.59477913
11	0x3f804b79	1.0023032
12	0xbf24a74f	-0.6431779
13	0x3ef31baa	0.47482044

fc4.weight f4 [7, 14]
0	0xbcc40760	-0.023929298
1	0x3e04aa3d	0.12955566
2	0x3cd0cda3	0.02548868
3	0xbe60a237	-0.2193688
4	0xbca7765c	-0.02044218
5	0xbf2b97f5	-0.67028743
6	0xbf05af5f	-0.5222072
7	0x3f01e767	0.50743717
8	0x3dde39f7	0.108509
9	0xbe154f67	-0.14581071
10	0x3ce1fd41	0.027586581
11	0xbe4b9927	-0.19882642
12	0x3f9c2cc7	1.2201165
13	0xbddfbf36	-0.109251425
14	0xbcbf0aa1	-0.023320498
15	0xbe7ac4e9	-0.24489178
16	0x3e212b86	0.15739259
17	0xbe5e9e6c	-0.2174012
18	0x3d69a506	0.057042144
19	0x3f892b51	1.0716344
20	0x3e46a164	0.19397503
21	0xbd6d5e75	-0.05795141
22	0x3d43b6b9	0.04778168
23	0xbd91a8e3	-0.07112291
24	0xbfaece89	-1.365678
25	0xbe9f543a	-0.31118947
26	0x3e13f76d	0.14449854
27	0xbcc88fb7	-0.024482591
28	0x3d68e4d8	0.056858867
29	0xbf23b79b	-0.63952035
30	0x3f9ba378	1.2159262
31	0x3e99e09a	0.3005417
32	0xbef31d09	-0.4748309
33	0x3db78fe6	0.08962993
34	0xbebaa3fc	-0.36453235
35	0xbd889b9e	-0.066703066
36	0x3cccffc6	0.025024306
37	0xbd1c6bae	-0.03818863
38	0x3dc97c22	0.098381296
39	0x3df4b435	0.11948434
40	0x3cdd3d2b	0.027006706
41	0xbd389ceb	-0.045071524
42	0xbec1a22c	-0.3781904
43	0xbd17904c	-0.037002847
44	0x3cb2ffa4	0.021850415
45	0xbe5df820	-0.21676683
46	0x3f595129	0.84889466
47	0xbd2980f3	-0.04138274
48	0x3da97a3b	0.08275267
49	0x3b16a0de	0.0022984068
50	0x3d40f36f	0.047107156
51	0xbdb628a3	-0.088944696
52	0x3cb48f3e	0.02204096
53	0xbe1812e1	-0.14850952
54	0xbb191541	-0.0023358616
55	0xbea3edf8	-0.32017493
56	0x3f5a7775	0.85338527
57	0xbe9fa1e2	-0.31178194
58	0xbc2794b3	-0.010228324
59	0x3bd2df34	0.0064352993
60	0x3d864936	0.06556933
61	0x3d05c56e	0.032658987
62	0xbe242f2c	-0.1603362
63	0xbd9a9cb5	-0.07549421
64	0xbe33411e	-0.17505309
65	0x3d65324f	0.05595618
66	0xbc305897	-0.010763309
67	0xbebaf207	-0.36512777
68	0x3c1fdd4f	0.009757354
69	0x3d4b13b7	0.04957935
70	0x3dd41a69	0.103566
71	0xbe050a44	-0.12992197
72	0x3bae3782	0.0053166756
73	0xbed8f9d4	-0.42378104
74	0xbd236a5d	-0.039896358
75	0xbdb0f2d1	-0.086400636
76	0x3db9de24	0.09075573
77	0x3e4c65c0	0.1996069
78	0x3e5f1cea	0.21788374
79	0xbe5aa38b	-0.21351449
80	0x3c417a94	0.01180901
81	0x3ec1c3c8	0.37844682
82	0xbcfc0d16	-0.030767959
83	0xbcfbf2af	-0.030755369
84	0xbd0dc73f	-0.034613844
85	0xbeba710b	-0.3641437
86	0xbc84f6d4	-0.016230978
87	0x3d955480	0.07291508
88	0x3d09cb57	0.033641186
89	0x3d977593	0.073954724
90	0xbe96e74a	-0.29473335
91	0xbde461d0	-0.11151469
92	0x3f9127ef	1.1340312
93	0x3f0a8b82	0.5411912
94	0xbbcb54c7	-0.0062051746
95	0xbefe98c3	-0.49725923
96	0xbcd3d21e	-0.025857028
97	0xbdc8bda1	-0.09801794

fc4.bias f4 [7]
0	0xbaf124ed	-0.0018397846
1	0xbe13094c	-0.14359015
2	0xbe137388	-0.1439954
3	0xbe3e6b1d	-0.18595548
4	0x3e2a2212	0.1661456
5	0xbe4f2039	-0.20227136
6	0xbea4b042	-0.32165724
