coil/vae/c3_v10_vae.pt (torch, 7175 bytes, 10 tensors)

fc1.weight f4 [20, 10]
000000 eb 40 a5 bf 8d 13 83 3f a6 1c d8 3e f6 aa df 3b
       -1.2910436 1.0240341 0.42209357 0.0068258
000010 78 f2 2c bc 0c 70 ac 3c fe 0a ae 3b a5 e5 99 3c
       -0.010555856 0.021049522 0.005311369 0.01878626
000020 54 a5 b6 3c b6 e1 15 3a 32 95 2e be 0d 34 f2 3e
       0.022295631 0.00057175325 -0.17049101 0.47305337
000030 c5 88 70 3f dc 3b f6 3d 52 d2 4b 3c da e1 01 bd
       0.93958694 0.12023136 0.012440281 -0.03170953
000040 de aa 0a bd 86 39 c9 bd 80 44 c8 3c 05 75 71 3d
       -0.033854358 -0.09825425 0.024446726 0.05894949
000050 f3 52 86 be c0 50 c2 3d 3c 9b 0d bf 1c 31 c0 3e
       -0.2623516 0.09488058 -0.55314994 0.37537467
000060 3c 3e ca 3c b1 3f bc bd cc 60 88 bd d0 82 16 be
       0.024687879 -0.09191836 -0.066590875 -0.14698339
000070 74 59 9c 3d 21 8d e3 3d 10 c9 d6 bd cf 35 ec bc
       0.07634249 0.111109026 -0.104875684 -0.028834252
000080 3a 9d 89 be e5 bd ea be 68 0f 97 be 08 f3 d1 bd
       -0.26877767 -0.45848003 -0.29503942 -0.10251433
000090 79 88 f9 3e a5 f2 b2 be fd 4e f9 be ba f4 77 3e
       0.48736933 -0.34950748 -0.48693076 0.2421445
0000a0 1d 96 87 bd c4 a2 67 be aa 86 88 3e d8 95 16 3f
       -0.06620429 -0.22620684 0.2666524 0.58822393
0000b0 45 09 89 bd 89 7e 06 be 55 17 46 be 3c 04 72 be
       -0.06691221 -0.13134207 -0.19344838 -0.23634428
0000c0 12 a3 4a be fe 2c 68 bc 4c 15 90 be d1 4b db be
       -0.19788769 -0.014170883 -0.28141248 -0.4283128
0000d0 67 1d 5b be b5 05 d0 be 9a 09 e1 be 7e 3e a4 be
       -0.21397935 -0.40629354 -0.43952638 -0.32078928
0000e0 da 8d db be c2 ec e8 be 3c 4a 16 bf 5e 6a ed bc
       -0.42881662 -0.45493132 -0.5870702 -0.028981384
0000f0 52 c1 0f be 7a ed af be 7e df 9b 3d 18 b7 0b 3e
       -0.1403859 -0.34360868 0.07610987 0.13644063
000100 1b 5c 4e be e2 ab 29 be 45 02 5d 3f 1d ab e6 3e
       -0.20152323 -0.16569474 0.8633159 0.45052424
000110 5f d4 b6 bd 33 bf 12 be 83 53 80 3d 82 c5 79 be
       -0.08927225 -0.14330749 0.062659286 -0.2439175
000120 ef 21 9e 3e 4a 2c c7 bd fe 3a c1 3e 69 ae 15 3d
       0.30885264 -0.09725244 0.3774032 0.036543284
000130 93 7c 64 be f8 66 38 3e eb d1 f9 be 67 7a 1d bd
       -0.22313146 0.1800803 -0.48792967 -0.03844681
000140 cd 8f 17 be ec df 54 bd f9 f7 08 be d8 c1 45 be
       -0.1480095 -0.05197136 -0.13375844 -0.19312227
000150 85 0a 75 3e c8 86 4b 3f 17 55 00 3d 02 eb 70 bd
       0.23929794 0.79502535 0.031331148 -0.05881787
000160 21 f0 c3 bc aa a2 22 be 75 b7 b2 be 9e 40 e6 3d
       -0.023918213 -0.15882364 -0.34905592 0.112427935
000170 e3 a2 3e be 95 e0 d8 3d 93 77 61 3d a6 03 2d 3f
       -0.18616824 0.105897106 0.055045675 0.6758369
000180 c9 13 34 bc 8b 88 91 be ad fc 9d be 0d 3f 50 bb
       -0.010991045 -0.28424487 -0.3085684 -0.0031775862
000190 56 49 cd bd 8c 98 e9 3d cd 78 2d be aa 71 7d be
       -0.10023753 0.11406049 -0.16940613 -0.2475039
0001a0 5b ab 8c 3e 1d f6 13 be de 84 95 3d a5 06 2b 3e
       0.27474484 -0.14449354 0.07300733 0.16701753
0001b0 1e 08 5b 3e b5 3e ef be ba 46 49 3e d3 66 e6 3d
       0.21389815 -0.4672753 0.19655886 0.11250081
0001c0 36 f8 8e be 0c 0a 61 be 01 52 12 bf 97 ae 83 bd
       -0.27923745 -0.21976489 -0.5715638 -0.06429785
0001d0 b2 b3 e7 be 8d fb cd 39 a6 6d a8 be ac 0f e6 be
       -0.45254284 0.00039288067 -0.32896155 -0.44933832
0001e0 c2 ef bb be e0 cd df be a8 fe 91 be 24 d6 d4 be
       -0.36706358 -0.43711758 -0.285146 -0.41569626
0001f0 e8 97 65 3e 80 73 b8 be 52 f9 e3 be db 1e 39 be
       0.22421229 -0.3602562 -0.44526154 -0.18078177
000200 41 b4 a9 be 72 a0 5e 3c 17 b4 d7 3d cc 0a 2f bf
       -0.33145335 0.013588058 0.10532396 -0.6837585
000210 e8 65 01 be c8 98 05 be 2a 8c 38 be c4 56 67 3e
       -0.1263653 -0.13046563 -0.18022218 0.22591692
000220 73 02 86 bd fe 53 0a bf 2a c7 5d bc 84 4a be bd
       -0.06543436 -0.5403441 -0.013536254 -0.092915565
000230 01 90 b7 bc fd 83 cb be 5b e1 1f bd b5 52 c9 bd
       -0.022407534 -0.39749137 -0.039033275 -0.09830228
000240 2f a9 e7 be 79 d5 be 3d 58 02 17 be 19 3a d9 3e
       -0.45246264 0.093180604 -0.14746988 0.42427137
000250 fa 11 cc 3d 13 95 f1 be 5f 93 d4 3e ef bf 48 be
       0.09964366 -0.47184047 0.41518685 -0.19604467
000260 84 b1 99 be a5 a2 0c 3f 7c 63 41 3e 69 d6 bf bd
       -0.30018246 0.54935676 0.18885607 -0.09367067
000270 ba d7 74 bd 13 15 5a be 84 93 b1 be d5 16 31 be
       -0.059776045 -0.21297102 -0.34682858 -0.17293866
000280 59 e9 a4 bd 34 28 1d be e3 60 7c 3c 1b cb db bc
       -0.0805232 -0.15347368 0.015403959 -0.026830247
000290 b2 97 03 be cd d3 27 3d c9 11 9f be 63 0a 19 3e
       -0.12850836 0.040973473 -0.31068256 0.14945368
0002a0 be 04 f9 3e 2b 57 37 3f ab 9c f7 3e 1b da 91 3e
       0.4863643 0.7161738 0.48361716 0.28486714
0002b0 4a 61 63 3d dd 1d e6 bd a3 7a da bb 21 79 bf bb
       0.055512704 -0.11236165 -0.0066674515 -0.005843297
0002c0 ef d2 82 bd f2 31 71 be d2 b5 6c 3e 14 de 9b 3e
       -0.06387889 -0.23554209 0.23116234 0.3044287
0002d0 f3 be 04 be 0c 0f fa bd 6d 7d 09 3e 1f c4 19 be
       -0.12963466 -0.12209901 0.13426752 -0.1501622
0002e0 e1 dc 82 be 28 ac d5 bd dd 95 4f be 16 1a 5b bf
       -0.25559142 -0.10433227 -0.20272012 -0.8558668
0002f0 e0 22 24 3d 07 ea ef be 00 0e 10 bd 26 61 f4 be
       0.040072322 -0.46858236 -0.0351696 -0.47730368
000300 86 3d f8 bc ed b9 41 be 7a e2 05 3e 8e b2 55 be
       -0.030302774 -0.18918581 0.13074675 -0.20868894
000310 12 a4 a2 bb 48 8d 1e bf 66 dd 9a 3d 6e e5 25 be
       -0.0049634064 -0.6193433 0.0756176 -0.16200802

fc1.bias f4 [20]
000000 5b 21 cb bd b8 f8 22 3f 3d 16 39 3f dc 4d 8c 3f
       -0.099184714 0.63660765 0.7229956 1.0961261
000010 8d 5d 43 3f d6 42 bc 3e 77 74 96 3f 41 b7 91 3f
       0.7631462 0.36769742 1.1754292 1.138405
000020 0a f3 42 3f 77 fb 78 3f db 44 6f 3f 66 c3 75 3f
       0.761521 0.97258705 0.9346444 0.9600128
000030 a5 e7 45 3f 2d 25 30 3f 93 94 66 3f 56 72 84 3f
       0.77306587 0.68806726 0.90070456 1.0347393
000040 dd 32 8d 3f ae 77 82 3f 2a 17 44 3f 93 b5 36 3f
       1.1031147 1.0192773 0.76597846 0.7137081

fc21.weight f4 [10, 20]
000000 27 3a 82 bf 36 9a a1 be 78 b2 b7 be a0 6a a9 3e
       -1.0173997 -0.31562966 -0.35878348 0.3308916
000010 3b cd 04 3e da 62 b0 be 80 6e 74 be 20 7f 15 3e
       0.12968914 -0.34450418 -0.23870277 0.14599276
000020 02 e2 61 3d 4e 7e 84 be a3 7d bd 3d b8 43 0d 3e
       0.05514718 -0.25877613 0.09252479 0.13795364
000030 33 67 e1 be 64 1e 46 be f5 82 4e bd f8 ea af 3e
       -0.44024047 -0.1934753 -0.05041786 0.34358954
000040 02 49 06 3e 64 b9 2d 3f ef 3e d0 3e 06 13 56 3e
       0.13113788 0.6786101 0.40673015 0.20905694
000050 e0 af 89 bb 88 6a 00 bb f4 a7 88 bb 98 15 06 be
       -0.004201874 -0.0019594748 -0.004170412 -0.13094175
000060 62 2a a7 bd 4b 62 ca be 71 26 83 be 6a 8f 10 3f
       -0.08162381 -0.39528117 -0.25615266 0.5646883
000070 1b b6 f8 3e c8 05 82 3d a7 0d eb 3e da 9b e3 be
       0.48576435 0.06348759 0.45908853 -0.44454843
000080 b2 1b ae 3e a3 80 b8 bd 74 5b ce be 4e de 78 3e
       0.34005505 -0.090089105 -0.40304148 0.24303553
000090 c7 e0 1c be 64 ca 97 3d f5 67 b2 be 7a 10 00 3f
       -0.15320121 0.0741165 -0.34844938 0.5002514
0000a0 92 21 79 be 47 3d 18 bf fe eb cd 3e ac 33 a0 3e
       -0.24329212 -0.594685 0.4021911 0.31289423
0000b0 d3 f2 f5 be df 74 30 3e d6 4a b6 be 69 6a d2 be
       -0.48036823 0.17232083 -0.3560397 -0.4109681
0000c0 c3 d9 9f 3c 7a 8b 6a 3d 2c 24 02 3f 23 a0 f6 3e
       0.019513017 0.05726192 0.50836444 0.4816905
0000d0 f5 49 d4 bd 3a 34 fe bc 70 16 59 be 61 cf 7e 3e
       -0.10365669 -0.031030763 -0.21199965 0.24883796
0000e0 5b 84 06 3d e9 fd 92 be a0 49 18 bf ba a1 d4 3d
       0.032841068 -0.28709343 -0.5948734 0.103824094
0000f0 9c 6e 2f 3d 0c 83 3d 3e 2e 82 b2 3e b3 d8 08 be
       0.042830095 0.18507022 0.34864944 -0.13363914
000100 bc ad f5 3d 94 53 ca 3e a9 2c 46 bb 0b ea 34 be
       0.11996028 0.3951689 -0.0030239022 -0.17667405
000110 87 db 17 bf 6c 97 38 bf 2e 0c 7d 3e bd af 7c bd
       -0.5931935 -0.7210605 0.24711677 -0.061691035
000120 46 4c ef 3e 6e a9 eb be 74 4a 68 be 77 4c f8 3c
       0.4673788 -0.46027702 -0.22684652 0.030309899
000130 7b df ae bd 08 36 6f 3d cd 53 8d bc 9f e8 83 3e
       -0.08538719 0.058401138 -0.017251873 0.25763413
000140 0f 27 ad be 67 9e cf bd a8 cb 6d be 73 df ee 3d
       -0.33818862 -0.10137635 -0.2322222 0.11663713
000150 07 fe fb 3d b4 c2 bd 3d 97 ae 60 3e bc c5 38 3f
       0.12304311 0.09265652 0.219416 0.7217672
000160 50 34 dc bd 6a 01 46 3c 0e 09 c4 be 74 8c ea 3e
       -0.10752165 0.012085298 -0.38288158 0.45810282
000170 00 8b c0 3d 17 6e 8d be fa 48 ec bd 32 f9 2e 3e
       0.09401512 -0.27623054 -0.11537357 0.17087248
000180 da 1b b4 3e 67 f0 08 3d 67 ed 4a bf 46 98 ed be
       0.351775 0.03343239 -0.792685 -0.46405238
000190 e4 b2 b4 3c 8f 82 04 3d d1 9a e7 3e 5f 62 09 bf
       0.022057958 0.032351073 0.45235303 -0.5366573
0001a0 a9 57 07 3f e2 79 c3 be 34 98 9b 3e 9d ee 2b be
       0.52868134 -0.38178927 0.3038956 -0.16790242
0001b0 43 c2 01 be 5b f2 a0 3e 8e c5 4b be 3d ca 4f 3e
       -0.12671761 0.31434903 -0.1989958 0.20291992
0001c0 33 cc 83 be b5 5a 23 be 35 43 ae be a2 66 1c 3f
       -0.2574173 -0.1595257 -0.3403565 0.61094105
0001d0 35 c7 4d 3e cb 13 f1 be 6a 80 20 3e bf e7 85 3e
       0.20095523 -0.47085413 0.15673986 0.2615337
0001e0 38 32 2a 3e 6f 7c d2 3d 1d 6c a8 3e 91 de 0f 3f
       0.1662072 0.1027764 0.32894984 0.56198984
0001f0 e4 4a cb 3d 98 2d 06 3e be eb a3 bd 53 28 e8 be
       0.09926394 0.1310333 -0.08003949 -0.45343265
000200 ee ae 13 bc ff 59 85 3d 4c b7 00 bf 6e 4d 3a bf
       -0.009013874 0.06511306 -0.5027969 -0.727744
000210 eb 6f 16 3d 4b 6a 81 3e 49 2c dc be ce be 14 be
       0.036727827 0.25276408 -0.43002537 -0.14525911
000220 ac ee 5a 3f 8f 2c 15 3f 77 f1 78 be 9e 3d 2f 3e
       0.85520434 0.58271116 -0.24310862 0.17113349
000230 70 c7 bc 3f 8d 0a 84 bf 6e b1 a2 be ef 86 26 be
       1.4748363 -1.031572 -0.31775993 -0.1626241
000240 bc 24 03 3e 3b d2 df 3d 32 a1 cc 3d e9 92 6b 3e
       0.12806982 0.1092877 0.09991683 0.2300526
000250 e1 fb 70 3d db 01 f0 be 50 2c 08 bf 45 3f bd be
       0.05883396 -0.46876416 -0.53192616 -0.36962333
000260 f7 ab 94 3d 0a e1 3c 3f 76 df a3 3e 05 d6 8f 3e
       0.07259362 0.7378088 0.32006425 0.2809297
000270 f6 71 17 3e 9d 32 da be 21 68 22 be 8a 42 d4 3e
       0.14789566 -0.4261674 -0.15860035 0.41457015
000280 d4 be 0b be c1 2e 2f bd c3 9c 16 be b9 13 02 3f
       -0.13647014 -0.042769197 -0.14708237 0.50811344
000290 c1 12 a2 3e a4 84 0d 3f 5e 4e b8 be 69 2a 90 3e
       0.31654933 0.5528052 -0.3599729 0.28157356
0002a0 f5 57 ae 3c 1f 5d 8c 3e f6 17 27 bf 18 52 02 bd
       0.021282176 0.27414796 -0.65270936 -0.031816572
0002b0 d9 83 ef bc 41 7c e1 bd f8 87 35 bf 4c ce 80 3e
       -0.029237675 -0.11010028 -0.70910597 0.25157392
0002c0 d6 a5 69 bf dc 52 cc bd e7 48 0d 3f 81 be 28 be
       -0.9126867 -0.09976742 0.55189365 -0.16478921
0002d0 84 b0 4b 3c 56 7c 94 3b ba f2 be bd 37 3d cf 3e
       0.012432221 0.0045314236 -0.0932364 0.4047639
0002e0 9f 5b d8 be 12 9a 61 be 65 02 56 3f 2e b4 36 3d
       -0.422574 -0.2203143 0.83597404 0.044605426
0002f0 e0 8a 9c bd 5c a0 1e bb 0f 2a 1d 3e 1b c1 09 be
       -0.07643676 -0.0024204468 0.15348075 -0.1345257
000300 bb 63 b1 be f6 8e b7 bd 12 69 15 bd 93 cd 21 3e
       -0.346464 -0.089628145 -0.036477156 0.15801077
000310 42 97 98 be df ea 83 be c7 ff c9 bd d5 db 10 3e
       -0.298029 -0.2576513 -0.09863239 0.1414636

fc21.bias f4 [10]
000000 1b 41 32 bd 66 44 f4 3d 6a fd 2a 3e f2 50 88 3d
       -0.04351912 0.119271085 0.16698232 0.06656064
000010 40 cd 30 bc e4 02 24 3d 18 2d 98 3e 9a 42 f5 be
       -0.010791123 0.04004182 0.29721904 -0.47902375
000020 87 ef 4c be 20 26 75 3e
       -0.20013247 0.23940325

fc22.weight f4 [10, 20]
000000 68 1a c6 be f4 c2 9f 3e c5 f3 98 be 72 26 3d be
       -0.3869202 0.31203425 -0.2987348 -0.18471697
000010 42 48 a3 be 42 13 e6 3c 3e ff 84 be b0 23 b8 be
       -0.31891066 0.028085355 -0.25975984 -0.35964727
000020 2d 5d 17 be 4b bb d8 3c e8 6d d6 be cb 5c 49 be
       -0.14781637 0.026456496 -0.41880727 -0.19664304
000030 6b 9d a3 3d 2c 80 87 be da 35 a2 be b7 1e 9f be
       0.079890095 -0.26464975 -0.3168171 -0.3107812
000040 e7 bb a1 be 99 b4 1b bf b1 f8 9c 3e 1e 0d ad be
       -0.3158867 -0.60822445 0.30658486 -0.3379907
000050 d7 10 c1 3c 03 33 19 be 66 fb 73 be c4 a1 65 3d
       0.0235676 -0.14960866 -0.2382637 0.056062475
000060 42 b7 51 3d 95 48 ee 3e b1 01 cc 3d 6a 05 7f bf
       0.05120016 0.4653975 0.0996126 -0.99617636
000070 4e 6e 04 bf a2 7c 97 bd ed d5 83 bf 49 5e 1e 3f
       -0.5173081 -0.07396819 -1.029966 0.6186262
000080 fa 65 08 bf b0 df c3 3e de 80 de 3e 02 cd 15 bf
       -0.53280604 0.38256598 0.43457693 -0.5851594
000090 5f c9 70 bd c7 93 b6 be dd 35 57 3e a8 84 13 bf
       -0.058785792 -0.3565962 0.21016641 -0.5762429
0000a0 fd 44 f2 bd 89 d8 98 bf 3d c6 3b 3f 39 09 94 3c
       -0.11829565 -1.1941081 0.7334936 0.018070804
0000b0 1c 44 02 bf 5e 4e b4 3e b2 d7 c0 be 6e 7b 53 bf
       -0.50885177 0.3521604 -0.37664562 -0.82610214
0000c0 4a f5 8e 3d 03 b2 25 3c 80 84 73 3d f8 78 94 bc
       0.06980379 0.010113242 0.059452534 -0.018124089
0000d0 91 a1 f9 3d e4 05 d8 bd d7 44 5b be 55 50 1b 3e
       0.121890195 -0.105479985 -0.21412979 0.15167363
0000e0 9c d2 94 be 7d 51 8a be f7 01 81 be f7 e3 87 be
       -0.29066932 -0.27015296 -0.25196812 -0.2654111
0000f0 02 ef 27 3e d1 10 37 be f6 af d8 3e 6f 9d 2a 3e
       0.16399768 -0.17877509 0.42321748 0.16661619
000100 55 2e 15 be 32 e6 1c 3d c4 30 92 be bc 96 66 bc
       -0.14568456 0.03830547 -0.2855283 -0.014074024
000110 99 71 97 bf d3 ef 91 bf fe c7 2a be d1 2e 59 be
       -1.1831542 -1.1401314 -0.16677853 -0.21209265
000120 00 5c a6 3e b9 94 91 be b7 11 9a bd 62 7c eb bc
       0.32492065 -0.2843378 -0.0752291 -0.028745834
000130 fe ba ed be ba 9c f3 be 45 16 10 3e 1a 8c b3 3e
       -0.46431726 -0.4758051 0.14070995 0.35067827
000140 6a c2 85 bd fd db 92 be 2a 4e ee bd 5b 8c 87 be
       -0.06531222 -0.28683463 -0.11636002 -0.2647427
000150 96 21 81 be 8d 12 1e be 38 d5 4c be c6 4b 9d be
       -0.25220937 -0.15436764 -0.20003211 -0.30721873
000160 bb 7e 04 be f2 00 85 be f9 3f c3 be 27 20 24 be
       -0.12938969 -0.25977284 -0.38134745 -0.1602789
000170 2d 4c 16 bc 3a f9 dd 3d 87 3f 32 be d5 a8 98 be
       -0.009173435 0.10838552 -0.17407046 -0.2981631
000180 09 a1 f0 bd 24 1c f0 be 8a 29 29 3e fe 35 11 be
       -0.11749465 -0.4689647 0.16519752 -0.14180753
000190 d8 6f 6c 3d 1e dd 8a be 8f 93 5c bf 66 90 9d 3e
       0.05772385 -0.27121824 -0.86162657 0.3077423
0001a0 4e c5 85 bf 7e a3 4c 3e 7d 6b d8 be ee 1c 7b bd
       -1.0450838 0.19984242 -0.42269507 -0.061306886
0001b0 a1 60 31 3e 7b 78 cf be 22 e1 01 bb dc a8 b1 bd
       0.17322017 -0.40521607 -0.0019818028 -0.086747855
0001c0 21 30 ad 3e 15 64 df 3d 9f 9c 75 bd 55 d1 1b bf
       0.33825782 0.10907761 -0.05996382 -0.6086629
0001d0 2e f8 8f be 64 de 9b bd a2 30 b3 3b dd 23 28 3e
       -0.28119034 -0.07610777 0.005468444 0.16419931
0001e0 d6 e0 95 bc 17 5b 54 be 67 00 05 be f7 e0 8b be
       -0.018295687 -0.20737873 -0.12988435 -0.27320072
0001f0 6c ba ad be 8c 12 ac 3d 42 0f 72 be 5e 70 d6 bd
       -0.3393129 0.08401975 -0.23638633 -0.10470651
000200 22 c4 18 be 69 05 1a be 61 2d 76 be ad 91 65 bd
       -0.14918569 -0.15041126 -0.24040748 -0.05604713
000210 82 4d 83 be 4f 99 e2 3d 8f bb 45 be ea 5b e9 bd
       -0.2564507 0.110643975 -0.19309829 -0.11394484
000220 ce de 8e be dd 32 0d bf cd f0 03 3e bd f1 fd 3c
       -0.2790436 -0.55155736 0.12884827 0.030999059
000230 77 e7 9d 3e f8 59 28 3e 99 6c bb 3e 4c 82 38 be
       0.30840656 0.1644057 0.3660629 -0.18018454
000240 06 a4 68 3e 04 5b 54 3e 31 56 52 3e f1 55 c1 be
       0.2271882 0.20737845 0.20540692 -0.3776088
000250 10 dd 6f 3e 26 de 93 3d 56 34 ab be 98 02 c0 be
       0.23424172 0.07220106 -0.33438367 -0.3750198
000260 bd 91 19 3f 00 34 a6 3d bf a3 93 bd ea 59 22 bf
       0.59988004 0.08115387 -0.072089665 -0.6341845
000270 96 f8 c5 bc 0b c5 8f bf c9 5f cf 3d 03 f9 f5 3c
       -0.024166387 -1.1232008 0.101256914 0.030025965
000280 a9 79 fb 3d d5 e6 c2 bd 23 0e 06 bb 42 6f ae 3e
       0.12279064 -0.09516684 -0.0020455203 0.34069258
000290 87 4c 48 3e 4e 31 a7 3d 06 bf 0a bf 36 de 00 bf
       0.19560443 0.08163701 -0.5419773 -0.50339067
0002a0 4f 47 b0 bd af 4d b5 3d e9 25 32 bf 3a 5b e7 be
       -0.08607351 0.088527076 -0.69589096 -0.45186788
0002b0 38 20 3c 3d 15 81 06 3f 3a f3 18 bf 99 3f 2f bc
       0.045929164 0.52540714 -0.59746134 -0.010696315
0002c0 5e b7 49 bf 52 c7 80 3e 9c 6a 32 3f 1b 3f cb 3e
       -0.7879542 0.2515207 0.69693923 0.39696583
0002d0 63 39 4c 3d 6e 2d 6c be 75 8a 8c be 4b 1a 4a bf
       0.049859416 -0.23064205 -0.27449384 -0.7894637
0002e0 03 d1 2b 3e 88 26 b8 3e 49 95 94 bf 22 52 4b 3c
       0.1677895 0.35966897 -1.1608058 0.012409719
0002f0 6e 69 54 be de f8 41 3c ee 0b d0 be 1f b5 5b 3e
       -0.20743343 0.01183912 -0.40634102 0.21455811
000300 0c f0 f3 3e d1 12 8b bd fd 82 83 3e c3 08 5d bd
       0.4764408 -0.06790698 0.25685874 -0.053963434
000310 f4 58 2f bd da 7d 70 be d7 3f b6 bd 81 c9 a6 be
       -0.04280944 -0.23485509 -0.08898895 -0.3257561

fc22.bias f4 [10]
000000 e0 c3 91 be 1c b4 86 be 33 d5 2e be d7 fa 07 bd
       -0.28469753 -0.26309288 -0.17073517 -0.033198204
000010 cb 3f 95 be 18 1e 7b be e4 21 ee be b6 e7 30 bd
       -0.29150233 -0.24523199 -0.46510231 -0.043189727
000020 80 ea 7b be 24 0c 75 be
       -0.24601173 -0.23930413

fc3.weight f4 [20, 10]
000000 a6 67 05 bd f6 a7 f9 bc 2e ef d1 bc 20 35 5d 3c
       -0.03256955 -0.030475598 -0.025626745 0.0135014355
000010 36 36 55 3e d5 ae ae 3f f7 8d 06 3d 41 ea 73 39
       0.20821461 1.3647105 0.032850232 0.00023261552
000020 2c 1c 46 3c 03 35 cb 3b 5a 6e d2 3d 5d 5a 5b bb
       0.012091678 0.006201388 0.10274954 -0.0033470609
000030 71 0f 98 bf d5 48 98 bb 9b 39 2a 3e ca a8 b7 3b
       -1.1879712 -0.004647354 0.16623537 0.005604838
000040 b8 28 b2 bd c6 cb 45 bb 9a 0f 43 b9 dc 1e da 3b
       -0.08699173 -0.0030181273 -0.00018602461 0.0066565108
000050 65 5d 39 3c a9 18 53 3f 97 2d 86 3c a2 9d 02 3e
       0.011313771 0.82459503 0.01637916 0.12755445
000060 ef d9 7a bd 5b eb 8a be f3 41 03 bd c4 b4 08 bc
       -0.061242994 -0.27132687 -0.032045316 -0.008343879
000070 64 cc 21 39 f9 d5 a0 3c dd 69 35 bd 56 31 93 3c
       0.00015430298 0.01963328 -0.044290412 0.017967861
000080 a4 a3 80 3b 0e 16 d3 3b 46 18 96 be b0 b5 19 3b
       0.0039257575 0.006441838 -0.29315394 0.0023454241
000090 79 84 4d 3e 0f 25 cf 3c 98 98 19 3c 54 ba 92 3c
       0.20070066 0.025286226 0.00937476 0.017911114
0000a0 ff d1 90 3f 43 55 0e bb e0 47 06 3e 3c 26 c6 bc
       1.1314086 -0.00217183 0.13113356 -0.024188153
0000b0 5c 9e aa 3e f9 94 00 3c f1 da 00 be 52 d3 06 bd
       0.33323944 0.007848018 -0.1258352 -0.032916375
0000c0 26 f9 5b bc 49 0b 9b 3b 45 78 dc bc 95 a9 bf 3f
       -0.013426101 0.00473157 -0.026912818 1.4973627
0000d0 4b 0d fb 3b 45 0d 2d bd 16 71 b6 bc f0 de 61 3d
       0.0076614968 -0.042248983 -0.02227072 0.05514425
0000e0 d5 22 eb bc 82 97 6d bb 33 e2 d9 3b 2c a5 dd 3b
       -0.028703133 -0.0036253636 0.0066492795 0.006764075
0000f0 9f e8 2c bd bc ec 7b bc e5 14 d2 3b 02 e6 ba 3c
       -0.042214032 -0.015376266 0.006411182 0.022814754
000100 86 b4 94 3e d2 60 fe 3c 4f 97 b2 3d c3 12 56 3d
       0.29043978 0.031052027 0.08720266 0.052263986
000110 dc d4 2b bc fd 5d 4e 3d 96 65 a3 3d 44 ee 42 3c
       -0.010487761 0.050382603 0.0797836 0.011897627
000120 a2 72 99 3b 01 25 1a bc 63 8e c8 bc ac d1 cc bb
       0.0046828547 -0.0094082365 -0.024481958 -0.006250581
000130 22 96 0a 3f 83 88 0e 3e ae f4 3c bd f6 8c 3c bd
       0.54135334 0.13919263 -0.046131782 -0.04603287
000140 f6 60 bd 3d 33 95 c9 3c af 0c 4b 3c 18 0f cb 3b
       0.092470095 0.024607277 0.012393161 0.0061968677
000150 53 ff 78 3d 57 ce 04 3b 1b e1 f9 bd 38 45 68 3e
       0.06079037 0.002026459 -0.122011386 0.22682655
000160 06 db ad bc 29 67 05 3c b1 5c 58 bf 13 4a 1f bb
       -0.021222603 0.008142271 -0.84516436 -0.0024305626
000170 d5 44 37 3c 20 a8 30 3c b4 b4 7a be 75 0e 9e 3c
       0.011185844 0.010782272 -0.24482995 0.019294003
000180 96 b1 c3 3d 15 80 a7 3e ca 84 a5 bc 58 5b 6b 3b
       0.09555356 0.32714906 -0.02020492 0.00359126
000190 72 d9 c5 bd f7 9e 64 3d 24 f5 16 3c 59 dd b6 bf
       -0.09660615 0.055815663 0.0092137195 -1.42863
0001a0 e8 56 f1 bc cf d8 9b 39 36 cd ac 3d b7 4f f9 bb
       -0.029460385 0.0002972544 0.084375784 -0.0076083797
0001b0 1b b4 49 bb 80 8d c4 b6 77 0a 5c be ef ce 0b bc
       -0.0030777517 -5.857728e-06 -0.21488367 -0.0085332235
0001c0 3a d9 4c 3c 0c 49 15 bc d8 13 ed bd 3c 9a 99 bb
       0.012502963 -0.009111654 -0.115760505 -0.0046875756
0001d0 86 35 78 be 55 6d 26 3c 09 26 25 bc d9 e9 be bb
       -0.24239168 0.010157903 -0.010079869 -0.0058262167
0001e0 1c 32 86 3d cc 9a ff bb 80 52 aa ba 51 84 64 bc
       0.06552526 -0.0078004356 -0.0012994558 -0.013947562
0001f0 58 b4 0b bf bf 6c 93 3d d2 a3 2f bf b8 09 90 3b
       -0.5457206 0.07198476 -0.68609345 0.00439569
000200 7b 30 28 bd 9b 13 9c 3d bc 34 43 3e 95 bf 09 bc
       -0.04106186 0.07620927 0.19063085 -0.008407493
000210 2f 46 ea 3b 79 66 8a 3c bb e7 a8 be 6f ef 2a bd
       0.00714948 0.016894566 -0.32989296 -0.041732248
000220 54 39 c2 3c 39 6b 1a 3e 55 5b 45 3c fb 23 49 bc
       0.023708977 0.15079965 0.012045701 -0.012276645
000230 93 0f 35 3f b6 a8 2c 3c 9a 79 3e 3d 9b 63 cd bb
       0.7072689 0.010538271 0.046502687 -0.0062679774
000240 2e 4f 42 3e f6 d7 62 3a 64 0d 9a bd 26 0f d9 bd
       0.18975517 0.00086533965 -0.07522085 -0.105985925
000250 d4 4b 83 39 84 1d 2c 3b 33 db 0a 3e 5e fc eb bc
       0.00025042763 0.002626271 0.1356018 -0.028806861
000260 cf 41 29 3c ad 2a e2 bc e7 f5 28 3c 63 c9 fa 3c
       0.010330631 -0.02760824 0.010312534 0.030613607
000270 3a 2f f8 bd 7c 58 28 3e 35 e0 d0 bb c2 94 6b 3b
       -0.12118383 0.16440004 -0.006374384 0.003594682
000280 7f b3 99 3d 18 38 74 bc f1 52 36 bb c8 62 f9 bc
       0.07504939 -0.014905952 -0.0027820433 -0.03044261
000290 db 20 fd bd 32 04 b1 3b df 5e 88 3e 58 3c 39 37
       -0.12359782 0.0054021114 0.2663488 1.1040909e-05
0002a0 07 2b 94 bc e0 9a af 3f ed d8 3e be 6b 0f 50 3b
       -0.018086923 1.3719139 -0.18637438 0.003174747
0002b0 ea 61 d3 3c 1b b8 3d bc ea b9 11 3f 6a 1e 69 bd
       0.025803525 -0.011579539 0.5692431 -0.05691377
0002c0 07 4e 87 3d 83 28 66 bb 49 a9 d8 bc 70 53 4a ba
       0.066066794 -0.0035119362 -0.026447909 -0.00077181216
0002d0 70 cf e6 bd 80 70 c1 3c bd d0 a0 3b 2a a8 51 bb
       -0.11270034 0.023613214 0.004907696 -0.0031991103
0002e0 31 09 f5 3e c2 7c 83 bd 8d 10 9f 3e bb 4b 07 3c
       0.47858575 -0.0642028 0.31067315 0.008257802
0002f0 43 59 64 3e f7 3d f6 3c ad 86 a3 be cd e4 ae bc
       0.22299676 0.030058844 -0.31938687 -0.021349335
000300 57 96 60 3d 48 14 ad bb 28 d2 28 3f e5 46 24 bd
       0.054830875 -0.0052819587 0.65945673 -0.040106673
000310 92 2f eb be 00 d9 64 bc 1a bb 39 bf 23 0f 91 3d
       -0.4593473 -0.013967752 -0.7255112 0.07082965

fc3.bias f4 [20]
000000 e1 72 ca be 68 4d a7 be 03 61 16 bf 60 bb 8f 3f
       -0.3954077 -0.32676244 -0.5874178 1.1229057
000010 41 cb af be 2b 64 ee be 6e ab 2c 3f 1b 92 89 3f
       -0.34334758 -0.46560797 0.6744908 1.0747713
000020 fc 5b 84 3f 44 65 2c 3f 35 2f de be 2e 6c a2 3f
       1.0340571 0.6734202 -0.4339539 1.2689264
000030 03 38 70 be cc f8 62 3f 3a f6 aa be 54 80 7f 3f
       -0.23458867 0.88660884 -0.3339098 0.9980519
000040 a5 b6 00 bf 78 02 3f 3f ad 5a 6c bb 79 13 ef be
       -0.50278693 0.7461314 -0.003606479 -0.46694544

fc4.weight f4 [10, 20]
000000 5f e1 d0 bb ba 8f 3c 3b 26 fb af 39 50 cf b8 be
       -0.0063745226 0.002877219 0.0003356572 -0.36095667
000010 82 12 62 3f 2a 22 08 3b 9b 0c a5 bd 23 52 96 3d
       0.8830949 0.0020772316 -0.08059045 0.07339885
000020 65 83 a5 3e 02 36 b8 be 51 d1 83 3c 3a f1 a6 be
       0.3232681 -0.35978705 0.01609102 -0.32605916
000030 10 1b c6 bc 71 1a c6 3d 92 36 91 3e 37 a6 3d 3e
       -0.024182826 0.09673012 0.28361946 0.18520437
000040 ed d9 2e 3c 27 9e 07 be 20 9f 28 3d b8 2c bf 3c
       0.010672075 -0.13243924 0.04116738 0.023336753
000050 de 7d 66 3d 32 3d ac be 16 e9 b0 3c 24 73 11 3e
       0.05627238 -0.33640438 0.021595519 0.14204079
000060 53 c5 48 3f e9 8e f0 bc 75 38 28 be dd b6 fe bd
       0.7842609 -0.02936502 -0.16427787 -0.12437222
000070 13 6e 2a bf 70 cf 82 3f 7f 86 04 bd a6 5b 47 3e
       -0.6657421 1.0219555 -0.032354828 0.19468555
000080 da e0 97 3c 46 d1 dc be 01 70 f1 3e db 33 09 bf
       0.018539835 -0.43128413 0.47155765 -0.5359475
000090 bb 38 6e bc 28 f8 97 bd e6 d1 fe bc 7f 7c 0a bd
       -0.014539893 -0.07420379 -0.031105947 -0.033810135
0000a0 65 9a 01 bf 8c 03 a0 3f 4f d2 25 3c e9 d1 57 3d
       -0.5062621 1.2501082 0.010120942 0.05269042
0000b0 ee a5 42 3b 82 1f 43 3d c0 8d 43 be ef f4 34 be
       0.0029700953 0.04763747 -0.19097042 -0.1767156
0000c0 50 02 0f 3e b5 06 d7 3d 99 60 6a bc 21 fd f9 be
       0.13965726 0.10499326 -0.014305257 -0.48825935
0000d0 c7 2b 0c 3d 0a 52 99 bd 5b 76 8c bd 82 59 95 bd
       0.034221437 -0.07486351 -0.06858512 -0.07292463
0000e0 99 66 25 3b ea b6 19 3d 39 85 53 bd 96 43 8f 3b
       0.0025238155 0.037527956 -0.051640723 0.0043720705
0000f0 fd d3 81 3f 63 a0 71 3b 76 c2 9c bf af 0a 59 be
       1.0142819 0.003686928 -1.2246845 -0.21195482
000100 f2 c5 d4 3c fc f2 56 bc 59 c4 90 be 24 4a 96 3d
       0.025973294 -0.013119455 -0.282748 0.0733836
000110 e4 70 8e 3d 0b f9 68 3d 5a 97 62 3d 9f de 1e be
       0.06955126 0.05687813 0.05532012 -0.1551461
000120 fd 24 2a bb 5f 00 47 be c4 68 fb bd de 4c ca 3c
       -0.0025961988 -0.19433735 -0.12275842 0.024694856
000130 7a 4a ba bb de ba b6 bd 1b 17 49 3c 5f 15 c5 bb
       -0.005685148 -0.08922361 0.012273575 -0.0060145105
000140 c4 e0 b6 3c 6c 1e 0f bc e8 14 00 3e 3f 3e 97 be
       0.022323973 -0.0087352805 0.12507975 -0.29539678
000150 a3 01 8e 3c 45 86 81 3f 71 f2 a8 bd 56 d7 ad 3c
       0.017334765 1.0119101 -0.08249367 0.021220844
000160 6d ff 72 3d 6a 70 5c 3d 7d fd ff be 95 9d f9 bd
       0.059325624 0.053818144 -0.49998084 -0.121882595
000170 6c 66 c0 bb f1 38 f7 3d 9b b0 ad bd 8e 03 65 be
       -0.0058715846 0.120714076 -0.084809504 -0.22364637
000180 6c 60 ae 3d b5 7c 97 bd a7 05 43 3b 19 70 68 bc
       0.08514485 -0.07396833 0.0029758008 -0.014186882
000190 2c 52 26 bc 2a d9 4e bc 43 b8 99 3c 10 63 b9 be
       -0.010151427 -0.012625018 0.01876462 -0.3620839
0001a0 ab 77 a2 3d 17 4d 39 3d ea 3a e0 3d 16 82 15 bd
       0.07932981 0.045239534 0.10948737 -0.036501013
0001b0 a6 be ee be 89 f7 f9 3d 59 30 87 3f 71 a1 61 be
       -0.46629828 0.12205417 1.056163 -0.22034241
0001c0 84 09 d8 3c 97 1f 62 3e df e9 83 be b0 72 93 3e
       0.026371725 0.22082363 -0.25764367 0.28798437
0001d0 73 5a 04 bf ad 48 08 3d f7 7c 18 bd c8 e1 0e 3d
       -0.51700515 0.033272434 -0.03722855 0.03488329
0001e0 df ae aa 3c 70 e9 b6 bb 62 43 91 bb f2 1e 6d be
       0.020835338 -0.005582027 -0.0044330815 -0.23156336
0001f0 9b ac b9 bc b3 da 37 bc df 44 22 3e 90 47 f7 3a
       -0.022665313 -0.011221576 0.15846585 0.0018865932
000200 d9 4a e5 3d dc 1b 1e 3d f1 0a 1f 3d 5d c1 13 be
       0.11195917 0.038600788 0.038828794 -0.14429231
000210 4b 57 7b 3c 48 4b 80 3e ae f5 7d bc 48 e2 e2 be
       0.0153406365 0.25057435 -0.015500469 -0.44313264
000220 bc b9 8b 3f a5 55 9c be b7 58 18 bd 66 65 8c be
       1.0916057 -0.30534092 -0.03719398 -0.2742111
000230 2d cb 0a bd fa 53 fc bc b1 94 33 bc b9 90 f4 be
       -0.03388517 -0.030801762 -0.010960744 -0.47766665
000240 2c 65 28 3d a3 cf 06 3c 46 1c 1e bd 74 c0 ad bd
       0.04111211 0.008228215 -0.038601182 -0.08483973
000250 be b8 9f 3e e8 c2 b8 3d 57 01 c1 3b 21 7a 92 3c
       0.31195635 0.090215504 0.0058900523 0.017880501
000260 80 4b ef bc ab 9d 97 be 86 85 00 be 70 ba 16 be
       -0.029210806 -0.2961248 -0.12550935 -0.14719558
000270 6f f3 b3 3d 52 48 57 3e 6f 48 c0 3d d4 71 c5 3e
       0.08786666 0.21023682 0.093888156 0.38563406
000280 df 2d 29 3d 80 b2 d3 3c c0 74 84 ba d7 1b 51 3e
       0.04130351 0.025841951 -0.0010105595 0.20420776
000290 27 c6 0d be 3d da 89 bc 4c a7 49 be b1 bc e8 3e
       -0.1384512 -0.016827697 -0.19692725 0.4545646
0002a0 52 56 c8 be 20 6c 11 bd 3e d7 65 bc 26 ff ad be
       -0.39128357 -0.035503507 -0.0140283685 -0.33983725
0002b0 0f 05 6f 3e d2 cb c1 3e 74 1f 6d 3e 90 20 9b bd
       0.23341773 0.37850815 0.2315653 -0.0757457
0002c0 aa d4 e6 bd e3 c9 d8 be 7a a9 27 bf 20 8c 2f 3f
       -0.11271031 -0.42341527 -0.65492976 0.6857319
0002d0 1f 7f 86 bd 19 4c 99 3b 3c b9 a8 bb 80 21 ab bd
       -0.06567215 0.004678261 -0.005149035 -0.08355999
0002e0 53 12 5a 3c 36 ab 76 3c 6f 5f af 3e 48 2b 02 3f
       0.013310033 0.015055468 0.34252498 0.5084729
0002f0 8f 75 7b be 01 02 39 3d 98 e7 23 bc 6c a5 d5 be
       -0.24556564 0.045167927 -0.010003947 -0.4172777
000300 e0 64 5a bf b1 0d 36 be 5b a9 df bd 58 1a a1 bd
       -0.85310173 -0.1777866 -0.10920974 -0.07866353
000310 a4 a6 67 bd 98 9b 59 3e 34 24 a3 3c 67 b6 60 bd
       -0.056555405 0.2125076 0.019914724 -0.054861452

fc4.bias f4 [10]
000000 4d 40 87 be 76 03 e1 b9 22 00 5d bb 86 46 04 be
       -0.26416245 -0.00042917923 -0.0033722003 -0.12917528
000010 cc 6d 60 be ce 11 6a be 89 82 43 be 9a ae 46 3d
       -0.21916884 -0.22858354 -0.19092764 0.048506357
000020 7d 45 86 be f6 37 62 be
       -0.2622489 -0.2209166
