stackedcoil/vae/cmulti_c1243_4c_v4_constraint1_vae.pt (torch, 3527 bytes, 10 tensors)

fc1.weight f4 [8, 4]
00000000: 3ab8 813f 369c 803f 6310 9e3e 1359 603e
00000010: e6a0 11bf 75a4 f73e 000b 82be 31da cf3e
00000020: 35c9 a13e 8ded 8cbf e11d a33e cf9e 29bf
00000030: be1e cc3e 4884 dc3d 3a85 1dbf 0819 5a3e
00000040: 1c32 8a3d c268 563e ac70 0c3f 8235 92bf
00000050: 4f59 e33e fc2c 8b3e cd48 8e3f e5bf 933f
00000060: 112d 873f d3e7 18be a62a 50be db4c 6abe
00000070: 2b76 323c 1d7b 24bf 88af 743e 53e2 893d
1.0134346 1.0047672 0.30871877 0.21908979 -0.56886137 0.48367658 -0.25399017 0.40596154
0.3159882 -1.1009995 0.31858733 -0.6625795 0.39867204 0.10767418 -0.6153141 0.21298611
0.06747839 0.209384 0.54859424 -1.1422579 0.44404075 0.27182758 1.1115967 1.1542937
1.0560628 -0.14932184 -0.20328769 -0.2288088 0.010892431 -0.64250356 0.23895085 0.06732621

fc1.bias f4 [8]
00000000: d51b e33b edae 883f bd37 7b3f e92b 603f
00000010: 8130 973f 3d56 dd3e 7fdc 06bf a7be 4a3f
0.006930808 1.0678383 0.98131925 0.87567 1.1811677 0.43229857 -0.526802 0.7919716

fc21.weight f4 [4, 8]
00000000: 0050 72be fcb1 8abf 5cae 5f3f 977e 2f3e
00000010: 81d3 453e de07 c6be 2c94 ea3e 9e90 b43e
00000020: 13c0 683e 239f 74bb 966e 0c3e 9034 2d3f
00000030: e509 82bf db39 07bf 4d7f bb3e d423 b83d
00000040: 51ce b33f 3789 62bf a848 a1bd 116b b4be
00000050: 3519 bcbe 38a7 4b3f 3c85 9e3f cd7c 02be
00000060: 70c1 2b3f d099 0bbe 7f6d bdbe 1f1f 123e
00000070: 6d72 053f 48c7 87bf d8fb 643e 1bae 08bf
-0.2366333 -1.0835567 0.87375426 0.17138134 0.19318964 -0.38677877 0.4581617 0.35266584
0.2272952 -0.0037326298 0.1371406 0.6765833 -1.015927 -0.52822655 0.3662056 0.08991209
1.4047338 -0.88490623 -0.07875186 -0.35237935 -0.3673798 0.7955203 1.238441 -0.1274292
0.6709204 -0.13632894 -0.369976 0.14269684 0.52127725 -1.0607691 0.22361696 -0.53390664

fc21.bias f4 [4]
00000000: eec1 30be e463 26be d62a a7be 984b a23e
-0.17261478 -0.16249043 -0.3264987 0.31698298

fc22.weight f4 [4, 8]
00000000: ee67 053f cd02 36bf 92e7 3ebf 603a 443c
00000010: 4b58 0bbf a5e2 ffbd 88dc fc3e 213d 48be
00000020: 809f 8fbc 8168 b6bf 1e0b 2dbf 58fe 02bf
00000030: b52f 07bf 71c4 adbd 62d5 023f e3cf 1fbe
00000040: 1f32 7dbe 1a62 10bf 1fe5 65be f0ad dc3d
00000050: 4414 d6be 40cb 27bf 3ab3 9a3f 92a7 523e
00000060: 45fb d0bd b063 87bf e8d2 f3be 342d dabe
00000070: ef5e 05bf 4304 c7bb 1601 063f e0dd f6be
0.5211171 -0.71098024 -0.745721 0.011976808 -0.544316 -0.12494401 0.49387002 -0.19554569
-0.01753211 -1.4250642 -0.6759509 -0.5116935 -0.5280717 -0.08484734 0.51106846 -0.15606646
-0.24726151 -0.5639969 -0.22450684 0.107753634 -0.41812336 -0.6554451 1.2085946 0.20571736
-0.10204176 -1.0577297 -0.47621846 -0.42612612 -0.5209798 -0.006073506 0.52345407 -0.48216152

fc22.bias f4 [4]
00000000: a312 41bf 771b 21bf 206e dcbd d057 95be
-0.7541906 -0.62932533 -0.10763192 -0.29168558

fc3.weight f4 [8, 4]
00000000: 2962 2a3d f347 5f3f 7c2f 313c 1165 5b3e
00000010: ad5b 34bd 8340 3a3d e235 533c f2b1 80be
00000020: d516 27be b24b 2fbf 967f 4cbe 3db0 5bbe
00000030: 2d80 30be 6a3e 21be aac5 0b3d a4d2 e2be
00000040: 0a52 a7bc 914c d43e 8dfb d63b 5040 933d
00000050: d9e9 1fbe cf86 06bf 25d7 953d 6bb6 053f
00000060: ba23 77be d4a3 b1be a008 613f 5c43 3ebc
00000070: ed3b 483f a917 0bbf 64d4 3e3d 832d a2bd
0.04159752 0.8721916 0.010814544 0.21425273 -0.04403274 0.04547168 0.012891265 -0.25135761
-0.16317303 -0.68474877 -0.19970545 -0.21453948 -0.17236395 -0.15746465 0.034124054 -0.4430133
-0.020424861 0.41464666 0.006560749 0.07190001 -0.1561655 -0.5254945 0.07316426 0.5223147
-0.24134722 -0.34695303 0.87903786 -0.011612739 0.7821644 -0.5433298 0.04658927 -0.07918837

fc3.bias f4 [8]
00000000: 3418 19bf 7b94 103f 84a3 c83e 059e f73e
00000010: 881e 913f 6692 953e 5e65 d6bd b59a 9a3e
-0.59802556 0.56476563 0.39187253 0.48362747 1.1337442 0.29213256 -0.10468553 0.30196157

fc4.weight f4 [4, 8]
00000000: 629d 633f a213 23be 4395 d8be 58e0 013d
00000010: fd19 5d3f 991c b9bc ca78 ef3e 7a0f e53e
00000020: 79a2 093d 8341 03bf 125e 50bd e453 2b3e
00000030: 72c9 cdbd edee 1e3f f750 1a3d 1462 98be
00000040: 2565 44bf 3db3 123d ca02 413d b6d1 b23e
00000050: 612b 48bf 26da d93d fa82 c43d 4afb 2f3e
00000060: cb1e 3e3e 7219 803e 6e7d 51be 07ca 113f
00000070: 1464 9a3d 0822 71be 59bc 233d ebfc 65be
0.8891202 -0.15925458 -0.42301378 0.03170809 0.8636778 -0.022596644 0.46771842 0.4473837
0.03360221 -0.5127184 -0.050870962 0.1673122 -0.10048188 0.6208332 0.03767487 -0.29762328
-0.76716834 0.035815466 0.0471218 0.34925622 -0.7819119 0.10637312 0.09595294 0.17185703
0.18566434 0.25019413 -0.20458004 0.56948894 0.0753862 -0.23548138 0.039974544 -0.22459762

fc4.bias f4 [4]
00000000: 2152 4639 5f6d b13e 638f 393e 5ef3 d0bb
0.00018913347 0.34653756 0.18121104 -0.006376668
