stackedcoil/vae/cmulti_4c_v4_constraint3_vae.pt (torch, 3527 bytes, 10 tensors)

fc1.weight f4 [8, 4]
000000 a5 d8 ec 3e 27 10 e0 be 4d 1c cc be c3 a4 a0 3e
       0.46259037 -0.43762323 -0.39865342 0.31375703
000010 cc bb 95 be 2c b3 6f 3e 5d 4d 5a be db 92 fc bd
       -0.2924484 0.23408192 -0.21318574 -0.12332698
000020 70 76 50 3d 0a 5c 2a 3d a7 69 9f 3e 56 7e 00 be
       0.0508942 0.04159168 0.31135294 -0.12548193
000030 be 11 94 3e 82 b3 d8 bd 03 c1 1f 3e 72 80 aa 3e
       0.28919786 -0.105811134 0.15600972 0.3330112
000040 71 6b 80 be 1f a0 d8 be 36 2d 24 be 65 21 72 3d
       -0.2508197 -0.42309663 -0.16032872 0.05911388
000050 04 c5 0b be 05 f8 13 be ac 59 2f bd 77 08 7c be
       -0.13649374 -0.1445008 -0.042810127 -0.24612604
000060 a2 a6 94 be 2b 4e 8a 3f 14 2d 5d 3f fc 08 e5 3e
       -0.2903338 1.0805105 0.8639691 0.44733417
000070 87 7a 55 be a8 8c 90 be a1 24 9d be 3d 1b ab 3c
       -0.20847522 -0.28232312 -0.30692008 0.020887012

fc1.bias f4 [8]
000000 ec 58 ae be fc d4 c3 3e 8e c1 e4 3e bf 1e 15 3c
       -0.34052217 0.38248432 0.4467892 0.009101569
000010 6a 50 cd 3d 2a 01 a0 be 40 92 3e 3f 1e 5e 19 3e
       0.100251034 -0.31250888 0.7444191 0.14977309

fc21.weight f4 [4, 8]
000000 ff a0 9b 3e 16 bc 73 be bd 52 7b be d4 bd cc bc
       0.30396268 -0.23802218 -0.24543281 -0.02499286
000010 eb ac 8c 3e 21 a1 08 be f0 85 2f 3e fc 13 1e 3d
       0.27475676 -0.13342716 0.17140937 0.038593277
000020 a8 6d 84 3d ab 97 8b bd 4c 3e 92 3e 5b ac 94 3e
       0.06466228 -0.06816038 0.28563154 0.29037747
000030 ff 32 1c bd 80 a4 92 bd ce bd 07 be 1e 53 2f be
       -0.03813457 -0.07160282 -0.13255998 -0.1712155
000040 32 01 65 be 0d 9c 39 3e f4 17 1a 3e 01 ef 3a 3b
       -0.22363737 0.18125935 0.150482 0.0028523805
000050 f2 b1 38 be ea 65 0c 3d f2 00 86 3f dd 2b 01 3e
       -0.18036631 0.03427688 1.0469038 0.12614389
000060 cb 6f 0a 3f 76 6d bd 3e c3 2c 02 bd 60 be 18 3e
       0.5407683 0.36997575 -0.03178097 0.14916372
000070 e6 50 d4 bd 6c 4e 8e bd 66 a2 de bc f9 16 23 be
       -0.10366993 -0.069485515 -0.027177047 -0.15926732

fc21.bias f4 [4]
000000 02 2c 3f be e7 a2 54 3e 31 68 77 be 66 6d b7 bd
       -0.18669131 0.20765267 -0.2416084 -0.08956413

fc22.weight f4 [4, 8]
000000 3a 19 10 bd 63 63 5b 3e bd 69 2f be fd 8a 7d be
       -0.035180308 0.21424632 -0.1713018 -0.24760051
000010 56 2f c8 bd 4d fc 89 be 62 53 82 bc f4 82 10 be
       -0.097746536 -0.26950303 -0.0159089 -0.14112455
000020 7c c3 a1 be b7 f6 10 be a7 a4 90 3e 37 06 c6 be
       -0.31594455 -0.14156614 0.2825062 -0.38676617
000030 b0 96 2e 3e 7e d7 0b 3e e0 ab 4f 3c 85 51 33 3e
       0.1704967 0.13656422 0.012675256 0.17511566
000040 5c 38 3f bd 4d 54 04 bf 92 f0 ea be aa ae 52 bc
       -0.046684608 -0.5169113 -0.45886666 -0.012859026
000050 16 ab 0c be 60 dc f6 3c c5 ba 76 bf 33 93 94 be
       -0.13737139 0.03013438 -0.9637874 -0.29018554
000060 ba e1 af ba 3e 45 d8 3d 4e a8 51 3e 1a d0 e7 3e
       -0.0013418712 0.10560082 0.2047436 0.45275956
000070 64 11 45 be d3 63 92 be 15 f1 00 be ae b4 47 3c
       -0.19244915 -0.28591785 -0.12591965 0.0121890735

fc22.bias f4 [4]
000000 99 81 b2 3d 26 92 19 be 52 be de bd fe fc bf 3d
       0.08716125 -0.14997157 -0.108761445 0.09374426

fc3.weight f4 [8, 4]
000000 59 9d 7a 3b c8 43 a2 bb fa 93 43 3e 27 f7 32 bb
       0.003824076 -0.004951928 0.19099417 -0.0027307959
000010 ce e5 52 3c 39 c7 a7 bc 50 32 af bf c4 c6 13 3c
       0.0128721725 -0.020480739 -1.3687229 0.009019557
000020 5c 05 0d bb 5b a3 38 bb e7 04 23 bf 3d 65 e5 3b
       -0.0021518087 -0.002817354 -0.63679355 0.007000594
000030 69 d6 bc bc 1b 1e e1 3c 6a 0c e0 be 84 f0 50 be
       -0.023051457 0.027480176 -0.4375947 -0.2040425
000040 72 d1 11 3b 9f 1c 20 bb e8 e8 a8 be d0 87 9d 3c
       0.0022250083 -0.0024431122 -0.32990193 0.0192298
000050 e2 84 9b 3b d7 74 1f bb e9 e4 87 3f 28 7c a7 ba
       0.0047460655 -0.0024331117 1.0616733 -0.001277809
000060 4f a3 a7 bb 41 4c 32 3a 87 ee 5e bf 7d b5 7f bc
       -0.0051159034 0.0006801524 -0.87082714 -0.015607235
000070 c6 ad 34 bb ec 60 e3 ba 4e a6 f7 be f3 b3 1d 3b
       -0.0027569397 -0.001734761 -0.48369068 0.0024063557

fc3.bias f4 [8]
000000 02 fe 69 3f 27 81 06 3f 91 96 de 3f b7 d0 77 3f
       0.9140321 0.5254082 1.7389699 0.9680285
000010 8b 7b 75 3f 54 bd e5 bf 4a 3c dc 3f f9 7f a6 3f
       0.95891637 -1.7948403 1.7205899 1.3007804

fc4.weight f4 [4, 8]
000000 76 d7 06 bf 7c c5 06 3f d6 b8 b1 bf aa 06 00 be
       -0.5267252 0.5264509 -1.3884532 -0.12502542
000010 3f 44 67 be 40 e4 15 3e f7 bf 3f 3f 04 94 4a bf
       -0.22584628 0.14637852 0.7490229 -0.79132104
000020 39 fc 4d 3e 34 78 f8 bb 39 9e 87 bf ce 6d 56 be
       0.20115747 -0.0075826887 -1.0595161 -0.20940325
000030 0c fd 1e bf 49 3f b8 3f 9a ad ba 3f 32 9d 04 bf
       -0.6210487 1.4394313 1.4584229 -0.5180236
000040 fd 23 1a 3d c0 dd 9a bb c7 15 f1 bf 65 75 bc be
       0.037631977 -0.0047261417 -1.8834771 -0.36808315
000050 ae 0b 8a bf 87 49 b6 3f 8d 15 21 40 20 2a 74 bf
       -1.0784814 1.4241189 2.5169404 -0.9537678
000060 77 33 c5 3e 10 b8 95 3d e0 b7 92 3f d2 44 86 3e
       0.38515827 0.07310498 1.1462364 0.2622438
000070 81 61 03 3e 2e a2 4f bd 55 0d 91 40 a5 1e 55 3f
       0.12830164 -0.050691776 4.5328774 0.83249885

fc4.bias f4 [4]
000000 6e 87 55 3e 55 25 81 be dc 12 0b 3e 56 bd 5c be
       0.20852444 -0.25223795 0.13581413 -0.21556601
