stackedcoil/vae/cmulti_4c_v4_constraint2_vae.pt (torch, 3527 bytes, 10 tensors)

fc1.weight f4 [8, 4]
0	0xbdf11778	-0.117720544
1	0xbe8a1096	-0.2696578
2	0xbeb90293	-0.36134776
3	0x3c821722	0.015880171
4	0x3f14252b	0.57869214
5	0x3ec2ad63	0.3802291
6	0xbeda565b	-0.4264401
7	0xbebdfdab	-0.37107596
8	0xbe81418d	-0.25245324
9	0xbc8bd5f9	-0.017069804
10	0x3e9c759e	0.30558485
11	0x3d9271f0	0.07150638
12	0xbdd87a34	-0.105701834
13	0x3e4aca31	0.19803692
14	0xbe7ce7ce	-0.24697801
15	0xbea9eb5a	-0.33187371
16	0x3eeff4f3	0.4686657
17	0x3ec521ae	0.38502258
18	0x3edd6ee4	0.43248665
19	0x3dc4d280	0.09610462
20	0xbe54d594	-0.20784599
21	0x3e44afca	0.19207683
22	0x3d872089	0.065980025
23	0x3f03aa0d	0.5143135
24	0xbe6d3ba3	-0.23167281
25	0xbe6d9073	-0.23199634
26	0x3e4c9dbd	0.19982047
27	0xbef015a1	-0.46891502
28	0xbdc4f803	-0.09617617
29	0x3e198d26	0.1499525
30	0xbeb1d982	-0.34736258
31	0x3ef27a6c	0.47359025

fc1.bias f4 [8]
0	0xbcad5518	-0.02115874
1	0xbeb87ca1	-0.36032584
2	0xbc20501b	-0.009784724
3	0x3e973efa	0.29540235
4	0x3ea48109	0.32129696
5	0x3eea8ff2	0.45812947
6	0x3cfa39e7	0.030545188
7	0x3e367e97	0.17821728

fc21.weight f4 [4, 8]
0	0x3e58aaea	0.21158949
1	0xbcda7d1e	-0.026670989
2	0xbe3feb8b	-0.18742196
3	0x3e3df216	0.1854938
4	0xbe250308	-0.16114438
5	0x3e3d8184	0.18506438
6	0x3e6dea34	0.23233873
7	0x3cf3bd93	0.029753482
8	0xbdb6bd83	-0.08922865
9	0xbd1bcebf	-0.038038965
10	0x3e8bb4e5	0.2728645
11	0x3e779745	0.24178798
12	0x3e06e842	0.13174537
13	0x3d30d3a4	0.043170586
14	0xbe140d93	-0.14458303
15	0xbc35ec78	-0.011103742
16	0xbe82095c	-0.25397766
17	0xbe8e24fa	-0.27762586
18	0x3eaf8c8f	0.34286925
19	0xbd07598d	-0.033044387
20	0x3d90ede6	0.070766255
21	0xbefed75b	-0.49773678
22	0xbe958585	-0.2920343
23	0x3e46e345	0.19422634
24	0x3cedbea0	0.029021561
25	0x3e9bb127	0.30408594
26	0xbe2d20da	-0.16907063
27	0xbe203056	-0.15643439
28	0xbd877b90	-0.066153646
29	0x3e755e27	0.23961698
30	0xbca2d763	-0.019878095
31	0xbe2af08e	-0.16693327

fc21.bias f4 [4]
0	0xbdc84eb9	-0.0978064
1	0xbe5b0946	-0.21390256
2	0x3e9b6698	0.3035171
3	0xbdccc3f8	-0.099983156

fc22.weight f4 [4, 8]
0	0x3de380f4	0.1110858
1	0x3d42549b	0.047443967
2	0x3d488419	0.048954103
3	0xbef92e0f	-0.48667952
4	0x3be3344c	0.0069337245
5	0xbce97df3	-0.02850244
6	0xbe1bcb4c	-0.1521427
7	0xbec85b73	-0.3913227
8	0x3dbc3c61	0.09191204
9	0x3e61688f	0.22012542
10	0x39bea788	0.00036364445
11	0xbe5dcc00	-0.21659851
12	0xbc50980c	-0.012731563
13	0x3d186adc	0.037211284
14	0x3e133ea8	0.1437937
15	0x3e82012f	0.25391528
16	0xbe4de782	-0.20107844
17	0x3e0c75ad	0.13716765
18	0xbed33364	-0.41250145
19	0x3e374301	0.17896654
20	0xbe90f7bd	-0.2831401
21	0x3f1c6fc4	0.6110804
22	0x3e175867	0.14779817
23	0xbd75e5e7	-0.060033705
24	0x3e09b945	0.13449581
25	0x3c990e6f	0.01868364
26	0xbe6a7196	-0.22894892
27	0x3daed2c9	0.08536298
28	0xbd857b35	-0.065176405
29	0x3e8cf3b6	0.27529687
30	0x3d8983b0	0.067145705
31	0xbeafaabb	-0.34309945

fc22.bias f4 [4]
0	0x3e20c50f	0.15700172
1	0xbe118a35	-0.14212878
2	0xbeca597a	-0.3952139
3	0xbd461125	-0.048356194

fc3.weight f4 [8, 4]
0	0xbd61c293	-0.0551172
1	0x3a8caf7c	0.0010733451
2	0x3d19ef9b	0.03758202
3	0xbdd4604b	-0.10369929
4	0x3e21e1f3	0.15808849
5	0xbdbe53b8	-0.09293312
6	0x3e4a04dc	0.19728416
7	0xbd421cbe	-0.047390692
8	0xbead6939	-0.3386934
9	0x3d1697f2	0.036766
10	0x3e1615ac	0.14656705
11	0xbdc1b77c	-0.09458825
12	0x3dd47092	0.103730336
13	0xbd32e87c	-0.043678746
14	0x3d87ac2f	0.06624638
15	0x3cc3fc7f	0.02392411
16	0xbced841d	-0.02899366
17	0xbcd002e2	-0.025392
18	0xbd37bd58	-0.044858307
19	0x3da1c350	0.07898581
20	0x3b92e064	0.004482316
21	0x3c4c1c82	0.012457969
22	0xbd55519f	-0.052079793
23	0xbc7ca84b	-0.015420984
24	0xbd7a566d	-0.06111758
25	0x3dae18fd	0.0850086
26	0xbe59c468	-0.2126633
27	0x3e21f09d	0.15814443
28	0xbe4a3e29	-0.19750275
29	0x3ce763ea	0.028245885
30	0x3daf5cb8	0.085626066
31	0xbe9b9aca	-0.30391532

fc3.bias f4 [8]
0	0x3e85ce26	0.2613384
1	0x3f5c2302	0.8599092
2	0xbc8e455a	-0.017367054
3	0x3f909185	1.1294409
4	0xbe6967a6	-0.22793445
5	0x3e0862d6	0.13318953
6	0x3f6c5f8f	0.9233331
7	0x3f887129	1.0659534

fc4.weight f4 [4, 8]
0	0xbe9d3cff	-0.307106
1	0xbeb0bda7	-0.34519693
2	0xbc225c93	-0.009909767
3	0xbe8ac4a1	-0.2710314
4	0x3d86336c	0.06552777
5	0x3dd6bc36	0.10485117
6	0xbf0d9c81	-0.5531693
7	0xbe078cea	-0.13237348
8	0x3d0ee4ab	0.034886044
9	0x3d1e99db	0.038720947
10	0x3a84bc7b	0.0010126972
11	0xbe5842d8	-0.21119249
12	0x3b70821a	0.003669864
13	0xbc17c11b	-0.0092623485
14	0xbd4ec65d	-0.050482143
15	0xbd8541e9	-0.06506712
16	0xbd0c32f7	-0.03422829
17	0x3ead6c42	0.33871657
18	0x3b9a7c9d	0.004714562
19	0x3dd29eea	0.10284217
20	0xbc2d63a4	-0.010582838
21	0xbd3f3495	-0.046681006
22	0x3edbf143	0.42957506
23	0x3e35b326	0.17744121
24	0xbcd8c6e6	-0.02646203
25	0x3f40d1e0	0.75320244
26	0x3e015d08	0.12633145
27	0x3e96cc76	0.29452866
28	0x3e887b99	0.26656798
29	0x3e83a8c0	0.25714684
30	0x3f67e704	0.90586877
31	0x3ea49804	0.3214723

fc4.bias f4 [4]
0	0xbebf1046	-0.37317103
1	0xbe2ec9d3	-0.17069177
2	0x3ebba4e6	0.36649245
3	0x3e486ad6	0.19572005
