stackedcoil/vae/cmulti_4c_v4_constraint0_vae.pt (torch, 3527 bytes, 10 tensors)

fc1.weight f4 [8, 4]
0.5149198 0.47977248 0.5404361 -0.09277576 -0.27769795 0.6916802 0.2296778 -0.17924999
0.8586295 0.7704709 -0.5751011 0.15828599 -0.12991393 -0.4925803 -0.37683693 -0.381031
0.3901608 -0.18010896 0.42856228 0.09457856 0.6744418 0.63655186 -0.052397642 -0.59352505
-0.47494715 0.29388177 0.097612105 0.25692707 0.2696385 0.06861842 -0.14087275 0.694893
00000000: c9d1 033f bda4 f53e 055a 0a3f 3801 bebd
00000010: 6d2e 8ebe f411 313f a830 6b3e 4f8d 37be
00000020: 25cf 5b3f 953d 453f d339 13bf b915 223e
00000030: 2808 05be 7c33 fcbe c5f0 c0be 7f16 c3be
00000040: 28c3 c73e 7c6e 38be 846c db3e 67b2 c13d
00000050: 38a8 2c3f 10f5 223f e99e 56bd 42f1 17bf
00000060: 462c f3be ac77 963e dbe8 c73d f28b 833e
00000070: 0f0e 8a3e d087 8c3d f240 10be 82e4 313f

fc1.bias f4 [8]
0.5709311 1.1828645 0.65324473 1.3025675 0.9847507 0.55424196 0.9570988 0.917512
00000000: 8a28 123f 1b68 973f 0c3b 273f 88ba a63f
00000010: 9f18 7c3f cde2 0d3f 6d04 753f 11e2 6a3f

fc21.weight f4 [4, 8]
-0.5127607 -0.5656239 0.91793597 0.056702387 -0.3788019 -0.5570578 0.2192381 0.77766037
0.5895378 0.016417645 0.85313475 -1.2238004 0.058609486 0.64746964 -0.35770732 0.060401715
0.5604747 -0.18665099 -0.27885413 -0.735005 1.077219 -0.83022684 0.39594465 0.33587286
0.40225294 -0.9035287 -0.12843649 0.6515725 0.790033 0.21754543 -0.8203725 0.14106536
00000000: 4944 03bf bacc 10bf dafd 6a3f c340 683d
00000010: 53f2 c1be 579b 0ebf f47f 603e c014 473f
00000020: f3eb 163f 4c7e 863c 0a67 5a3f 7ea5 9cbf
00000030: 8010 703d 92c0 253f 6a25 b7be ca67 773d
00000040: 457b 0f3f 7021 3fbe f8c5 8ebe 4a29 3cbf
00000050: 50e2 893f bf89 54bf 42b9 ca3e 87f7 ab3e
00000060: 19f4 cd3e a84d 67bf db84 03be 75cd 263f
00000070: 9a3f 4a3f 3bc4 5e3e ef03 52bf 7073 103e

fc21.bias f4 [4]
-0.029638944 -0.7812851 -0.13704903 -0.15478536
00000000: 5fcd f2bc 4d02 48bf 9556 0cbe 0e80 1ebe

fc22.weight f4 [4, 8]
-0.15222394 -0.5007183 -0.076005615 -0.9875783 -0.5013251 0.047652762 -0.33792168 -0.39122894
-0.14380649 -0.06812164 0.09262419 -0.6478181 -0.31580824 -0.19698568 -0.45781276 -0.3507491
0.14619958 -0.39116293 -0.053515226 -0.8355654 -0.6611331 -0.15562856 -0.51322895 -0.3557995
0.10022827 -0.56463444 -0.12878257 -0.926125 -0.76834637 0.09371291 -0.4397154 -0.26021037
00000000: 98e0 1bbe 132f 00bf d5a8 9bbd eed1 7cbf
00000010: d756 00bf 8b2f 433d 1204 adbe 294f c8be
00000020: 0242 13be 5c83 8bbd c0b1 bd3d 68d7 25bf
00000030: 9eb1 a1be 9db6 49be 6f66 eabe 6395 b3be
00000040: 58b5 153e 8246 c8be c832 5bbd 9de7 55bf
00000050: 0540 29bf 185d 1fbe f962 03bf 5a2b b6be
00000060: 7b44 cd3d e28b 10bf 94df 03be 8716 6dbf
00000070: 59b2 44bf 8eec bf3d 6022 e1be 4b3a 85be

fc22.bias f4 [4]
-0.4697523 -0.5865052 -0.5694283 -0.5485466
00000000: 6083 f0be 3425 16bf 0ec6 11bf 8d6d 0cbf

fc3.weight f4 [8, 4]
0.3917053 0.060229335 0.42928103 -0.20278059 0.14923185 0.43844658 0.0020576278 0.6947324
0.09015606 0.52838176 -0.3001821 0.037203766 0.102576844 -0.565418 0.20836148 0.8805802
-0.3653835 0.430944 0.39621887 0.052258853 -0.41047898 -0.14687796 0.060486723 -0.09385873
0.49790552 -0.41054446 -0.5374338 -0.06321376 -0.111268386 0.55043405 -0.1947613 -0.88532275
00000000: 998d c83e 09b3 763d b9ca db3e b7a5 4fbe
00000010: 3cd0 183e 127c e03e 44d9 063b fcd9 313f
00000020: bea3 b83d 0744 073f 78b1 99be fa62 183d
00000030: cf13 d23d 3cbf 10bf b65c 553e b46d 613f
00000040: 8c13 bbbe b1a4 dc3e 33dd ca3e 610d 563d
00000050: 4d2a d2be 2d67 16be edc0 773d 0139 c0bd
00000060: 79ed fe3e e232 d2be 4395 09bf 3776 81bd
00000070: aee0 e3bd 3fe9 0c3f 826f 47be 83a4 62bf

fc3.bias f4 [8]
1.286669 -0.46917522 1.1785845 0.35285595 0.6048936 1.152785 -0.76929224 -0.39810315
00000000: 92b1 a43f bc37 f0be dbdb 963f 89a9 b43e
00000010: 4fda 1a3f 758e 933f 56f0 44bf 2dd4 cbbe

fc4.weight f4 [4, 8]
-0.095070004 1.0785234 0.5495386 0.43497282 0.3993745 -0.44086272 -0.31502768 -0.4406714
0.16334698 0.020074222 0.16065457 -0.46664304 -0.07549895 0.3014202 0.07263841 1.1151543
-0.007084637 -0.014364258 -0.45030025 0.030135369 0.863182 0.32978532 -1.0051079 -0.028282076
0.94985193 0.0046410044 -0.25628456 0.0121160215 0.11024832 -0.48968485 -0.110276744 -0.013450154
00000000: 10b4 c2bd 0e0d 8a3f 90ae 0c3f c2b4 de3e
00000010: d17a cc3e c2b8 e1be 4f4b a1be af9f e1be
00000020: 6e44 273e b272 a43c a282 243e d6eb eebe
00000030: 329f 9abd c053 9a3e 72c3 943d 60bd 8e3f
00000040: 3e26 e8bb 1158 6bbc c18d e6be 73de f63c
00000050: 7ff9 5c3f 9fd9 a83e 60a7 80bf d0af e7bc
00000060: 7f29 733f 9113 983b bb37 83be 4782 463c
00000070: dfc9 e13d f9b7 fabe c6d8 e1bd 095e 5cbc

fc4.bias f4 [4]
-0.02804865 -0.1322652 -0.3663334 -0.39483103
00000000: 48c6 e5bc 8770 07be 0d90 bbbe 4b27 cabe
