stackedcoil/vae/cmulti_c1243_3c_v4_constraint0_vae.pt (torch, 3527 bytes, 10 tensors)

fc1.weight f4 [8, 4]
000000 10 23 51 3f 34 b9 2b 3f 64 ea 1d bf b9 ac 35 be
       0.81694126 0.6707947 -0.61685777 -0.1774167
000010 3d 29 00 bf 50 ab c0 3e dc ea ec 3d e8 21 87 3e
       -0.50062925 0.376307 0.11568233 0.26393056
000020 4b 72 77 3f cc 76 15 3f 03 73 05 3f 82 37 a9 3e
       0.9665877 0.58384395 0.5212862 0.33050162
000030 44 c4 a2 3e bb 82 77 3e 7b 5f 1a 3f ba 64 82 be
       0.31790364 0.24170963 0.6030194 -0.25467473
000040 95 2b cd bb 83 e4 99 bd 20 ba 39 3d 74 8b 2a bf
       -0.006261299 -0.07514288 0.04534352 -0.6661904
000050 46 15 f8 3e 1b 79 e7 3d 46 94 24 3e 9f 44 f3 3e
       0.4845373 0.11302396 0.16072187 0.4751329
000060 ab 16 2c be 55 7e 47 bf fb bd 60 be 63 e0 7e 3e
       -0.16805522 -0.7792714 -0.21947472 0.24890284
000070 e1 36 7f bc bf dc 66 3f 4e 8a fc bc 9b 80 20 3d
       -0.015577049 0.9018058 -0.030827668 0.039185148

fc1.bias f4 [8]
000000 05 20 4b 3f 3d 7b 92 3f a3 a4 4d 3f 7d 14 51 3f
       0.7934573 1.1443859 0.8032934 0.8167189
000010 a5 cb 4a 3f 6b 0f 3e 3f a5 c7 ad 3f d6 f8 70 3f
       0.79216987 0.74242276 1.3576552 0.94129694

fc21.weight f4 [4, 8]
000000 e0 1b 36 3f c6 47 27 be 18 9c 56 bf 89 34 9b 3d
       0.71136284 -0.16335973 -0.8383193 0.0757838
000010 35 2e 29 3f e9 cc 39 bf b8 8e a9 be f0 dd ae 3e
       0.6608613 -0.72578293 -0.33116698 0.341537
000020 68 68 5d 3f 5a 1c e4 be ee 76 f7 bd 33 74 74 bf
       0.86487436 -0.4455288 -0.12083231 -0.95489806
000030 5c 66 b5 be b4 fd bf 3e 0d 6b 28 3f a8 32 b2 be
       -0.35429657 0.37498248 0.65788347 -0.34804273
000040 71 a2 64 3f ae 93 c6 be 75 78 22 3f 31 4d 2e be
       0.89310366 -0.38784546 0.6346505 -0.17021634
000050 6b f3 c9 be bd 43 60 3e 9b 14 80 bf 96 2d c0 3e
       -0.39443526 0.2190084 -1.0006288 0.3753478
000060 33 66 1f be 84 09 57 3f 11 ba 27 be 75 58 63 bf
       -0.1556633 0.83998895 -0.16379572 -0.8880685
000070 83 0a 45 bf 6a 7f f4 bd 1e 79 9f bd 82 3c 50 3f
       -0.76969165 -0.11938365 -0.07786773 0.8134233

fc21.bias f4 [4]
000000 0d 0f db 3e a7 dc 2f 3e 83 e1 56 bf 6a 5b 33 3e
       0.4278492 0.17174016 -0.83937854 0.1751534

fc22.weight f4 [4, 8]
000000 5b c0 a2 be aa 46 0f bf 5f 09 09 3e 54 21 02 bf
       -0.3178738 -0.559672 0.13382481 -0.50832105
000010 ac 4f 0c bf ce 5a a2 be be ab 7f bf 1f 12 b5 be
       -0.5480907 -0.31709903 -0.9987143 -0.35365388
000020 cf 24 75 be c8 e3 fc be 98 1b 05 bd 1f a9 a5 be
       -0.23939823 -0.49392533 -0.03249702 -0.32355592
000030 32 10 11 bf b6 15 14 be 19 b7 89 bf ee 04 cf be
       -0.5666534 -0.14461407 -1.0759002 -0.4043345
000040 b4 31 5d bd 7a d3 93 be 37 76 31 be 57 ca ba bd
       -0.05400248 -0.2887228 -0.17330252 -0.091206245
000050 71 bc e8 be a2 e7 fc 3c d7 ad 39 bf 8d 6d 0d be
       -0.4545627 0.03087217 -0.72530884 -0.13811322
000060 b7 99 de bd 63 0b 01 bf 09 39 44 be bb a7 4c bd
       -0.108691625 -0.50408 -0.19162382 -0.049964648
000070 7f 00 3e bf 65 e9 0d be 25 5e 63 bf 10 0f bd be
       -0.74219507 -0.13858564 -0.8881553 -0.36925554

fc22.bias f4 [4]
000000 72 74 d4 bd ee 25 6d be c0 8f 1f bf 28 7e 1d bf
       -0.10373773 -0.23159 -0.6232872 -0.61520624

fc3.weight f4 [8, 4]
000000 b0 80 a0 3e 90 9d f5 3e 78 87 7e 3c 4a 4f 39 3e
       0.3134818 0.47971773 0.015535228 0.18096653
000010 1c c1 3e 3f d7 e7 a5 be f9 a3 98 bd af c4 0b bf
       0.7451341 -0.32403442 -0.0745315 -0.5459699
000020 8c b2 20 bc aa 9d da bc 62 f8 40 3f 4f d1 e4 bd
       -0.009808194 -0.026686508 0.75379 -0.11172735
000030 46 5f 11 bf 0f 9c 61 bf c8 c6 ef bd 95 e9 a0 be
       -0.56786 -0.8812875 -0.117078364 -0.3142821
000040 ef 18 a6 3e 37 95 08 bf ad e6 fb 3d 4c 8d 47 3f
       0.32440898 -0.53352684 0.12299857 0.77949977
000050 48 44 b3 be 1c c0 0b 3f 61 af e7 3d 4e 86 5b bf
       -0.35013032 0.5459001 0.11312748 -0.8575181
000060 c1 c4 2c bf c3 03 9c 3e b1 b2 96 3d df 40 f9 3e
       -0.6748772 0.3047162 0.073583014 0.48682305
000070 65 e4 c8 3e e1 e8 1c 3f 6e 9b cb 3d 85 c3 5f 3e
       0.3923675 0.61292845 0.09941755 0.21851929

fc3.bias f4 [8]
000000 59 19 23 bf 51 38 e7 be d7 88 52 3f 12 62 b3 be
       -0.6371055 -0.45160154 0.8224005 -0.3503576
000010 14 85 85 3d b1 fd d1 bd 21 6d 6c 3e 4f cf 14 3e
       0.06519523 -0.10253466 0.23088504 0.14532207

fc4.weight f4 [4, 8]
000000 90 da 13 3c ca 48 16 bc d0 d3 e5 3e 32 2c 74 3b
       0.009024277 -0.009172628 0.44888163 0.0037257788
000010 b1 df f7 be e1 a8 38 3f f5 57 ce 3b 41 7c 94 bb
       -0.4841285 0.7213269 0.0062971064 -0.004531414
000020 66 96 a9 bc 04 50 9f bb 56 1a 03 3f 23 9e a6 ba
       -0.020701598 -0.0048618335 0.5121206 -0.0012711923
000030 ca 5d 2e 3f 2c d8 f6 be ea a4 e4 3a 6c 51 de 3b
       0.6811186 -0.482118 0.0017444168 0.0067846086
000040 c6 b6 a8 bf 98 d0 e4 3b 44 ff 9b 3d 36 9e 52 3f
       -1.3180778 0.006982874 0.076170474 0.8227266
000050 5e 10 c5 bb e7 51 53 3c ee 1d 40 bb 2a 85 5c bf
       -0.006013914 0.012897945 -0.0029314714 -0.8614069
000060 25 c1 d2 3b 8e f4 7a bf b1 5e 48 bd c5 38 65 3c
       0.006431716 -0.9802941 -0.04891843 0.013990586
000070 a2 a9 0f 3c 16 99 59 bc c6 ed 58 3f e0 c3 ea bc
       0.008768471 -0.013281127 0.84737813 -0.028657854

fc4.bias f4 [4]
000000 38 55 9e 3d a7 8c 68 bd 36 63 bc 3d 10 d9 2d be
       0.07731098 -0.05677476 0.091986105 -0.16977334
