stackedcoil/vae/cmulti_3c_v4_constraint1_vae.pt (torch, 3527 bytes, 10 tensors)

fc1.weight f4 [8, 4]
00000000: 51bd eebd 1835 643e aa7e 893e 3561 7e3f
00000010: 677f 2d3f 74fb 673f e6b7 ae3e 7760 ffbe
00000020: beb0 df3e 2309 45bf 482a 5a3d 0326 23bf
00000030: 1a1f 303f 8165 0c3f 9abd 33bf e008 a23c
00000040: a944 173f 4526 52bd 0ae2 aa3f 8d66 48bf
00000050: 5074 1f3d 8a65 5abe b118 5d3e d183 e0bc
00000060: 0495 093f de59 cc3d a910 4d3e 0ea4 f03e
00000070: 9d1c 63bf 1752 55be f154 303d 8660 a9be
-0.11657203 0.22285879 0.2685445 0.99367076 0.67772526 0.9061806 0.34124678 -0.49878284
0.4368953 -0.76967067 0.05326298 -0.63729876 0.6879746 0.5484238 -0.70211184 0.019779623
0.5908914 -0.051306028 1.3350232 -0.7828148 0.038929284 -0.21327797 0.2159145 -0.027406605
0.53743005 0.09978078 0.20025887 0.47000164 -0.88715535 -0.20832096 0.043049756 -0.33081454

fc1.bias f4 [8]
00000000: b30c 8b3f ce73 973e 36bf 303f a8ef 373f
00000010: 41b2 be3e bb43 f0be a44a 723f 9a98 8e3f
1.086325 0.2958054 0.69041765 0.7185006 0.37245372 -0.46926674 0.9464514 1.114032

fc21.weight f4 [4, 8]
00000000: 0923 ab3f b6a9 28bf 1cf8 e5be 6dc7 ec3e
00000010: 7288 b5bf 55a1 923e d527 e73d ea5a 313f
00000020: b756 bb3e 43b8 853f c563 47bf a333 23be
00000030: 5f6c 963d 1b62 5abd 026a 77be 6051 d13e
00000040: 5c20 a3bc f297 273e 074f a3be cdb2 183f
00000050: 9307 2abe 4e94 19bd 1652 0a3f d7f8 c6bf
00000060: 089b 4a3f f337 b8be 521a 87bd 846e 26bf
00000070: e58c 133f 0260 0cbe e6ee 0a3f f5d3 90be
1.3370067 -0.6588396 -0.44915855 0.462459 -1.4182265 0.28638712 0.11286894 0.6927935
0.36589596 1.0446857 -0.7788661 -0.15937667 0.07344889 -0.053316217 -0.24161533 0.40882397
-0.019912891 0.16366556 -0.3189623 0.5964783 -0.16604452 -0.03749495 0.54031503 -1.554469
0.7914281 -0.35980186 -0.06596817 -0.65012383 0.57636863 -0.13708499 0.5427078 -0.2828671

fc21.bias f4 [4]
00000000: d5b1 db3e 427b 8cbe 046e 133c d6d7 973e
0.42909113 -0.27437788 0.008998398 0.29656857

fc22.weight f4 [4, 8]
00000000: 365b fabd 7b9f 70be 8681 36be 3497 713e
00000010: 41d2 8bbe 3bdd 023d 93a4 13be 4b5f 91be
00000020: de98 21bf f980 72be e88c 27bf fff7 04bf
00000030: a922 b23d ae7e 7fbe d978 15bf 1523 8bbf
00000040: 6b61 76be 514d 08bf 29f3 afbe a22e 73bd
00000050: d79f 6bbe 12d6 123e 8405 46be 4595 8cbf
00000060: 364e 53bf debd c3bd 327a 0abf b901 f7be
00000070: b880 7fbe cc26 9dbe 0e51 f8be bd33 6bbf
-0.12224428 -0.23498337 -0.17822847 0.23592836 -0.27308849 0.031949263 -0.14418249 -0.28393015
-0.6312388 -0.23682012 -0.6544938 -0.5194091 0.08698017 -0.24950668 -0.58387524 -1.0870081
-0.240606 -0.53242975 -0.34365204 -0.059370644 -0.23010193 0.14339474 -0.19338042 -1.0983053
-0.82541215 -0.09557699 -0.54092705 -0.48243502 -0.24951446 -0.30693662 -0.4849934 -0.9187582

fc22.bias f4 [4]
00000000: ab9d b13b 7322 edbe b3d5 d3be 862f d0be
0.005420407 -0.46315345 -0.41373977 -0.40661258

fc3.weight f4 [8, 4]
00000000: 94bb 67be 15c0 933e 0153 823e 0182 0b3f
00000010: 1b57 51be 8067 063f 925a 18bf 6b4c b2bc
00000020: e281 22bd ac62 cf3e d835 403e f012 8fbf
00000030: 5df6 a63c 2371 d8be 8801 43be 0f41 853f
00000040: 8323 86bd 3447 a23e 6a93 853c a14d b33e
00000050: fa71 993d 66aa 7d3f 8480 023e a7be b4be
00000060: 20c5 41be 8cdb 7bbf 5212 cabd 3399 ce3e
00000070: 1e64 28bc b52d 3bbf 0bfd 4f3f 551d 47bb
-0.22630149 0.28857484 0.25453952 0.54495245 -0.20443384 0.5250168 -0.595132 -0.021764955
-0.039674647 0.40504968 0.1877054 -1.1177654 0.020381147 -0.42273816 -0.19043553 1.0410479
-0.06549742 0.3169495 0.016305644 0.35020164 0.074924424 0.9908813 0.12744337 -0.35301706
-0.18922853 -0.98381877 -0.098667756 0.40351257 -0.010277776 -0.7311662 0.8124549 -0.0030382473

fc3.bias f4 [8]
00000000: 84cd 2a3f 8abe f53e 4377 b5bd 89da d03d
00000010: 8997 3e3f 3909 2dbf 9b00 413f 2842 19bd
0.6671984 0.47996932 -0.08860638 0.10197932 0.74449974 -0.675922 0.7539155 -0.037416607

fc4.weight f4 [4, 8]
00000000: d155 0f3f 8a47 ecbe 82c6 a03e dce0 ccbe
00000010: 1497 163d 9b76 78be 6997 d13e f1d8 603f
00000020: 6c6b dd3d 1fbc aa3c 96ff 573e 39b2 86be
00000030: 5224 e63e ce3a b63f 1d9c c1be c2fb 33bb
00000040: 92bc e93e 59df 6d3e 18b6 fbbe 79e4 e13e
00000050: 2c3e a1be d61c b33e bc91 72be 44f2 0fbe
00000060: 98fc d9bc 88f7 f1be e5ac 12bf 59ae e93e
00000070: 86c6 8e3e 669d 153e 37b7 98be c214 403e
0.5599032 -0.4614833 0.3140145 -0.40015304 0.036765173 -0.24263994 0.4093583 0.87831026
0.10811505 0.020841656 0.21093592 -0.26307848 0.44949585 1.4236696 -0.37814417 -0.0027463292
0.4565168 0.23229732 -0.49162364 0.44119623 -0.31492746 0.34982938 -0.23688406 -0.14057261
-0.026609704 -0.47259164 -0.57295066 0.4564083 0.27885836 0.14610824 -0.29827282 0.18757918

fc4.bias f4 [4]
00000000: 6c31 973e 2ffb fb3d fd67 c4be 9e68 f7be
0.29529893 0.12303769 -0.38360587 -0.48322004
