stackedcoil/vae/cmulti_c1243_2c_v4_constraint0_vae.pt (torch, 3527 bytes, 10 tensors)

fc1.weight f4 [8, 4]
000000 7d f2 05 3e 1e d6 17 bf dd c9 f3 3e 96 c9 09 3e
       0.13080783 -0.5931109 0.47614947 0.13455805
000010 f6 a5 78 3e 2b 00 5e 3f be 9a b5 3e a9 52 f3 be
       0.24282059 0.86719006 0.3546962 -0.47524002
000020 42 5b a9 be 48 eb 47 be d0 b1 5f 3e b8 25 95 3d
       -0.33077437 -0.19523346 0.21845174 0.07282585
000030 88 96 69 bf 4e e5 b2 3c b8 73 9c bc 76 b8 a0 3e
       -0.9124532 0.021837857 -0.019098148 0.31390733
000040 44 20 47 3f f1 14 4a 3f cc 96 31 3d fe 05 4e 3f
       0.7778361 0.78938204 0.0433567 0.80477893
000050 7b 03 a9 3f b7 29 0c be 32 2d 9d 3c 7f 7a 0d bc
       1.3204187 -0.13687788 0.01918659 -0.008635162
000060 80 c9 5d 3d 47 94 6d 3d 84 65 4a 3f 19 54 87 bc
       0.054147243 0.058002736 0.7906115 -0.016519593
000070 38 40 3d 3e d8 6b 99 be 8a 3a fa be 55 9d f8 be
       0.18481529 -0.2996509 -0.48872787 -0.48557535

fc1.bias f4 [8]
000000 1b 4a 9a 3f 16 84 8c 3f 98 48 f5 be 04 83 9e 3f
       1.2053865 1.097781 -0.47906947 1.2383733
000010 a7 2c 40 3f 2a c6 34 bf 30 71 47 3f fd de aa 3f
       0.75068134 -0.70614874 0.77907085 1.3349301

fc21.weight f4 [4, 8]
000000 c5 f4 62 3f 8f a0 34 bf 8f 19 a2 3e be fb 84 bf
       0.8865474 -0.7055749 0.31660125 -1.0389326
000010 1c 9a 0a 3d 3c 92 0c 3f f6 70 8c 3e 6f bb 17 3d
       0.033838376 0.54910636 0.27429932 0.037043985
000020 85 43 d4 3e b2 ab a0 3d 60 ec c2 bc e4 4b c3 3e
       0.41457763 0.07845248 -0.023794353 0.38143837
000030 30 1c 8f 3e 5b dd c7 bd e8 82 5f 3f d5 f2 67 bf
       0.27951193 -0.09759017 0.8730912 -0.9060491
000040 ca bd ca bb 53 c5 82 bf af c8 5b be 32 fe f0 3e
       -0.0061871754 -1.0216469 -0.21463273 0.47068936
000050 72 a1 71 3f 89 82 af bb 90 24 2d bf 43 a1 d0 bd
       0.9438697 -0.005356137 -0.67633915 -0.10187008
000060 a3 ad 35 bf 73 86 61 3f f0 40 a9 be f0 d7 5a bf
       -0.70968074 0.8809578 -0.33057356 -0.85485744
000070 6c 5c 65 3f 5f 6e 7d 3f 49 9e a3 be f1 3b 1d be
       0.8959415 0.9899654 -0.319567 -0.15354897

fc21.bias f4 [4]
000000 41 95 3e 3f 69 88 4e bf 70 bf 0c 3f d1 f6 2e bf
       0.74446493 -0.80676895 0.5497961 -0.6834536

fc22.weight f4 [4, 8]
000000 7d 1e 48 bf 9f 32 84 be d6 ee 29 3e 63 8c 2c bf
       -0.7817152 -0.2581987 0.16595015 -0.67401713
000010 a1 14 b5 be f7 f7 c9 3f 26 f8 b3 3c 81 10 72 bf
       -0.353673 1.5778798 0.021968912 -0.9455643
000020 b0 c2 29 bf 4c 47 ab be 50 1f 47 bd 32 a1 1a bf
       -0.66312695 -0.33452833 -0.048613846 -0.60402215
000030 d8 79 ca be 5b 5d 12 3e cc a9 a2 3e 22 b3 4b bf
       -0.39546084 0.14293425 0.3177017 -0.7957021
000040 07 74 f2 be af 89 dd bd 25 34 85 3e 61 a4 22 bf
       -0.47354147 -0.10817277 0.26016346 -0.6353207
000050 f9 04 e9 be 26 0a 8f 3d ea d5 35 bd d6 58 3a bf
       -0.45511606 0.069843575 -0.044393457 -0.727918
000060 1c 26 95 be 54 cd 0e bd 19 f1 83 be 58 3a 02 bf
       -0.29130638 -0.034863785 -0.2576988 -0.50870275
000070 98 7c 6d be 13 d4 bd 3f 15 f4 7e be a3 16 3b bf
       -0.2319206 1.4830345 -0.24897797 -0.73081416

fc22.bias f4 [4]
000000 53 f5 e0 be 41 1a 25 bf 19 15 4d bf 2f 86 1f bf
       -0.43937168 -0.64493185 -0.8011032 -0.6231412

fc3.weight f4 [8, 4]
000000 ea 3c 5c 3d 95 88 8e 3e e7 67 f4 3e 28 0f 0f 3c
       0.05376903 0.2783858 0.4773552 0.008731641
000010 99 e5 7a 3e 90 b5 10 3f b0 8b a0 be 20 09 0c bd
       0.24501647 0.5652704 -0.31356573 -0.03418839
000020 52 2a 88 be a3 d4 4b bc 14 1e 81 be 63 72 d9 3e
       -0.26594788 -0.012440833 -0.2521826 0.42470083
000030 1d 68 23 3f 04 3b 76 be 3c 24 5a 3d ff d9 9f be
       0.6383074 -0.2404595 0.053257212 -0.31221005
000040 55 37 8e 3c 69 8a a9 3e 50 a7 da 3e 98 42 2e 3e
       0.017360369 0.3311341 0.42705774 0.17017591
000050 ae 5f 8e 3e d0 d1 a8 3d e4 32 8f bc 64 13 0c 3f
       0.27807373 0.082431436 -0.017480321 0.5471709
000060 d7 f0 28 3f 2a fe 4f be 11 a2 3c 3d 13 96 e6 be
       0.6599249 -0.203118 0.046052996 -0.45036373
000070 00 5e 0b be f3 17 ed be 5c 62 83 3e 2e dd 01 3d
       -0.13610077 -0.46307334 0.2566098 0.031705074

fc3.bias f4 [8]
000000 54 86 1d bf 01 07 96 3f a9 b0 b1 3f a3 e6 95 3f
       -0.61533093 1.1720887 1.3882037 1.171101
000010 a3 ed 9c 3f 50 91 96 3f 84 5f 80 3e 3e 18 1c bf
       1.2260021 1.1763096 0.25072873 -0.6097449

fc4.weight f4 [4, 8]
000000 a0 ab d1 3b e3 1f d6 bd 74 c1 59 be b5 f4 bf 3e
       0.006398633 -0.10455301 -0.21265203 0.37491384
000010 34 90 42 be 51 c7 8c 3f a0 a1 bc 37 2d eb 8c 3c
       -0.19000322 1.0998327 2.2486609e-05 0.017201984
000020 a5 96 6c 3c 92 b1 9f bd af 8d 51 3f 31 9e 69 bf
       0.014440213 -0.07797541 0.81856817 -0.91257006
000030 6a 88 c4 3e ea 1b 89 be cc ee 26 3f 1b e1 52 bc
       0.38385326 -0.2677911 0.65208125 -0.012871052
000040 2d 71 0c bc 2f 87 83 3f e4 90 89 be 8f c8 8d be
       -0.008571905 1.027563 -0.26868355 -0.27692077
000050 92 52 2f be 63 47 dd 3d f8 5e 9e 39 df 64 de bf
       -0.17121342 0.108046316 0.00030206866 -1.7374533
000060 37 8d c9 3f 5a a6 a9 bd 78 3a 22 bf 81 ee 4a be
       1.574622 -0.08283682 -0.63370466 -0.19817545
000070 85 39 83 3f 9f 42 85 3d c6 ae 12 3c 3f 23 e3 bc
       1.0251929 0.065068476 0.008952802 -0.027726768

fc4.bias f4 [4]
000000 52 f0 15 bf b9 74 08 3e 56 5d d2 be 3b 90 04 be
       -0.58569825 0.13325776 -0.41086835 -0.12945645
