stackedcoil/vae/cmulti_c1243_4c_v4_constraint2_vae.pt (torch, 3527 bytes, 10 tensors)

fc1.weight f4 [8, 4]
0.25075418 -0.09526295 -0.03350281 -0.06896305 0.3481137 -0.20032522 0.17688367 0.3665186
-0.4541861 0.6818704 -0.044341665 -0.15251705 -0.028785408 0.37555087 0.05810249 0.41756397
0.7220782 -0.6113511 -0.6100599 0.271725 -0.61443424 0.2811298 -0.026436526 -0.5976889
-0.52584356 0.21503283 0.32767323 0.065152556 0.4629037 0.38902402 -0.34789914 0.32470888
00000000: da62 803e 3919 c3bd 3e3a 09bd 803c 8dbd
00000010: f53b b23e 0e22 4dbe fe20 353e 53a8 bb3e
00000020: 158b e8be 0f8f 2e3f 9b9f 35bd 6e2d 1cbe
00000030: 60cf ebbc 3448 c03e e0fc 6d3d f2ca d53e
00000040: 1eda 383f 8181 1cbf e32c 1cbf 8a1f 8b3e
00000050: 904b 1dbf 3ff0 8f3e 6a91 d8bc 2402 19bf
00000060: af9d 06bf 9131 5c3e c9c4 a73e b46e 853d
00000070: b701 ed3e 282e c73e d61f b2be 3e40 a63e

fc1.bias f4 [8]
0.30586994 0.7206394 1.04856 -0.27964163 0.21735452 0.6052759 0.86113685 0.6894981
00000000: fc9a 9c3e d37b 383f 3737 863f 302d 8fbe
00000010: 2f92 5e3e 5df3 1a3f 7773 5c3f f382 303f

fc21.weight f4 [4, 8]
-0.59579116 -0.7549875 0.93716913 0.112532586 -0.8590026 0.71805626 1.0163124 -0.37383986
-0.22578637 0.17419674 0.12288359 0.19737765 0.037087664 -0.0012992574 -0.07213824 -0.08301272
-0.08203452 0.23947637 -0.10652411 0.11495224 -0.06443264 0.165225 -0.1885468 -0.1651299
-0.5955218 -0.11291454 0.25060508 -0.020421356 0.029882578 -0.1022034 -0.20208278 0.24342181
00000000: c585 18bf dc46 41bf 51ea 6f3f 7c77 e63d
00000010: 98e7 5bbf 89d2 373f 8616 823f f067 bfbe
00000020: 8b34 67be a160 323e 64aa fb3d 5e1d 4a3e
00000030: 3ce9 173d d84b aaba 37bd 93bd 9302 aabd
00000040: b701 a8bd 4b39 753e 5029 dabd 146c eb3d
00000050: 43f5 83bd be30 293e 6a12 41be d017 29be
00000060: 1e74 18bf bd3f e7bd 4f4f 803e b04a a7bc
00000070: 4fcc f43c 0450 d1bd caee 4ebe 9143 793e

fc21.bias f4 [4]
-0.04240716 -0.075868756 0.15818979 0.054310825
00000000: 21b3 2dbd 1461 9bbd 81fc 213e 0775 5e3d

fc22.weight f4 [4, 8]
-0.060922112 -0.57149035 -0.6094393 0.3139356 -0.3886273 -0.2741177 -0.77098995 -0.61048615
0.055868424 -0.01043589 0.07217093 -0.23176315 -0.0075524943 -0.18563713 0.15548626 0.015779443
0.4171977 0.093585536 0.1476564 0.25704053 -0.0146990055 0.088349834 -0.15781166 -0.035279207
0.0030403447 -0.031995747 0.27375197 0.34854826 -0.0071066115 -0.17996064 -0.023446908 0.16673593
00000000: 7789 79bd 314d 12bf 3704 1cbf 2bbc a03e
00000010: 28fa c6be 2859 8cbe 995f 45bf d248 1cbf
00000020: 4ad6 643d 4cfb 2abc 5ace 933d 5253 6dbe
00000030: ea7a f7bb a917 3ebe ca37 1f3e e443 813c
00000040: f09a d53e c6a9 bf3d 3d33 173e d19a 833e
00000050: 19d4 70bc c2f0 b43d 6199 21be ee80 10bd
00000060: 8540 473b f90d 03bd 3829 8c3e eb74 b23e
00000070: 94de e8bb 9a47 38be bb13 c0bc d3bc 2a3e

fc22.bias f4 [4]
-0.16868737 -0.12203781 -0.2406733 -0.25225735
00000000: 62bc 2cbe f6ee f9bd 1073 76be e027 81be

fc3.weight f4 [8, 4]
0.4287376 0.015283242 -0.02047504 0.032008152 -0.5372564 -0.01642461 0.0308551 -0.050710265
0.08398989 -0.077483654 0.007088566 0.010110353 -0.104057826 0.015395407 -0.021876357 0.02292347
0.11144301 0.025259208 -0.0043623573 0.009205198 0.3249778 -0.0017362628 -0.008526067 -0.006072258
-0.53015155 0.010208716 0.00062436564 0.008472885 0.0925404 -0.023196682 0.020448586 -0.01974248
00000000: 7f83 db3e 9066 7a3c 45bb a7bc fb1a 033d
00000010: a389 09bf e78c 86bc d6c3 fc3c 91b5 4fbd
00000020: e402 ac3d c0af 9ebd 3447 e83b e5a5 253c
00000030: 451c d5bd 043d 7c3c 0c36 b3bc 00ca bb3c
00000040: 3c3c e43d 66ec ce3c 1bf2 8ebb 66d1 163c
00000050: 7d63 a63e 5093 e3ba ebb0 0bbc cbf9 c6bb
00000060: 03b8 07bf 7542 273c 78ac 233a dbd1 0a3c
00000070: d285 bd3d f806 bebc cb83 a73c fbba a1bc

fc3.bias f4 [8]
-0.4610456 0.5326245 0.3484227 0.55862033 0.4347359 -0.72793466 -0.75005025 0.37798658
00000000: 2b0e ecbe 145a 083f 7664 b23e be01 0f3f
00000010: b495 de3e ed59 3abf 4b03 40bf 7587 c13e

fc4.weight f4 [4, 8]
-0.29091808 0.1718963 0.00048758532 0.089707054 -0.21096572 -0.36489904 0.22469907 -0.2774571
0.33478388 -0.20399985 -0.017872531 -0.31977457 0.054600045 0.3582744 -0.22343162 0.037602585
0.23270273 -0.13027224 0.085413426 -0.34570837 0.36970562 0.378393 -0.22647336 -0.039325792
-0.3432059 0.20981093 0.01371277 0.42505208 -0.021095015 -0.35478655 0.22323047 0.07801169
00000000: 37f3 94be 9505 303e 98a2 ff39 55b8 b73d
00000010: 6607 58be 0cd4 babe 8317 663e db0e 8ebe
00000020: cb68 ab3e 56e5 50be 6a69 92bc 7eb9 a3be
00000030: 4ca4 5f3d be6f b73e 42cb 64be 2b05 1a3d
00000040: a049 6e3e 1666 05be 3ced ae3d b000 b1be
00000050: 0e4a bd3e babc c13e a2e8 67be 1514 21bd
00000060: afb8 afbe add8 563e 87ab 603c 6da0 d93e
00000070: 74cf acbc 95a6 b5be 8796 643e 98c4 9f3d

fc4.bias f4 [4]
0.24405958 0.079802565 -0.0837389 -0.19627698
00000000: c1ea 793e 876f a33d 4d7f abbd d5fc 48be
