stackedcoil/vae/cmulti_3c_v4_constraint0_vae.pt (torch, 3527 bytes, 10 tensors)

fc1.weight f4 [8, 4]
0.26835662 0.28727198 -0.9079379 -0.02170941 0.67291814 0.7334286 -0.06919775 0.5187958
0.7180774 1.0416064 0.10299219 -0.48473418 -0.89967024 -0.018054925 -0.058611184 0.25852197
0.5069597 -0.60585755 -0.087850794 -0.3683251 0.2505811 0.37162316 0.57210463 0.23198092
-0.31022036 0.1172959 0.07480535 -0.6340116 0.3865755 -0.42162812 0.30707285 0.079229675
00000000: 0a66 893e 5015 933e 9e6e 68bf efd7 b1bc
00000010: 5d44 2c3f fac1 3b3f 8db7 8dbd cdcf 043f
00000020: ecd3 373f 5c53 853f 92ed d23d 142f f8be
00000030: ca50 66bf ece7 93bc 4812 70bd fe5c 843e
00000040: 1cc8 013f 7b19 1bbf 1eeb b3bd 1c95 bcbe
00000050: 2a4c 803e 6445 be3e 7375 123f 688c 6d3e
00000060: 34d5 9ebe d538 f03d 8c33 993d 964e 22bf
00000070: 39ed c53e a4df d7be a738 9d3e 2b43 a23d

fc1.bias f4 [8]
0.89669573 0.5577776 0.576676 1.2021928 1.4403883 0.74598694 1.0263827 1.0833236
00000000: da8d 653f 83ca 0e3f 0aa1 133f 74e1 993f
00000010: a55e b83f 00f9 3e3f 8260 833f 59aa 8a3f

fc21.weight f4 [4, 8]
0.9471039 0.49610507 -0.3395303 0.3671497 0.11187172 -0.8899728 -0.21536417 -0.401328
-0.13931097 0.18557884 -0.67675155 -0.3215432 0.8761733 -0.15919709 -0.71299237 0.45751578
0.1665224 0.8305337 0.67468977 -1.0566921 -0.05855985 -0.08455284 -0.39920732 -0.08219173
-0.19383001 0.74905646 -0.47727048 0.5266902 -0.54013586 0.5526956 -0.72238815 0.115640044
00000000: 6775 723f 7c01 fe3e ead6 adbe 0cfb bb3e
00000010: 001d e53d 42d5 63bf 6d88 5cbe dd7a cdbe
00000020: 89a7 0ebe 6108 3e3e 973f 2dbf 4fa1 a4be
00000030: e54c 603f 9004 23be ab86 36bf 823f ea3e
00000040: d984 2a3e db9d 543f 78b8 2c3f b041 87bf
00000050: 74dc 6fbd 0a2a adbd e764 ccbe 2354 a8bd
00000060: 607b 46be 2ac2 3f3f cc5c f4be 2bd5 063f
00000070: 5846 0abf 757d 0d3f 6eee 38bf b0d4 ec3d

fc21.bias f4 [4]
-0.13255906 0.19999596 -0.3057853 0.2916094
00000000: 90bd 07be becb 4c3e e48f 9cbe d44d 953e

fc22.weight f4 [4, 8]
-0.35879236 -0.20198543 0.0072268215 -0.70250386 -0.49765313 -0.46820876 -0.37206328 -0.4487319
-0.3198272 -0.22769788 0.106929675 -0.6452626 -0.33224145 -0.24756777 -0.46962023 -0.72817326
-0.18768181 -0.21206799 0.03860861 -0.5793411 -0.33980444 -0.33689433 -0.37199154 -0.14685099
-0.28942344 -0.36203906 -0.0487507 -0.862009 -0.24472307 -0.15431733 -0.22160517 -0.845837
00000000: a2b3 b7be 45d5 4ebe f9ce ec3b 4bd7 33bf
00000010: 64cc febe 0fb9 efbe 147f bebe 30c0 e5be
00000020: 64c0 a3be a229 69be f2fd da3d ee2f 25bf
00000030: 8d1b aabe 6882 7dbe 1072 f0be 9069 3abf
00000040: a92f 40be 5a28 59be 1024 1e3d b34f 14bf
00000050: d9fa adbe 6a7d acbe ad75 bebe 1b60 16be
00000060: 4f2f 94be 2f5d b9be d0ae 47bd 9fac 5cbf
00000070: af98 7abe 5d05 1ebe 77ec 62be c688 58bf

fc22.bias f4 [4]
-0.36211577 -0.6836264 -0.63147 -0.5160995
00000000: 3d67 b9be 2402 2fbf 05a8 21bf 191f 04bf

fc3.weight f4 [8, 4]
-0.12865227 0.5054212 0.6239071 -0.16216162 0.03187804 -0.8867103 0.34243172 0.2457007
-0.14709204 -0.29361972 0.32234693 -0.41662037 -0.103891544 0.38126126 -0.10904035 -0.08805058
0.08619545 -0.44918275 -0.37960595 0.15164728 0.0036987204 -0.11562116 0.3444955 0.3482341
0.62792456 -0.061873868 0.15707088 -0.1232272 0.15752093 0.21230799 0.01666995 0.71465725
00000000: 6cbd 03be 4963 013f 60b8 1f3f b20d 26be
00000010: 8c92 023d 72ff 62bf 3653 af3e f798 7b3e
00000020: 4c9f 16be 5355 96be a80a a53e 444f d5be
00000030: 17c5 d4bd ad34 c33e 8c50 dfbd dd53 b4bd
00000040: 3d87 b03d 48fb e5be b65b c2be 6d49 1b3e
00000050: 3b66 723b c9ca ecbd b761 b03e bd4b b23e
00000060: aabf 203f 746f 7dbd 30d7 203e 8b5e fcbd
00000070: 2b4d 213e 4467 593e 6b8f 883c c7f3 363f

fc3.bias f4 [8]
-0.4413937 -0.4775253 1.1778243 0.7077539 1.1364918 1.144996 1.3604842 -0.8602946
00000000: 5bfe e1be 327e f4be f2c2 963f 5c2f 353f
00000010: 9078 913f 3b8f 923f 5924 ae3f 443c 5cbf

fc4.weight f4 [4, 8]
0.9140148 0.046100058 0.15296544 0.3428826 -0.6831482 0.27353945 0.065216884 -0.032741215
0.012559625 0.9225366 0.35011396 -0.47666222 0.42620286 0.5205617 -0.010999821 0.0021127132
0.003247414 -0.0024227714 0.24522534 0.33810467 0.18980372 0.3971001 -1.0395697 -0.0016448197
-0.003510658 0.0068184333 -0.8639827 0.1540904 -0.003697155 0.8828262 0.05632249 1.2335557
00000000: e0fc 693f 6ad3 3c3d f9a2 1c3e 4f8e af3e
00000010: cde2 2ebf 5d0d 8c3e 6e90 853d a71b 06bd
00000020: e3c6 4d3c 5c2b 6c3f 2342 b33e 120d f4be
00000030: 4337 da3e 8843 053f 9838 34bc 7275 0a3b
00000040: 91d2 543b 5cc7 1ebb 5a1c 7b3e 0e1c ad3e
00000050: e85b 423e b450 cb3e 9f10 85bf fe96 d7ba
00000060: 1113 66bb 2a6d df3b f82d 5dbf e0c9 1d3e
00000070: f84b 72bb e600 623f 69b2 663d 27e5 9d3f

fc4.bias f4 [4]
0.3318002 -0.7323104 0.20707417 -0.19121084
00000000: b7e1 a93e b278 3bbf 400b 543e c6cc 43be
