stackedcoil/vae/cmulti_c1243_4c_v4_constraint0_vae.pt (torch, 3527 bytes, 10 tensors)

fc1.weight f4 [8, 4]
0.5520988 0.68546456 0.66539615 0.26821443 0.23447357 0.12326619 0.738949 -0.16691907
0.023020737 -0.8028399 0.09802707 0.004826284 -0.82056344 0.04129403 0.013080471 0.19407344
0.021469794 0.33436668 -0.42758363 -0.56734127 0.548278 0.33595577 -0.41724646 0.8794424
0.44714203 -0.023753425 -0.23619048 -0.43196222 1.2422258 -0.06988984 -0.009789236 -0.011877582
00000000: 5956 0d3f 9b7a 2f3f 6757 2a3f 6753 893e
00000010: d719 703e fc72 fc3d c32b 3d3f d5ec 2abe
00000020: fc95 bc3c ea86 4dbf 6bc2 c83d ce25 9e3b
00000030: 7210 52bf ee23 293d 794f 563c 30bb 463e
00000040: 6ce1 af3c 1c32 ab3e 3eec dabe 473d 11bf
00000050: f25b 0c3f 6502 ac3e 54a1 d5be 2323 613f
00000060: cdef e43e 8b96 c2bc ebdb 71be 272a ddbe
00000070: 4101 9f3f 6822 8fbd 0863 20bc 319a 42bc

fc1.bias f4 [8]
0.7132254 0.9141348 0.9674398 1.018009 1.0970201 1.1735606 0.9265065 -0.66750073
00000000: f195 363f bd04 6a3f 22aa 773f 1e4e 823f
00000010: 286b 8c3f 3c37 963f 882f 6d3f 54e1 2abf

fc21.weight f4 [4, 8]
-0.7355383 -0.28539336 -0.27202603 -0.2948299 0.89889747 -0.16220845 0.69806623 0.011221861
0.8232154 0.16452986 -1.1527455 0.109547794 0.71829486 -0.7465562 -0.2479704 -0.060449634
-0.2551464 -0.16651465 0.73137796 1.291127 0.2065594 -0.47830766 -0.56162727 -1.2642134
0.12075576 -0.81833225 -0.7687362 0.35871646 0.29276943 0.826721 -0.3584945 -0.084292434
00000000: 3d4c 3cbf 141f 92be ff46 8bbe f2f3 96be
00000010: 251e 663f f919 26be 78b4 323f e5db 373c
00000020: 3fbe 523f 847a 283e 2a8d 93bf 985a e03d
00000030: 2ce2 373f 4f1e 3fbf f4eb 7dbe 099a 77bd
00000040: 8da2 82be d182 2abe 963b 3b3f a643 a53f
00000050: 4f84 533e bee4 f4be cec6 0fbf bfd1 a1bf
00000060: cc4e f73d 397e 51bf e5cb 44bf afa9 b73e
00000070: e0e5 953e fda3 533f 978c b7be 83a1 acbd

fc21.bias f4 [4]
-0.06850114 0.07216238 0.29319948 -0.24763611
00000000: 534a 8cbd dfc9 933d 3e1e 963e 5294 7dbe

fc22.weight f4 [4, 8]
-0.087628804 -0.5528533 -0.52306044 -0.72723377 -0.3223492 -0.36991507 -0.46720767 0.12068593
-0.16790394 -0.38078064 -0.8688365 -0.44271946 -0.5416679 -0.39586514 -0.25829965 0.6847682
-0.066637516 -0.36506948 -0.5216513 -0.7484054 -0.55481756 -0.30703303 -0.124339834 3.1932995
-0.053173788 -0.60692376 -0.71855605 -0.5718155 -0.61844486 -0.4529034 -0.12434177 0.35248473
00000000: bb76 b3bd cb87 0dbf 4ae7 05bf fe2b 3abf
00000010: f40a a5be 8265 bdbe d835 efbe 2f2a f73d
00000020: 03ef 2bbe aef5 c2be 126c 5ebf 20ac e2be
00000030: bfaa 0abf d6ae cabe da3f 84be f84c 2f3f
00000040: 4079 88bd 63ea babe f18a 05bf 7f97 3fbf
00000050: 8608 0ebf 6f33 9dbe e2a5 febd 055f 4c40
00000060: c2cc 59bd 5b5f 1bbf 4af3 37bf 8062 12bf
00000070: 6752 1ebf f4e2 e7be e6a6 febd e178 b43e

fc22.bias f4 [4]
-0.59147614 -0.5403074 -0.7413699 -0.47596994
00000000: fb6a 17bf 9651 0abf 6bca 3dbf 55b2 f3be

fc3.weight f4 [8, 4]
-0.10597561 -0.15556337 -0.11622857 0.15098804 0.013016421 0.15972951 0.5449234 0.23635654
0.2579686 0.1612523 -0.27777615 -0.23157506 -0.16086905 -0.18858358 -0.20714672 0.3386273
0.060684342 0.74810195 -0.088744655 0.5748015 -0.5223088 0.26639953 0.0064029647 -0.4361406
-0.46711892 0.23610654 -0.17089622 -0.13234046 -0.15282074 -0.738641 0.08504018 -0.6024091
00000000: be09 d9bd 014c 1fbe 3f09 eebd 9c9c 1a3e
00000010: d442 553c 2290 233e 1a80 0b3f 7307 723e
00000020: 7614 843e 531f 253e ad38 8ebe 0322 6dbe
00000030: dbba 24be 0e1c 41be 451e 54be 8f60 ad3e
00000040: 2590 783d 9c83 3f3f c2bf b5bd 3126 133f
00000050: 08b6 05bf 8565 883e f6cf d13b d24d dfbe
00000060: 362a efbe eac5 713e 6bff 2ebe 4284 07be
00000070: 0a7d 1cbe 9417 3dbf 8c29 ae3d 7c37 1abf

fc3.bias f4 [8]
0.6786924 1.1732857 1.1254053 1.1247169 -0.27237946 -0.8326928 1.1831394 0.2029198
00000000: c9be 2d3f 3a2e 963f 480d 903f b9f6 8f3f
00000010: 5275 8bbe 5b2b 55bf 1d71 973f 35ca 4f3e

fc4.weight f4 [4, 8]
0.30906153 -0.72474694 0.45084468 0.261001 -0.06128834 0.014074095 0.00080008444 0.08765235
-0.35990086 0.04439131 -0.051530577 0.18976301 1.189328 0.002554495 0.23230894 -0.54978377
-0.69060725 0.004395207 -0.2056995 -0.25499123 -0.21299855 1.2239412 1.1591917 0.19604324
0.35841346 -0.019659076 -0.8317569 0.72925526 -0.06381473 0.009675346 0.26024273 0.060249716
00000000: 503d 9e3e 0489 39bf 1dd5 e63e eca1 853e
00000010: 7b09 7bbd 0897 663c c2bc 513a 1383 b33d
00000020: ed44 b8be aad3 353d ba11 53bd 3c51 423e
00000030: e63b 983f 5069 273b 65e2 6d3e a1be 0cbf
00000040: a3cb 30bf ab05 903b e4a2 52be 368e 82be
00000050: 4b1c 5abe 1baa 9c3f 6560 943f 8fbf 483e
00000060: f881 b73e 120c a1bc 05ee 54bf 79b0 3a3f
00000070: 4cb1 82bd 5885 1e3c 893e 853e 68c8 763d

fc4.bias f4 [4]
0.32613125 0.2981833 -0.4627236 -0.423404
00000000: adfa a63e 7bab 983e 1cea ecbe 69c8 d8be
