stackedcoil/vae/cmulti_2c_v4_constraint1_vae.pt (torch, 3527 bytes, 10 tensors)

fc1.weight f4 [8, 4]
000000 87 92 27 3e b1 99 3e 3f 48 5a db bd e0 42 1d 3f
       0.1636449 0.74453264 -0.10710579 0.6143017
000010 64 6a 89 be 53 94 ec 3e 62 5d 16 3f 8a 85 87 3f
       -0.26838982 0.46206912 0.5873624 1.0587628
000020 dc ca 13 bf 9b 36 ba 3d 22 d0 b6 be eb 0d eb be
       -0.57731414 0.090924464 -0.35705668 -0.45909056
000030 40 c3 38 bf de 5d 40 be 85 d0 56 bd c0 d9 08 3c
       -0.7217293 -0.18785807 -0.052444953 0.008352697
000040 6a 00 34 3f 55 b7 a5 3e d9 56 49 bf 86 0d f1 3d
       0.7031313 0.32366434 -0.78648144 0.117701575
000050 12 44 10 3f 53 e8 50 3f 1d b4 c8 3e e2 0e 44 bf
       0.5635387 0.816045 0.39199916 -0.7658521
000060 5d 33 67 3e 12 89 07 bf d7 43 12 3f ee 2a af 3d
       0.22578187 -0.5294353 0.57134765 0.0855311
000070 24 4e 80 be 80 17 7b be 40 e9 f2 3c 88 c3 5f 3e
       -0.25059617 -0.24520683 0.029652238 0.21851933

fc1.bias f4 [8]
000000 78 df c3 3e 20 e0 1e 3f 34 7f 7a 3f 41 1c 47 3f
       0.3825643 0.6206074 0.97850347 0.7777749
000010 9d ed 5d 3f af 20 80 3f 1f 61 97 3f 5a ef c4 be
       0.86690694 1.0009974 1.1826514 -0.3846386

fc21.weight f4 [4, 8]
000000 c1 b9 ad be 2b 73 7f be e4 0d 18 bf 5f 21 5c be
       -0.3393078 -0.24946277 -0.59396195 -0.21497105
000010 bd 8e 39 3e 78 45 87 be 59 c9 a9 3f e0 a9 7e 3d
       0.18120857 -0.26420188 1.3264571 0.062173724
000020 f8 52 e6 be ce 70 7c 3d c6 9f 29 3f 58 b4 94 3f
       -0.44985175 0.061631016 0.6625942 1.1617537
000030 b6 6e 46 bf 19 85 e3 bd cd 7d 47 3f 40 34 cf bb
       -0.7751268 -0.11109371 0.7792633 -0.0063233674
000040 6c fe b5 3e 97 63 11 3f 35 60 29 be 2f 49 ba 3e
       0.3554567 0.5679259 -0.16540606 0.3638396
000050 f2 90 ea 3e e1 a1 a8 bf a0 93 1e be 9c ce 02 be
       0.4581371 -1.3174402 -0.15486002 -0.12774128
000060 63 b5 eb 3e ee 25 a7 3f 94 23 2c bf 59 ca a8 bd
       0.46036825 1.305845 -0.6724179 -0.0824172
000070 49 65 39 bf 47 87 59 3f b3 4c ad 3e 9a dd 1f 3e
       -0.72420174 0.8497204 0.3384758 0.15611878

fc21.bias f4 [4]
000000 d3 16 0c 3f 00 ca f6 3c e0 bb 59 3d 38 f3 0f bf
       0.54722327 0.030125618 0.053157687 -0.562305

fc22.weight f4 [4, 8]
000000 62 54 bc bd 74 67 a3 bc 01 76 6c be f0 78 3a bf
       -0.09195782 -0.019946791 -0.2309189 -0.72840786
000010 41 4e 3a bf c9 b4 19 be 6a 39 b7 bf 37 64 96 3e
       -0.72775656 -0.1501037 -1.4314396 0.29373333
000020 83 84 af be 18 ee 8b bd 2c cb 18 bf e3 e3 d4 be
       -0.34280786 -0.06832522 -0.59685016 -0.41580114
000030 a7 2d 9d be 79 2e 93 be 88 f8 0f bf 00 c5 31 3d
       -0.30698892 -0.28746393 -0.56238604 0.043400764
000040 5c 46 78 3e 93 b4 ff 3d 02 d8 3d bf 28 f0 02 bf
       0.2424559 0.12485614 -0.74157727 -0.511477
000050 d6 36 c4 be 80 86 28 bf 53 8e 6e bf 30 47 78 be
       -0.38323087 -0.6583023 -0.9318592 -0.24245906
000060 d1 72 63 bc 7d 15 4f bf 37 5c 40 3e 2e 6d 23 bf
       -0.013882355 -0.80892164 0.18785177 -0.6383847
000070 a3 56 6d bd 2d d2 b5 be 61 b9 76 bf a5 b2 1e be
       -0.05794395 -0.35511914 -0.96376616 -0.15497835

fc22.bias f4 [4]
000000 3c cb 03 bf c8 c7 f3 be 68 15 e8 bd 13 16 89 be
       -0.51481986 -0.47613358 -0.11332208 -0.26774654

fc3.weight f4 [8, 4]
000000 1c d4 43 be ae 8e 14 3f c7 24 4d 3e f9 5a f6 3b
       -0.19123882 0.5803021 0.2003356 0.007518169
000010 94 aa aa be 82 3d 7e be 0d 77 b4 3d 9d a3 06 bf
       -0.33333266 -0.24828151 0.0881177 -0.52593404
000020 13 79 d9 3e f5 b1 9c be 71 a3 ae bd 8d cd 82 3b
       0.42475185 -0.3060452 -0.08527268 0.0039917887
000030 34 ae fe 3c bc 66 86 3e bc 0c 34 bf 64 0b 65 3d
       0.031088926 0.26250255 -0.7033193 0.055919066
000040 1c 61 13 3c d8 b8 8d be b2 bb 1a 3e e5 73 5b 3e
       0.008995321 -0.27680087 0.15110663 0.21430929
000050 cf 88 6b bf 07 1c 8e be b0 dd 55 be 55 70 92 3e
       -0.9200563 -0.27755758 -0.20885348 0.28601328
000060 02 b1 4b 3e ff a4 3d 3e 2c 53 80 3e d0 53 67 3f
       0.19891742 0.18519972 0.25063455 0.9036226
000070 88 bc 81 3f b6 80 c3 3d 9e 57 07 3e f8 68 0a be
       1.013566 0.09546034 0.13217017 -0.13516605

fc3.bias f4 [8]
000000 8a a1 8f 3f e7 f2 d8 3e e6 c0 eb be 11 52 dd 3e
       1.1221173 0.4237282 -0.46045607 0.43226674
000010 9e ba 8b 3f ae 88 a9 3d 9c 51 e4 3d 36 77 0b 3f
       1.0916326 0.08278023 0.11148378 0.54478776

fc4.weight f4 [4, 8]
000000 11 2a 3d bf e1 ca 2c bd cc 7c 69 3f b6 62 70 3d
       -0.73892313 -0.042185668 0.9120605 0.058687888
000010 e0 4f 1b 3e 91 41 72 bd ab 7a a2 ba 07 87 a1 3e
       0.15167189 -0.05914456 -0.0012396177 0.3154833
000020 dd 59 bb bd 9e 67 05 3e 96 1a d0 bd 35 cc 32 3e
       -0.091479994 0.13027808 -0.10161321 0.17460711
000030 1a 9a b2 3e 42 f1 5f 3f 09 2f a8 3d e7 ed 05 bf
       0.34883195 0.87477505 0.08212096 -0.52316135
000040 66 62 62 be f4 cd 0a bf a4 98 51 3e 34 47 9a 3e
       -0.22107849 -0.5422051 0.20468384 0.3013245
000050 0e eb 18 bf e5 b1 53 bd 73 a6 12 3f b3 ce 61 3c
       -0.59733665 -0.051683325 0.5728523 0.013782191
000060 c4 d3 90 3d 9e 5a 25 bd eb 80 70 3c 7b a7 0e bf
       0.07071641 -0.040369622 0.014679174 -0.55724305
000070 35 9d 8b 3e 97 12 16 bd 47 1f 4e 3e 5c ab da 3d
       0.27268377 -0.036638822 0.20129119 0.106772155

fc4.bias f4 [4]
000000 d0 c6 27 3f 02 01 fa 3e 71 b8 0c be f0 1f 4a 3c
       0.6553774 0.48828894 -0.13742234 0.012336716
