stackedcoil/vae/cmulti_c1243_3c_v4_constraint2_vae.pt (torch, 3527 bytes, 10 tensors)

fc1.weight f4 [8, 4]
0	0x3e68b008	0.227234
1	0x3f1f9a25	0.6234458
2	0xbed02fec	-0.4066156
3	0x3ee3b87d	0.4447669
4	0xbea55cf9	-0.32297495
5	0xbef49171	-0.47767213
6	0xbdd67454	-0.104714066
7	0xbea91c89	-0.33029583
8	0x3dd3aaad	0.10335288
9	0xbef8fca2	-0.48630244
10	0x3ec53116	0.38514012
11	0x3c64143e	0.013920842
12	0x3ea738f2	0.32660633
13	0xbebb89d4	-0.36628592
14	0xbeb05e04	-0.34446728
15	0x3de3d5d3	0.11124768
16	0x3ef15af3	0.471397
17	0x3ef6a2b2	0.48171002
18	0xbf47b8fc	-0.7801664
19	0x3e2554e4	0.16145664
20	0x3f4ccd7d	0.8000105
21	0x3f197393	0.5994198
22	0xbe51ab66	-0.2047554
23	0x3f4b9781	0.7952805
24	0xbf489337	-0.7834963
25	0xbdfd9829	-0.12382538
26	0x3ef2daea	0.47432643
27	0xbe147c96	-0.14500651
28	0xbe86db73	-0.263393
29	0x3e8604c4	0.2617551
30	0x3ea2a1cc	0.31764066
31	0x3f015581	0.50521094

fc1.bias f4 [8]
0	0x3f0999e7	0.5375046
1	0x3e921aa3	0.28535947
2	0xbea4bf53	-0.3217722
3	0xbed7f84c	-0.42181623
4	0x3ec86929	0.3914273
5	0x3f36bcaa	0.7138163
6	0x3e5b7825	0.2143255
7	0x3e9003e2	0.28127962

fc21.weight f4 [4, 8]
0	0x3d176448	0.03696087
1	0xbe803acb	-0.25044855
2	0xbe6aa2b4	-0.22913629
3	0x3eb7ccbf	0.35898396
4	0xbe9185cf	-0.284224
5	0x3dab03fa	0.08350368
6	0x3e8233ae	0.25430053
7	0xbcbaa338	-0.022782907
8	0x3ead56a6	0.3385517
9	0x3c8af194	0.016960897
10	0xbd1fa2c2	-0.038973577
11	0xbea638f6	-0.32465333
12	0xbdc0fdd2	-0.094234124
13	0xbe26faf6	-0.16306672
14	0xbb426322	-0.0029661139
15	0xbe4cd488	-0.20002949
16	0xbf22c9ea	-0.63589346
17	0x3e5e0e0b	0.21685044
18	0x3ec10043	0.37695512
19	0x3ced357f	0.028956173
20	0xbed59f64	-0.41723168
21	0xbf72b202	-0.9480287
22	0xbeeb3138	-0.45935988
23	0xbe30d7e9	-0.17269863
24	0xbd978106	-0.07397656
25	0x3e2096e4	0.1568256
26	0x3db7107d	0.08938692
27	0x3e7549b6	0.239539
28	0xbe801e95	-0.25023332
29	0xbd39bbd2	-0.045345135
30	0xbeddf159	-0.43348196
31	0xbdfd6070	-0.123719096

fc21.bias f4 [4]
0	0x3d1cdd0a	0.038296737
1	0x3b18b617	0.0023301893
2	0x3e66ba36	0.22531971
3	0x3ec5454c	0.38529432

fc22.weight f4 [4, 8]
0	0x3e9980f7	0.29981205
1	0xbe8975d8	-0.2684772
2	0x3e6f0683	0.23342328
3	0xbc4c9b84	-0.01248825
4	0xbdbd181b	-0.092331134
5	0xbe00508c	-0.12530726
6	0x3e83a220	0.2570963
7	0xbda86cd1	-0.0822388
8	0xbd874aaf	-0.06606042
9	0xbe29b672	-0.16573504
10	0x3e4c66cd	0.1996109
11	0xbcc42fbc	-0.023948543
12	0x3e675d3f	0.22594164
13	0xbd47aab5	-0.048746783
14	0x3dd49e2c	0.103817314
15	0xbeb584d8	-0.35452914
16	0xbe7184bd	-0.23585792
17	0xbe96de85	-0.29466644
18	0x3d6f901f	0.058487054
19	0x3e99f027	0.30066034
20	0xbf480973	-0.7813942
21	0xbe97a6fa	-0.2961958
22	0x3e9d56ad	0.3073019
23	0xbda60b4d	-0.08107624
24	0xbe865d0a	-0.26242858
25	0xbea9be06	-0.3315279
26	0x3defc880	0.11708164
27	0x3d6d25ca	0.057897367
28	0x3ea217bd	0.31658736
29	0xbdd8598d	-0.105639555
30	0x3ea3d886	0.32001132
31	0xbe4f7d14	-0.20262557

fc22.bias f4 [4]
0	0xbe1d20c1	-0.15344526
1	0xbd2d5625	-0.042318482
2	0xbe4fd47a	-0.20295897
3	0xbde9eabe	-0.11421727

fc3.weight f4 [8, 4]
0	0x3dae651e	0.0851538
1	0x3da9b3ec	0.082862705
2	0xbe8d585a	-0.2760647
3	0xbe980177	-0.29688618
4	0xbd2ed432	-0.042682834
5	0xbc44d964	-0.012014721
6	0xbf1bab98	-0.60808706
7	0xbd4cfc7f	-0.050045487
8	0x3de4af71	0.11166275
9	0x3d8843fa	0.066535905
10	0x3e53c748	0.20681489
11	0xbdda1088	-0.10647684
12	0xbcc24c84	-0.023718126
13	0x3a803bba	0.0009783425
14	0xbf2b98cb	-0.6703002
15	0xbdc61095	-0.096711315
16	0x3d856d93	0.0651504
17	0x3d3616ac	0.044455215
18	0x3dedc59c	0.116099566
19	0xbda4f3a6	-0.08054285
20	0xbdf5d99e	-0.12004398
21	0xbdcbf4e3	-0.09958818
22	0x3d7a41e4	0.061097994
23	0x3e8459ed	0.25849858
24	0xba49a789	-0.0007692506
25	0xba23e12b	-0.0006251509
26	0x3cbf70b4	0.02336917
27	0x3c365704	0.011129145
28	0xbe0b751b	-0.13618891
29	0xbe63071b	-0.2217068
30	0xbeb34b09	-0.35018185
31	0x3e415703	0.18880849

fc3.bias f4 [8]
0	0x3f2f489d	0.68470174
1	0xbff93d4f	-1.9471835
2	0x3ed27141	0.4110203
3	0xbfd56dd9	-1.6674148
4	0x3f9ac528	1.2091417
5	0x3f612f6a	0.87962973
6	0x3fe77cdc	1.8084979
7	0x3e4294e1	0.19002105

fc4.weight f4 [4, 8]
0	0xbad7b51b	-0.0016457172
1	0x3fd9ae19	1.7006255
2	0xbbb645f6	-0.005562539
3	0x3e1a0184	0.1503964
4	0x3d82a642	0.063793674
5	0x3cf80612	0.030276332
6	0xbeae6340	-0.34060097
7	0xb8d37b0f	-0.000100841855
8	0xbd9dda93	-0.07707705
9	0x3fc4347b	1.5328516
10	0x3e7a298d	0.24429913
11	0x3f8f79b5	1.1209017
12	0xbf0b6f6b	-0.54466885
13	0xbdff6be4	-0.124717504
14	0xbf029d31	-0.51021105
15	0xbc9278e1	-0.017879905
16	0xbd419797	-0.047263708
17	0xbfaf389e	-1.3689153
18	0xbeb0bff8	-0.3452146
19	0xbf96ff12	-1.1796591
20	0x3f1b1286	0.6057514
21	0xbd8766ef	-0.0661143
22	0x3f24bbad	0.6434887
23	0x3d8ea9e6	0.06965999
24	0xbeaf6d64	-0.34263146
25	0x3fa91ef7	1.3212575
26	0xbbff3f10	-0.0077895
27	0x3fa98103	1.3242496
28	0xbed94a24	-0.42439377
29	0xbefd9232	-0.495256
30	0xbef8138f	-0.48452422
31	0x3cfe006d	0.031006062

fc4.bias f4 [4]
0	0xbe29793c	-0.16550153
1	0xbefaacf1	-0.4896007
2	0x3eddc903	0.43317422
3	0xbd6266d4	-0.055273846
