stackedcoil/vae/cmulti_c1243_3c_v4_constraint1_vae.pt (torch, 3527 bytes, 10 tensors)

fc1.weight f4 [8, 4]
00000000: f89e 17be e836 da3d f855 5c3e 20f5 2e3d
00000010: 5abc 213f 80e0 0dbf 6238 92be c57d 38bf
00000020: 0ca5 633f 9e09 c23e a93b 9d3c 0a48 913e
00000030: f6f8 3f3d cc29 35bd 9f32 b6bf 3859 043e
00000040: 8c2e 3a3e dbdb 993f 4139 2e3f 00a5 60bf
00000050: b2a5 25bd f6fb ffbe 9433 da3e 3307 4e3f
00000060: bb3a b1be 8eb3 fd3e 791a 3cbf b7da 63be
00000070: 38c5 583f 2b09 1e3f fca8 023c ef59 f23e
-0.14806736 0.10655004 0.2151717 0.04271424 0.63178027 -0.55420685 -0.28558642 -0.7206691
0.88923717 0.37897962 0.019193487 0.28375274 0.046868287 -0.044229314 -1.4234198 0.12924659
0.18181819 1.202022 0.6805611 -0.8775177 -0.040441222 -0.49996918 0.42617476 0.80479735
-0.3461512 0.49551052 -0.73477894 -0.22251402 0.8467593 0.6173274 0.007974859 0.4733424

fc1.bias f4 [8]
00000000: a2bc f0be 0ef9 923f 2fb5 f93e af30 38bf
00000010: c2ba 903f 7a67 ab3f d1a9 793f 8837 133f
-0.47018915 1.1482255 0.48771045 -0.71949285 1.1306994 1.3390954 0.97524744 0.5750661

fc21.weight f4 [4, 8]
00000000: 608b 57bd 0b68 9d3f 843d 9c3d b954 6fbe
00000010: 3a74 68bd c2e3 1f3f 6895 0dbf 47c0 3cbf
00000020: 78d1 0bbd a422 01bf 58a9 f9bd 265b cdbf
00000030: d265 9b3f 7a33 1e3f a449 82be 8979 f1be
00000040: 6f95 933e e9a1 b9be d4c4 fa3e 6dc3 bbbe
00000050: 2e92 28bf 722b 953f 4684 8ebe 1755 1b3f
00000060: fe3c 81be cfe6 fbbe f37a 2dbf caf4 c03c
00000070: b6e9 38be 1396 273f 442d 033f 9427 5dbf
-0.052623153 1.2297376 0.07628921 -0.23372163 -0.056751467 0.62456906 -0.553061 -0.7373089
-0.03413531 -0.5044348 -0.12190503 -1.6043441 1.2140448 0.61797297 -0.25446808 -0.47163036
0.28824946 -0.3625634 0.48978293 -0.36672536 -0.6584805 1.1653883 -0.27835292 0.6067671
-0.25241846 -0.4919953 -0.6776573 0.023554225 -0.18057904 0.6546337 0.51240945 -0.86388516

fc21.bias f4 [4]
00000000: fe36 ccbd 0c18 ef3d 2ebd 94bb 6a65 1e3f
-0.099714264 0.116745085 -0.0045391535 0.61873496

fc22.weight f4 [4, 8]
00000000: fabc 503e 7ece 7cbf 240f c23e 4e66 3e3e
00000010: 8b09 b4be b650 8cbf 2190 4bbe e889 7abd
00000020: 1ecd 493e 5bb8 51be 28dd 053f de45 d43f
00000030: d9d7 9ebf b7fa c1bf 7ac0 613e 0b0a 1b3e
00000040: 6bf9 9bbe 329b aabe 13b8 0d3f 9dff c7be
00000050: bfdd 0ebf 19fe 79bf 165e eebe 5b00 55be
00000060: 91fc 42be 3712 b6be 57a3 6c3e 5490 29bf
00000070: a114 f2be 06d4 83bf fe1f fcbe ad1d 80be
0.20384589 -0.9875258 0.37902176 0.18593714 -0.3516353 -1.0962131 -0.198792 -0.061166674
0.19707152 -0.20480482 0.5229058 1.6583822 -1.2409621 -1.5154637 0.2204608 0.1514055
-0.30463728 -0.3332153 0.55359 -0.39062205 -0.5580711 -0.9765335 -0.46556157 -0.20800917
-0.19041659 -0.35560772 0.23109184 -0.6623585 -0.47281364 -1.029908 -0.49243158 -0.2502264

fc22.bias f4 [4]
00000000: 5b2c 2bbf bf3b d9be 8124 a5be fa9a e3bd
-0.66864556 -0.42428395 -0.32254413 -0.11113544

fc3.weight f4 [8, 4]
00000000: 3af2 b23e 3c4e 063e ccd7 1dbe faf5 403f
00000010: e463 bdbd 6876 0abe 34dc 73be 4e5e 6a3d
00000020: 0e14 393f 21eb 67bd f9a5 693d 8fe1 a03d
00000030: d980 aebc 314e 3a3f d2d3 56be 4dd6 ad3d
00000040: ddcc a8bd 9458 173d b700 dfbe 176c 93bd
00000050: 732e 693f 71b7 433d 7c25 07be 61a4 cebe
00000060: b3be 60be da1a 7a3d fdc8 84bd 12d1 ed3d
00000070: 8b92 b3be e534 8c3b b37d 1b3d 0480 3dbf
0.3495043 0.13115782 -0.15414351 0.7537533 -0.09247568 -0.13521731 -0.2381447 0.057218842
0.72296226 -0.05662072 0.05704305 0.07855522 -0.021301674 0.7277556 -0.2097924 0.0848814
-0.082421996 0.03694971 -0.43555233 -0.07198351 0.910865 0.047782365 -0.13197893 -0.40359786
-0.21947746 0.061060764 -0.06483648 0.116121426 -0.3507274 0.0042787665 0.037961673 -0.7402346

fc3.bias f4 [8]
00000000: ca64 67be 4bf5 a33f b859 39be 6ebb 023d
00000010: 1b69 b23f e540 2b3f de01 663f daa2 263f
-0.22597042 1.2809232 -0.18100631 0.031917028 1.3938326 0.66895896 0.898466 0.6509224

fc4.weight f4 [4, 8]
00000000: ba19 11be 5a20 87be 44b2 71bd 1482 11be
00000010: db24 d53c fe5e 823e a29b 04bf da47 f03e
00000020: b655 5cbe 546b 96be 5a77 123f 3e1c 1a3e
00000030: ae95 0a3f 8bec 1ebf ec4c e03e 48a8 1e3f
00000040: f56f fd3c 2c7f 99bf 3080 13bd 992d 3e3f
00000050: 805b 9abe ebba 993e a9f1 443e 42c5 babc
00000060: 4507 26bd fba3 42be d434 aabd 3840 babd
00000070: 4b81 48bf 3189 81be 081d b83e aeae b23d
-0.1416997 -0.2639187 -0.059007898 -0.14209777 0.02601855 0.25463098 -0.51799977 0.46929818
-0.21517071 -0.2937876 0.57213366 0.15049836 0.54134643 -0.62079686 0.43808687 0.61975527
0.030937174 -1.1991935 -0.03601092 0.74288327 -0.30147934 0.3002542 0.19232811 -0.022799138
-0.040534277 -0.19007866 -0.083108574 -0.0909428 -0.78322285 -0.2529998 0.3595965 0.08724724

fc4.bias f4 [4]
00000000: d731 b13e 08b2 efbd 4379 243e 921e 9b3f
0.34608337 -0.11703879 0.16061883 1.2118704
