stackedcoil/vae/cmulti_c1243_4c_v4_constraint3_vae.pt (torch, 3527 bytes, 10 tensors)

fc1.weight f4 [8, 4]
-0.0783799 -0.6437932 0.08961365 0.42849135 -0.72195303 0.18226862 0.45034668 -0.4470202
0.64039207 -0.28542578 -0.37691328 0.66736376 -0.18363377 -0.018669758 0.17369668 0.16997956
-0.26762605 0.053327695 0.50176567 0.25393248 -0.48539442 0.51295376 0.09803702 0.0316023
0.4037485 -0.7711684 -0.43572164 0.8256002 -0.25060478 0.015073819 0.053593457 -0.25663027
00000000: a485 a0bd a2cf 24bf 5d87 b73d 3863 db3e
00000010: ead1 38bf a0a4 3a3e d793 e63e d5df e4be
00000020: bcf0 233f 5423 92be c7fa c0be 5ad8 2a3f
00000030: 7e0a 3cbe 52f1 98bc 8bdd 313e 1f0f 2e3e
00000040: 4806 89be 246e 5a3d b773 003f 7003 823e
00000050: 9e85 f8be f050 033f a2c7 c83d 6a71 013d
00000060: 20b8 ce3e 4b6b 45bf e816 dfbe 895a 533f
00000070: 454f 80be 2ef8 763c d084 5b3d 0b65 83be

fc1.bias f4 [8]
1.0536631 -1.2629775 -0.66841936 1.0161629 0.6886417 -0.8741413 -1.9026103 -0.5961774
00000000: 6fde 863f 3fa9 a1bf 881d 2bbf a011 823f
00000010: d34a 303f b9c7 5fbf bc88 f3bf 159f 18bf

fc21.weight f4 [4, 8]
0.10016952 0.06981878 0.0065532327 -0.1844081 0.217935 -0.17210229 0.008493273 0.13291465
0.6568849 -0.5354137 0.12315162 -0.5825174 -0.74906534 -1.1976225 0.6542973 -0.15182382
-0.20534801 0.0007187073 0.07324182 0.46087363 -0.7319096 0.92086977 -0.6917797 -0.15948416
-0.018382847 0.09499848 -0.0183672 -0.0147263715 -0.028422035 -0.24344519 0.042238772 0.01875579
00000000: ad25 cd3d 26fd 8e3d 80bc d63b 7ad5 3cbe
00000010: 5a2a 5f3e 953b 30be 5e27 0b3c c71a 083e
00000020: 9c29 283f df10 09bf eb36 fc3d dc1f 15bf
00000030: bfc2 3fbf b24b 99bf 0780 273f b477 1bbe
00000040: c046 52be a167 3c3a cfff 953d a1f7 eb3e
00000050: 6d5e 3bbf 1fbe 6b3f 7918 31bf d14f 23be
00000060: a097 96bc 908e c23d cf76 96bc e146 71bc
00000070: 54d5 e8bc b249 79be 9002 2d3d bea5 993c

fc21.bias f4 [4]
-0.07544019 0.3512212 0.26621523 0.05488273
00000000: 6380 9abd 44d3 b33e 5d4d 883e b7cc 603d

fc22.weight f4 [4, 8]
-0.10937681 0.001390401 0.0044785924 0.048801918 -0.18453842 -0.0147984205 0.0025626037 0.1831787
-1.2137084 5.1036677 1.3044097 -2.438951 -1.0665594 2.9825811 2.4519851 -0.1862378
0.3500145 0.6207235 -0.49856827 -0.39657158 0.3267701 -0.5606367 0.8724128 0.23249863
0.10750863 -0.041930202 -0.0018946932 0.124729015 0.14015916 0.13109532 0.013928021 -0.06254063
00000000: f300 e0bd 1e3e b63a 28c1 923b 85e4 473d
00000010: a4f7 3cbe 1375 72bc 5bf1 273b 3293 3b3e
00000020: cc5a 9bbf 3f51 a340 e6f6 a63f c617 1cc0
00000030: 0585 88bf 9ce2 3e40 53ed 1c40 1fb5 3ebe
00000040: 1a35 b33e bce7 1e3f 5744 ffbe 6e0b cbbe
00000050: 694e a73e e385 0fbf 7256 5f3f 1f14 6e3e
00000060: 7c2d dc3d 01bf 2bbd 5b57 f8ba ed71 ff3d
00000070: e285 0f3e da3d 063e 5b32 643c 4d15 80bd

fc22.bias f4 [4]
0.19281898 -1.4130468 -0.16553338 -0.34480074
00000000: 5772 453e b8de b4bf 9581 29be b989 b0be

fc3.weight f4 [8, 4]
-0.0014831391 -0.46764532 0.032261893 0.0026420744 -0.000764041 -0.8854377 -0.04198931 0.0007682672
-0.005056532 1.0326967 -0.055174414 0.0061891587 0.012003501 1.0931073 0.0126997335 0.0058622984
0.01325049 0.6901072 -0.3358843 -0.013213638 0.00919167 -0.9964539 0.008487777 0.004323946
0.002334636 0.6632097 0.013369024 -0.0018044978 -0.0018204947 -0.7124086 0.03481528 0.0027545819
00000000: e465 c2ba 356f efbe 0c25 043d a726 2d3b
00000010: ec49 48ba 0cac 62bf fcfc 2bbd 8a65 493a
00000020: 44b1 a5bb 682f 843f 91fe 61bd 6dce ca3b
00000030: 55aa 443c f1ea 8b3f 8b12 503c 8618 c03b
00000040: 9518 593c deaa 303f 07f9 abbe 047e 58bc
00000050: a998 163c 9a17 7fbf 5110 0b3c e3af 8d3b
00000060: b100 193b 1cc8 293f c009 5b3c e684 ecba
00000070: aa9d eeba 6960 36bf 789a 0e3d 3786 343b

fc3.bias f4 [8]
0.5842965 0.59756726 -0.97540355 -0.77083534 -1.3201188 -0.62236804 0.9208331 0.76873404
00000000: 7594 153f 2bfa 183f 0cb4 79bf 7755 45bf
00000010: a7f9 a8bf 8353 1fbf b8bb 6b3f c1cb 443f

fc4.weight f4 [4, 8]
-0.07888369 -0.38354692 0.64308846 0.91257995 0.16960368 -0.59106237 0.31673095 -0.48407608
0.42501187 0.26582184 -0.5776545 -0.8276793 -0.3952108 0.62961864 -0.60618687 0.13535458
0.48782367 0.43082505 -0.58203846 -0.90538347 -0.06107183 0.5521527 -0.31161535 0.16121161
-0.19992246 -0.31902322 0.63908535 0.8899177 0.32468373 -0.6310408 0.4623128 -0.3515131
00000000: c68d a1bd 4360 c4be 72a1 243f d79e 693f
00000010: 96ac 2d3e dd4f 17bf 8f2a a23e d2d8 f7be
00000020: 289b d93e cd19 883e 2ae1 13bf cae2 53bf
00000030: 1259 cabe b02e 213f 102f 1bbf 649a 0a3e
00000040: 06c4 f93e 1a95 dc3e 7900 15bf 36c7 67bf
00000050: 7526 7abd e159 0d3f 0c8c 9fbe a814 253e
00000060: 79b8 4cbe 0357 a3be 199b 233f a5d1 633f
00000070: f23c a63e e48b 21bf 43b4 ec3e 86f9 b3be

fc4.bias f4 [4]
0.41116193 -0.0038480216 -0.42813122 0.20406112
00000000: d183 d23e 172f 7cbb 0434 dbbe 66f5 503e
