stackedcoil/vae/cmulti_4c_v4_constraint1_vae.pt (torch, 3527 bytes, 10 tensors)

fc1.weight f4 [8, 4]
00000000: a43e 2b3f 0c6a 8f3e 49a1 09bf 279b 793d
00000010: 8d03 f1be d283 4b3e 6651 803c e299 873e
00000020: bb1c 1d3f 3923 bf3e bee7 2e3f 34ba 6a3f
00000030: 45dd c53e b28d 3b3f a2e5 213e 2578 7bbf
00000040: 9fe3 b73f d420 2cbf 982e 4abd 4aaf c8bd
00000050: 3c18 733e 658d efbd aef5 423e 8a78 46bf
00000060: b607 fd3d 44d9 b4be 8fcc 95bf f65f 8d3f
00000070: 57f7 b4be 676e 3abf ffde 7b3e bc10 8bbe
0.66892457 0.28010595 -0.53761727 0.06093898 -0.47073022 0.19874504 0.015663814 0.2648459
0.61371964 0.3733156 0.6832236 0.91690373 0.38645378 0.73263085 0.15810254 -0.982302
1.436634 -0.6723759 -0.04936084 -0.09799059 0.23739713 -0.11696891 0.19039032 -0.7752768
0.12354986 -0.3532201 -1.1703051 1.104491 -0.35344955 -0.7282471 0.24596785 -0.27161205

fc1.bias f4 [8]
00000000: 1193 613f fa06 853f 8359 773f edb5 323f
00000010: 43fe 65bf b04c 803f 9d11 87be 6753 973f
0.8811503 1.0392754 0.9662096 0.69808847 -0.898411 1.0023403 -0.26380625 1.1822327

fc21.weight f4 [4, 8]
00000000: 77e5 88bf a387 6f3e 8597 5b3f 2132 053f
00000010: b8f5 b2bd 86c0 683e f1eb 6ebf 6351 823f
00000020: a268 eabe a9fd 693f 0d8b 39be a5a3 b93e
00000030: e82d a3be 06d8 31bf 9bac 913b 7905 acbe
00000040: 215d e73d f006 23be 4cc1 843e ff41 cb3f
00000050: 2631 173f fa74 bf3d 3eaf 70bd c932 c2bf
00000060: 7866 48be 256d aa3e 45bc c3bf 0bc1 413f
00000070: 574c cabe da4a 023f 6744 9cbc a543 823e
-1.0695027 0.23391585 0.85778075 0.52029616 -0.087382734 0.22729692 -0.9332877 1.0181087
-0.45782954 0.9140268 -0.1811945 0.36257663 -0.3187096 -0.6947025 0.004445625 -0.33597925
0.1129706 -0.15920615 0.25928724 1.5879515 0.5905937 0.093484834 -0.058760874 -1.5171748
-0.19570339 0.33286396 -1.529183 0.75685185 -0.39511368 0.50895464 -0.019075586 0.25442234

fc21.bias f4 [4]
00000000: ae9c fcbe 9d3c d53e 3322 0ebf 959d 1d3c
-0.49338287 0.41647807 -0.55520934 0.00962009

fc22.weight f4 [4, 8]
00000000: fc84 8b3e 3fff 2dbf 7896 dbbe 98ee 36bf
00000010: 890f aa3d a2bd 0abf 686d a73f 9da5 5cbf
00000020: 6b8f 6abf 6170 6abf 5d4e f4be feda 49be
00000030: 49df e43f fa20 3fbf b677 d6be 7a94 67bf
00000040: b23b 2bbf 2712 3d3d 1e4d 7ebe 4c13 e53e
00000050: 4bb7 f23f ebc7 73bf 5001 f4bb 9564 23bf
00000060: a997 0cbf f126 3fbf 59ec 29bf 9bf7 b33d
00000070: 752e 803e 74e7 92be fc27 be3b c53b d8be
0.27249897 -0.679676 -0.42888236 -0.71457815 0.08303744 -0.54195607 1.3080263 -0.86190206
-0.9162509 -0.91577727 -0.47716036 -0.19712445 1.7880641 -0.74659693 -0.41888207 -0.9046093
-0.6688796 0.04615989 -0.24834105 0.44741285 1.8962187 -0.95226926 -0.0074464455 -0.6382535
-0.54918915 -0.74668795 -0.6637626 0.08787461 0.25035444 -0.2869221 0.0058031064 -0.422331

fc22.bias f4 [4]
00000000: d00e 09bf fa7c d3be 4b3d 1ebf aac2 57bc
-0.5353823 -0.41306287 -0.61812276 -0.01316897

fc3.weight f4 [8, 4]
00000000: 549c 543f 2440 fd3e 70e7 703e ff5d 993e
00000010: c5a9 20be b7f3 a13f abe8 f93e f6a1 1ebe
00000020: b96e 843d bc7a afbe ca90 a53e 2311 1b3d
00000030: 8911 39bf 3c3c 193d 253f 6abe a94b fdbe
00000040: c09e 743e 5ffa 89bf 2961 dcbe 6c11 2e3e
00000050: 51b0 983e d4e9 4c3d 2b90 a8bd ed4e 1fbf
00000060: 2c06 89bf b51c 1abf 9a97 b7be b37b c3be
00000070: 0133 38bd 8af6 ff3e 9a50 48be e7f7 183e
0.8305104 0.49462998 0.23525786 0.29954526 -0.15689762 1.2652501 0.48810324 -0.1549147
0.06466431 -0.34273326 0.32337028 0.03785814 -0.7229238 0.03741096 -0.2287565 -0.49471787
0.23888683 -1.0779532 -0.43042877 0.16998833 0.2982202 0.050027683 -0.08230623 -0.62229806
-1.0705009 -0.60200053 -0.3585785 -0.38180313 -0.044970516 0.49992782 -0.19561997 0.14938317

fc3.bias f4 [8]
00000000: 1602 cf3c f9dc 49be 6313 943f 3399 31be
00000010: 7bd4 4f3d b965 163f 6f91 91bd 5701 5a3f
0.02526955 -0.197132 1.1568416 -0.17343597 0.050739747 0.58748966 -0.071078174 0.85158294

fc4.weight f4 [4, 8]
00000000: 35a9 9ebe 5789 78be e6e1 613f cc17 84bd
00000010: b4cd 363e 2040 1f3e f5bf 463e 68f9 0bbf
00000020: cfcc 043e a408 693f 366b 373e 2de8 883d
00000030: 261b 15bf 998f cc3b ae16 0fbe 609e 193e
00000040: 81f6 2e3f 545f 47be e366 60be c5f0 303f
00000050: 60b6 1b3e 1e48 c63e c53d f7be 40e2 1bbf
00000060: 0871 78be 1dd5 4f3e 3725 8abe bcec 67be
00000070: 9f4c 54be d887 da3e 421c 383e 3dcf 873d
-0.3098847 -0.24271141 0.8823532 -0.064498514 0.17851907 0.15551805 0.19409163 -0.5467744
0.12968753 0.9102881 0.17911991 0.06684909 -0.5824455 0.006242704 -0.13973495 0.15001822
0.68344885 -0.19469959 -0.21914248 0.69117385 0.1520629 0.38726896 -0.48289314 -0.60892105
-0.24261868 0.2029614 -0.26981518 -0.22648901 -0.20732354 0.42681766 0.1797953 0.066313244

fc4.bias f4 [4]
00000000: 3d42 c3be 3c1a 893d 5fb1 dfbe 92b7 063e
-0.38136473 0.06694457 -0.4369001 0.13155964
