stackedcoil/vae/cmulti_3c_v4_constraint2_vae.pt (torch, 3527 bytes, 10 tensors)

fc1.weight f4 [8, 4]
0.25899237 -0.13730092 0.5739634 -0.5442354 -0.113300234 -0.19145991 -0.19313066 0.4854641
-0.9673305 1.0193433 0.3902614 -0.61470705 -0.08797032 0.32006937 -0.0959546 0.397914
-0.34716725 -0.41433072 -0.24225515 -0.26453012 0.13656802 -0.29200336 -0.30660945 0.2061709
1.1646192 -0.25605124 -1.1210824 0.4594988 -0.35525316 0.13436717 -0.19463152 0.4533469
00000000: a69a 843e 9d98 0cbe 44ef 123f 0353 0bbf
00000010: f409 e8bd 110e 44be 0bc4 45be c08e f83e
00000020: f9a2 77bf d779 823f 58d0 c73e 715d 1dbf
00000030: c829 b4bd 22e0 a33e d883 c4bd 62bb cb3e
00000040: e8bf b1be 2823 d4be bc11 78be 7e70 87be
00000050: 7dd8 0b3e 7781 95be eafb 9cbe 771e 533e
00000060: 3e12 953f 2619 83be a17f 8fbf 6d43 eb3e
00000070: bee3 b5be 8c97 093e 7c4d 47be 161d e83e

fc1.bias f4 [8]
0.73446083 0.7579629 -0.12213245 -0.13061386 -0.06982136 0.95073473 0.20977408 -0.3305816
00000000: a005 3c3f db09 423f 9420 fabd a4bf 05be
00000010: 80fe 8ebd 5a63 733f 04cf 563e fe41 a9be

fc21.weight f4 [4, 8]
-0.8575365 0.6227284 -1.0638677 -0.1489475 -0.06744975 0.7339759 0.8123895 -0.14647712
0.1639076 -0.09370604 -0.05303645 0.3505148 0.17159203 0.033362098 0.05940465 -0.069621295
-0.23822016 0.07564205 0.15492044 -0.23624475 -0.10986562 0.26089847 -0.13401982 0.11082417
-0.13821004 0.08094096 0.074190885 -0.16650301 0.28711888 0.05894925 -0.053069923 -0.0063432753
00000000: 8387 5bbf 216b 1f3f d12c 88bf b285 18be
00000010: 1823 8abd d8e5 3b3f c2f8 4f3f 19fe 15be
00000020: 65d7 273e f4e8 bfbd c03c 59bd ad76 b33e
00000030: d2b5 2f3e b2a6 083d 4a52 733d 9c95 8ebd
00000040: fcef 73be 38ea 9a3d 77a3 1e3e 25ea 71be
00000050: 3a01 e1bd 7c94 853e 7e3c 09be c8f7 e23d
00000060: ef86 0dbe 60c4 a53d 64f1 973d c47f 2abe
00000070: 3f01 933e c574 713d d95f 59bd 40db cfbb

fc21.bias f4 [4]
-0.033084698 -0.09262146 -0.10588007 -0.009748458
00000000: d283 07bd 52b0 bdbd a6d7 d8bd ffb7 1fbc

fc22.weight f4 [4, 8]
-0.804082 -0.6942873 -0.42330858 0.3409216 0.15848532 -1.1069795 -0.29126433 0.053118438
0.3151495 -0.32991314 -0.05199116 -0.16665365 0.02254638 0.3344757 0.054980643 0.34553996
-0.07590451 -0.15814418 0.0088158045 -0.22965783 0.2810816 0.0995476 -0.010652585 -0.026416838
-0.18881829 -0.18998595 0.008184524 -0.21368691 0.20741144 0.031725038 -0.007928346 0.1858258
00000000: 51d8 4dbf d0bc 31bf e7bb d8be 478d ae3e
00000010: fa49 223e 81b1 8dbf 9920 95be b892 593d
00000020: 465b a13e 60ea a8be aff4 54bd 41a7 2abe
00000030: 30b3 b83c 6640 ab3e 6233 613d 9dea b03e
00000040: d373 9bbd 8cf0 21be 2a70 103c 6c2b 6bbe
00000050: ede9 8f3e 9ddf cb3d 2e88 2ebc 2068 d8bc
00000060: 9559 41be ad8b 42be 6218 063c bed0 5abe
00000070: aa63 543e 1df2 013d e5e5 01bc 1e49 3e3e

fc22.bias f4 [4]
-0.6763256 -0.3061282 0.07652334 0.2515453
00000000: ad23 2dbf d6bc 9cbe 45b8 9c3d 8cca 803e

fc3.weight f4 [8, 4]
-0.07374721 -0.07139282 0.13632186 0.055837236 -0.6003275 0.04520486 -0.09020898 -0.042311747
-0.4428201 -0.010307379 -0.0069352137 0.0016345915 0.6870558 0.026388709 -0.03466084 -0.0017782219
-0.5575441 -0.017836826 0.036836363 0.013972553 -0.56314576 0.04341079 -0.087310694 -0.041080102
0.26950783 -0.005863994 0.008563166 0.0031907787 0.56059885 -0.04082065 0.083299994 0.032309774
00000000: c708 97bd 6636 92bd f597 0b3e 96b5 643d
00000010: 10af 19bf bb28 393d 7cbf b8bd 154f 2dbd
00000020: 51b9 e2be 48e0 28bc ca40 e3bb ca3f d63a
00000030: e4e2 2f3f 222d d83c 86f8 0dbd 3a13 e9ba
00000040: 36bb 0ebf 891e 92bc bae1 163d 23ed 643c
00000050: 522a 10bf 83cf 313d f3cf b2bd 9c43 28bd
00000060: eefc 893e bf26 c0bb 854c 0c3c 621c 513b
00000070: 6883 0f3f 8e33 27bd 3099 aa3d 4157 043d

fc3.bias f4 [8]
0.4578866 0.15594524 -0.35517085 -0.5534954 0.41173276 0.14342707 0.49220946 -0.1734188
00000000: 1d70 ea3e 1cb0 1f3e f4d8 b5be e0b1 0dbf
00000010: a3ce d23e 8cde 123e e102 fc3e b394 31be

fc4.weight f4 [4, 8]
-0.03859264 -0.19946854 -0.1544364 0.3050804 -0.23501623 0.03613108 -0.21764156 0.18977688
-0.00069595105 -0.11226158 0.15363277 -0.34863052 0.28960174 0.24798082 0.21873353 -0.14455628
0.03292732 0.25546274 0.1598598 -0.30633825 0.2339916 -0.10606928 0.19445275 -0.1785869
-0.026794368 -0.20157288 -0.15814495 0.31450674 -0.24482556 0.054694068 -0.20192356 0.173049
00000000: 5113 1ebd 7b41 4cbe 9324 1ebe 8033 9c3e
00000010: 18a8 70be 2ffe 133d 6edd 5ebe df54 423e
00000020: 7c70 36ba 66e9 e5bd e951 1d3e b37f b2be
00000030: ae46 943e afee 7d3e affb 5f3e 9006 14be
00000040: ccde 063d 03cc 823e 4ab2 233e 5ed8 9cbe
00000050: 7e9b 6f3e da3a d9bd 9f1e 473e 7cdf 36be
00000060: dd7f dbbc 1f69 4ebe c0f0 21be 0707 a13e
00000070: 8db3 7abe e306 603d 0dc5 4ebe c233 313e

fc4.bias f4 [4]
0.1353089 -0.08479314 -0.102602765 0.112816945
00000000: 6b8e 0a3e 07a8 adbd 6621 d2bd 920c e73d
